models/autoencoder_sw_100k_n.pt (torch, 963707 bytes, 12 tensors)

weight f4 [256, 2]
00000000: 25e1 55bf d002 8f3e 7f62 0abf ebbd e0bd
00000010: cf09 eebe 33a6 22bc 1e59 fcbd 9ed6 c23e
00000020: 0522 8abd 370d 2b3f 8b8c 163f 1544 0cbf
00000030: 6e89 9f3e 654f 1f3f 6385 e73d 79fb 8bbe
00000040: d588 173f 090d 043f daaf f93e 7549 18bf
00000050: d640 7dbf 37f3 093f e09e a3bc fdbe 253e
00000060: c02c debc 78d1 dbbd ef5a 6c3e 739a 083f
00000070: 8c4d 11bd f0cf d73e 0a2a 05be e0e9 1c3f
00000080: 98d4 a93e 0bf5 62bd 6864 a6bd 8464 063f
00000090: dacb 263f 2d1c 063e c66d 4ebf b083 3fbf
000000a0: 1f91 f53e 484f cbbc a2bd 0a3f 61ad 2abf
000000b0: 81dc 3f3f 793a 143f e149 613d 5b2c e0be
000000c0: 845e ee3e c871 04bf 3138 38bd 5664 073d
000000d0: f8db b7bd 852f 783e 31ef 5cbf 83b4 143f
000000e0: e28d bbbd 95a4 29be 3a10 6b3d e56c dd3e
000000f0: 69c7 e53d 7d95 b2be b6d4 a2bc 9199 843e
00000100: 07c0 cbbe 5210 523e 81e9 163e ab71 09be
00000110: a5d8 05bf 7644 6abf 31ee 1f3f 5fd2 183f
00000120: c862 66be 065c aebe 39f0 0d3f ad92 143f
00000130: 3abe 0fbf 751e fbbe 3901 bc3c 7939 163e
00000140: 3c22 5e3e 48de 1ebf cdd3 a73d 357d 203e
00000150: 0f2a 413f 41f2 343f 948c 82be 85fb cc3e
00000160: 5087 103f deb1 0cbf 0e91 9c3e 0f71 193f
00000170: 1844 dabd ce3e 7dbe ebbf 0d3f 7a25 183f
00000180: d0e7 dfb7 c916 50bc ee97 ec3e 4d1f 34bf
00000190: 6035 36bb 31ba ba3b c970 85bd 7118 29bf
000001a0: 4b51 273e 5bff 25bf dfb3 f1be 3a88 e33e
000001b0: ee59 bd3e 5671 883e 5d35 e9be de73 213e
000001c0: 6dd8 6abe bedf bb3e 049b 6e3e f92a a03d
000001d0: 9ff8 e93e 14aa e73b 50aa ec3c 6afc 2b3d
000001e0: 6cc9 233f f31d 1a3e 83a1 32bf 94dc bfbe
000001f0: 47fb 783e 8e25 9a3e 5760 5ebe d544 b83e
00000200: be3a b53e 2531 edbe 2f94 03bd c1da ecbd
00000210: 0e0f 153f 6f02 40bf a5e5 7ebd eac7 f2be
00000220: 08dc 2e3f 664b 3cbf 57e8 1b3e 67b1 0fbf
00000230: 4de9 603a 4cd4 b0bb 4591 b33d a7dc 16bf
00000240: 083b c63c 469b 9b3e 9aeb cb3d 4c68 c23d
00000250: fcb6 82be 63eb b8be d06c 8e3b 0c82 f43a
00000260: 0e30 3ebf 099e 4fbf eb46 6f3d 5166 ea3d
00000270: b6d5 9d3e 062d da3e 4d2a 48bf ded6 d43e
00000280: e6bf fd3e f384 adbd 13cc 8bbd 7687 6bbe
00000290: da9d 57bf 3661 a73d 18a9 8cbe e9b9 a8be
000002a0: 8ed6 c5ba 534d 423e 3f98 a6bc 8172 27bd
000002b0: 3012 37bd a3fa f73d 0e83 b53e 1799 33bf
000002c0: c883 77bd 5f3d 813e 4da9 5dbf 9020 84bf
000002d0: 39e2 073f 469d 33bf 04b4 9cbe 65b7 10bf
000002e0: f6e3 873e 6c23 143f dc48 bebe bb32 223f
000002f0: e95f 473e 4762 033f c805 edbe 46d7 db3e
00000300: 8f26 813e 11ab 1c3f 598b 80bc 93fd e6bc
00000310: 032f 1d3e 2ac1 103f c5e3 013f 6527 25bf
00000320: 7460 a8be 559a 0c3d c2a2 9339 ff72 f03a
00000330: f000 0bbe ff15 2bbd 4644 163f b1ed febe
00000340: e739 ccbe d6e0 073f a2fd c03e a0c9 04be
00000350: c5ca 933f 2315 51bf 4b50 2b3f 8712 273f
00000360: b03c df3e 443e 473f 3294 d93e 3bf3 e73c
00000370: 737a b0be 4011 a3be d116 15bf dfca 033e
00000380: 2c78 85b8 507c 05bf 2df2 41bc 49d5 cebc
00000390: cb64 ebbd 4531 963e 0ce2 f9be 081b a53e
000003a0: dfb2 1cbf 8cb6 5cbf 2848 a2be 6cdf cd3e
000003b0: d430 f63e 6a6d a53e 518c 703b a17f 8e3b
000003c0: 36d9 f9be 5657 7dbf c292 2abf b05a b83e
000003d0: 253e 3a3f 173e 603e cd72 c4bc f354 d4be
000003e0: 33e9 00bf 14f6 62bf 82d7 e7bc 7132 dcbe
000003f0: e0a4 0a3f cecf 5fbc efd2 693c 4b7f 99be
-0.8354667 0.27931833 -0.54056543 -0.10973724 -0.46491858 -0.00992732 -0.12321685 0.38054365
-0.0674477 0.6681704 0.588082 -0.54791385 0.31159538 0.6223052 0.113047384 -0.27340296
0.59193164 0.5158239 0.48766977 -0.59487087 -0.98927057 0.5388674 -0.019973218 0.16186137
-0.027120948 -0.10733312 0.23081563 0.5336067 -0.035474345 0.4215083 -0.13004318 0.61294365
0.3317001 -0.055409472 -0.0812462 0.52497125 0.651548 0.13096686 -0.8063625 -0.74810314
0.4796228 -0.024818078 0.54195607 -0.66670805 0.7494584 0.5790172 0.055002097 -0.4378384
0.46556485 -0.51736116 -0.044975463 0.033054672 -0.089775026 0.24236877 -0.8630248 0.5808794
-0.091579214 -0.1656669 0.05738852 0.43247142 0.11219675 -0.34879676 -0.01987682 0.25898412
-0.39794943 0.20514038 0.14737512 -0.13422267 -0.522837 -0.91510713 0.62472826 0.59696
-0.2249862 -0.34054583 0.55444676 0.5803631 -0.5614964 -0.49046674 0.022949802 0.14670362
0.21692747 -0.62057924 0.08194695 0.15672763 0.754548 0.7068215 -0.25497878 0.40035644
0.5645647 -0.54958904 0.30579418 0.5993814 -0.10657519 -0.2473099 0.5537097 0.59432185
-2.6691618e-05 -0.012700745 0.46209663 -0.7036026 -0.002780281 0.0056984653 -0.06515653 -0.6605292
0.16339605 -0.64842767 -0.47207543 0.4443987 0.36982673 0.26648968 -0.45548525 0.15766856
-0.22934122 0.3669414 0.23301321 0.078206964 0.45697495 0.0070698354 0.028889805 0.041988768
0.6397922 0.15050487 -0.697777 -0.37472975 0.24314605 0.30106777 -0.21716438 0.35990015
0.3539638 -0.46326557 -0.03212374 -0.115651615 0.58226097 -0.75003713 -0.062230725 -0.47418147
0.6830449 -0.7355255 0.1522535 -0.5613007 0.00085796864 -0.0053964015 0.08767942 -0.5893044
0.02419807 0.30391902 0.09957047 0.09492549 -0.2553023 -0.36117086 0.0043464676 0.001865448
-0.74292076 -0.8110052 0.058417242 0.114452966 0.3082711 0.42612475 -0.78189546 0.4157018
0.4956047 -0.08472624 -0.068260334 -0.23000893 -0.8422524 0.081728384 -0.27472758 -0.32954338
-0.001509385 0.1897481 -0.020336268 -0.040880684 -0.04469508 0.12108352 0.3545155 -0.7015547
-0.06042841 0.25242135 -0.8658646 -1.0322437 0.53079563 -0.70161855 -0.3060609 -0.5652984
0.26541108 0.5786655 -0.37164962 0.6335866 0.1947018 0.51321834 -0.46293473 0.42937678
0.2522473 0.61198527 -0.015691446 -0.028197085 0.15349965 0.56544745 0.50738174 -0.64513236
-0.32886088 0.03432687 0.0002815929 0.0018344818 -0.13574576 -0.041769024 0.58697927 -0.4979072
-0.39887926 0.5307745 0.37693506 -0.12967539 1.1546255 -0.8167288 0.6691939 0.65262645
0.43600988 0.77829385 0.42495877 0.028314224 -0.3446842 -0.31849098 -0.5823794 0.12870358
-6.364318e-05 -0.5214281 -0.011837524 -0.025248187 -0.11493834 0.29334465 -0.48805273 0.32247186
-0.61210436 -0.86216044 -0.31695676 0.4020952 0.48084128 0.3231004 0.003670473 0.0043487106
-0.4879853 -0.9896139 -0.66630185 0.3600669 0.72751075 0.21898685 -0.023980523 -0.4147106
-0.50355834 -0.88656735 -0.028301004 -0.43007234 0.5415783 -0.013660384 0.014271482 -0.2997993

bias f4 [256]
00000000: f7fa 273f f518 b13e a26a 793e 9cb9 7fbe
00000010: d51b 12bf 14bf b43b 300f eabe 4596 1f3e
00000020: 45e1 5abe 9784 093e 34f2 53be 05f2 a9be
00000030: d7ae e23d 819b b6be 0eb0 bcbe 86c9 f3be
00000040: 26b1 ffbe 9933 acbe b91a babe c01e 4bbf
00000050: 6c82 85be 1d3f cb3e f9af 24bf d3ec ae3e
00000060: 9deb 043e ef90 32be 053e adbd f6e7 923e
00000070: bafd 533e 5b0f e3be d583 5f3e 43ae 65be
00000080: 0d69 ab3d cef3 113a 747b 39bf 6813 08bf
00000090: 9984 d93e ac33 bdbe 9d06 2e3f 0493 1cbe
000000a0: 2142 b43e fbbc 45be ea02 36bf bd71 32be
000000b0: 1e57 2b3d f688 94be cd23 923e 80f9 a2be
000000c0: 99d6 da3b c024 5f3e c5a2 55bb 9f43 243f
000000d0: 46a4 eb3e 3860 08be f424 bcbe 8f0d 3c3e
000000e0: 7c04 30be cc33 0bbf 34d9 bebe 5289 73bd
000000f0: 0cfd 22bf a9e4 333f cc5e f3be 9d13 25be
00000100: c4b4 083e 7681 023e 9411 043f 3c57 113f
00000110: 6127 633d f81a c13e 8331 b93b bd61 fe3e
00000120: ec23 95be 0472 16be ac02 ed3e a7a5 0cbb
00000130: 1d71 3ebf 823f 17be 6e05 4cbe db7e f3bc
00000140: 5906 87be 9fec 813e fdb0 eb3e 36c4 133f
00000150: 6216 243d f576 3f3d ef2c 9ebd 085b e83e
00000160: f705 37be 8eb8 e6be 7412 bd3e 6f5e 98bc
00000170: 1553 babe a101 bbbe 7109 19be dcc2 83bd
00000180: 4fbe ccbe 80bc 023d 2d4e 95be 6eaf 8c3e
00000190: 9e09 383e 5183 d4bb 0165 063e 8f77 813b
000001a0: d79b 4ebe 8f28 2ebe b67e afbe b805 ffbe
000001b0: c09a 1cbf 00b3 b6be 9a0d 0abe 565b bb3e
000001c0: cb58 223f b5f2 dc3c bf74 3abe 5e38 403d
000001d0: 2bd6 48bf c628 25be 6e13 bdbe 48bc 11bc
000001e0: 482d 12bf 5a18 633e 3780 31bf f5b3 ce3e
000001f0: 3254 25bf 7b40 b93e f42e adbe 6951 823e
00000200: 7b49 053f 1394 b2be 8b21 553e cce3 b93e
00000210: fba1 adbe c644 413d f86f 143f 0d18 d73b
00000220: d2a9 273f 21dd abbe d7f2 7dbe 9daa 58bd
00000230: 1a05 d0be 714f b03e b205 c0be 186d 86bc
00000240: aeba 2bbd 47a3 6cbe de2c 4e3f 4afd dabe
00000250: 7594 d13e 6b5a 13bd 136b 72be 9058 4b3e
00000260: 7ed4 75be f59b c7be b318 3dba 2825 163f
00000270: c9ee 07bf b5e5 d03d 1ff5 033f 918b 533e
00000280: b1cb ee3e fe80 81be c190 2abf b13e 103f
00000290: 3dc3 b7be 028e 09be bc3e c1be 2b58 b53e
000002a0: 1769 163e 452f b3be 4951 3c3f fe93 f4be
000002b0: d278 88be 75b9 41bf 67c7 243f 401b 233f
000002c0: 4938 11bf cc01 02bf 9c33 e13e dcca 023f
000002d0: 4f19 943e 8afd 1e3e cf7b cb3c 887e 8f3d
000002e0: e4d1 81be cec8 413e 5867 60be 4732 78be
000002f0: dd84 713e b65a 6b3e 6629 fc3e 0134 c43e
00000300: 7602 e83e d92d e23d cf97 7f3e 76fe cdbc
00000310: e58b ebbe 455e 0fbf 295e 26bd c1f7 dbbe
00000320: 3950 bbbe f9d5 1fbf 0772 f6be ac35 a03e
00000330: 680c 10bf 8d0b 6a3e 96c1 75be 76e0 4abe
00000340: 58b7 0f3f 6321 8f3e 4993 1d3f 0cfe b63d
00000350: 5795 4ebe 8bb1 0f3f e2e3 203f a570 033f
00000360: 28ba 193f 6d9c 093f 9b22 16ba 9222 24be
00000370: 87a7 e7be c5bc c4be 556c 063c 6427 b2bd
00000380: e0fb de3e 4158 cbbe 11d5 dcbe 697f aabe
00000390: 5478 d53e 38c3 793d 995c 34bf e2a2 193c
000003a0: b65a 9bbe ed4d 203c 6878 44be c903 b7be
000003b0: 3ba4 433d deff b83d c1b1 bdbd 7d1c df3e
000003c0: 65bd 0bbf 7a21 24bf f1a6 9e3e 5dbf 9c3d
000003d0: b257 b4be 81cd f23e 328e b33e 72f8 713e
000003e0: dc87 893e c000 e43e de68 45bd e14f 8ebd
000003f0: a266 0f3f c317 0c3f 018f a7be b6b8 c4be
0.65617317 0.34589353 0.24357083 -0.24973148 -0.5707372 0.0055159424 -0.45714712 0.15584667
-0.21374996 0.13429485 -0.20697862 -0.3319246 0.11068504 -0.35665515 -0.3685307 -0.47614688
-0.4993984 -0.33633116 -0.36348513 -0.79343796 -0.26076066 0.3969659 -0.6433101 0.34165058
0.12980504 -0.174381 -0.08459095 0.28692597 0.20702258 -0.44347653 0.21827634 -0.22429757
0.08369646 0.0005567641 -0.72454 -0.5315461 0.42483976 -0.36953485 0.6797884 -0.15290457
0.35206702 -0.19310372 -0.71098197 -0.174262 0.04183113 -0.29010743 0.2854294 -0.31830978
0.006678414 0.21791363 -0.003259824 0.6416568 0.46023768 -0.13317955 -0.36746943 0.18364547
-0.1718921 -0.5437591 -0.37275088 -0.05945713 -0.6366737 0.7027078 -0.47533262 -0.16120763
0.13350207 0.12744698 0.5158932 0.56773734 0.055457477 0.37715888 0.005651654 0.49683943
-0.2912897 -0.14691931 0.462911 -0.0021461041 -0.7439135 -0.1477032 -0.19923946 -0.029723575
-0.2637203 0.2537584 0.4603347 0.5772127 0.04006041 0.046744306 -0.07723414 0.4538195
-0.17873369 -0.4506268 0.3692814 -0.018599717 -0.36391512 -0.3652468 -0.14945008 -0.06433651
-0.39988944 0.03191805 -0.29161206 0.27477592 0.17972419 -0.0064853807 0.13124467 0.00395102
-0.20176636 -0.1700766 -0.3427636 -0.4980905 -0.6117363 -0.3568344 -0.13481751 0.3659312
0.6341674 0.0269712 -0.18208598 0.046928756 -0.78451794 -0.16128835 -0.36928886 -0.008894987
-0.57100344 0.22177258 -0.69336265 0.4037167 -0.64581597 0.36182007 -0.33824885 0.25452736
0.5206525 -0.34878597 0.20813577 0.36306608 -0.33912644 0.047184728 0.5798335 0.0065641464
0.654935 -0.33567145 -0.24799667 -0.052897085 -0.40628892 0.3443561 -0.37504345 -0.016409442
-0.04192608 -0.2310916 0.8053721 -0.4277137 0.40933576 -0.0359749 -0.23673658 0.19858003
-0.2400684 -0.38986173 -0.00072134583 0.58650446 -0.5309873 0.10200063 0.515459 0.20658709
0.4663978 -0.25293726 -0.66627127 0.5634566 -0.35891142 -0.13433078 -0.37743175 0.3541883
0.14688526 -0.34997 0.7356153 -0.4776916 -0.2665468 -0.7567361 0.64366764 0.63713455
-0.5672651 -0.5078399 0.43984687 0.5109079 0.2892556 0.15526405 0.02483931 0.07006556
-0.25355446 0.18924257 -0.21914423 -0.2423793 0.2358584 0.22983822 0.49250335 0.38320926
0.45314378 0.11043901 0.24960254 -0.02514575 -0.4600517 -0.5600322 -0.040617142 -0.4296246
-0.36584643 -0.6243587 -0.4813387 0.31290948 -0.5626893 0.22855969 -0.23999628 -0.19812188
0.56139135 0.2795516 0.61552864 0.08935174 -0.20174156 0.56130284 0.6284772 0.51343757
0.60049677 0.5375431 -0.00057272025 -0.16028813 -0.45245 -0.3842527 0.008204539 -0.086989194
0.4355154 -0.3971577 -0.43131307 -0.3330033 0.41693366 0.06097719 -0.7045379 0.009377213
-0.30342644 0.009784204 -0.19186556 -0.35745075 0.047764044 0.09033178 -0.092624195 0.43576422
-0.5458587 -0.6411358 0.3098674 0.07653687 -0.35223156 0.47422412 0.35069424 0.2362993
0.26861465 0.44531822 -0.048195712 -0.069488294 0.5601598 0.5472376 -0.3272629 -0.38422173

weight f4 [256, 256]
00000000: f63a 1e3e 1e56 fb3e 350c 803e 1c15 d53d
00000010: 66d7 493b 057f 57bd ce1e 8abe 9c8d 3c3c
00000020: 450e 11be 95a4 34bd f2bb 703e ce7b 913d
00000030: 5b5b a53d e809 09be 9151 cd3c 14c5 903b
00000040: de99 8dbb 84ac 63bc 0b10 e7be 78a6 89bc
00000050: ec8e 92be 382f fabd e4f6 04bf 709e 1cbd
00000060: 2740 babd 14c5 703d 119d 62bd 52de 383e
00000070: fd1e c63d e3a2 f1bd 69b2 ce3c 2df9 1f3b
00000080: f525 a73d a892 2f3d 1248 bebc 329e d5be
00000090: 491d 183e 3b5a 86be 6fce f43e 0034 0e3d
000000a0: d6c7 593d 5a4e 15bb bf65 15bf 496b b13c
000000b0: 2d30 41be 3029 3cbe 9c93 283d a570 25be
000000c0: f26b 7fbd 55a6 86bc a079 933c 00eb 463e
000000d0: 65fc fb3d 0cdd f73d 2f34 fabe 7faf a13d
000000e0: fe78 f13c d4b6 3c3c abc4 d4bd 5b86 113b
000000f0: 6b83 e1bd db0f 1e3f faee ebbd 7e15 b63c
00000100: 6244 3bbe 310c f1bc b2c2 dabd aacf 973d
00000110: 6b69 563c c4ff d5bc e113 16bd 64fe 9f3d
00000120: 4c13 acbd d036 33bc c2c4 343e bb38 ce3c
00000130: 6f16 17bd 5a41 b9bd 5eca 33be 9288 c33e
00000140: 04f0 33be 97ea 18bd bf1c 2b3f c895 bd3d
00000150: d750 70bd 5e17 90bc 3c56 403d ca92 5fbc
00000160: d48e 75bd e4e6 413d d361 16be 965c 913b
00000170: 613a 1dbe 0292 83bc 17f5 b6bd 7e7d 243d
00000180: 529f 5fbe c2aa 6e3d cac3 21be e8a3 b9bd
00000190: 061a d93d f52c 033d 6538 9a3d 5ca2 73be
000001a0: 92ad fe3d 1f4e 2abe 61bd 05bc 30a1 bcbe
000001b0: ee0f b9be 8844 f0bd d206 223d 047d 823e
000001c0: b726 353d 7a55 503d 95e7 163d 4e7c 073e
000001d0: 4098 2dbd a306 833d ee89 b5be c334 663d
000001e0: a5a1 583d 9c17 d53d 4556 82be b920 aa3c
000001f0: b780 8f3d 19cf 203d 5208 88be f988 873c
00000200: dd1e 1e3e 13ce 03bf 998e b9b7 4819 213f
00000210: 7604 143d 4009 193e 6896 0f3e fb1a 983c
00000220: 68c2 2a3e 10aa c43c aea0 b43d 796c cebc
00000230: ead5 2fbe ec3d e83b 3383 e6be 0e92 323c
00000240: ceee 983d 35da e13e c32c 563e f354 1f3e
00000250: fd87 a93d 6e22 533d d423 b6bd 9436 163f
00000260: 9b6c 483c 9853 89bd 1069 3f3d ccf4 923c
00000270: 66ba 86bd 9990 9cbd 40d1 8a3e a3b8 153d
00000280: dac3 5a3e e030 1dbe 11f3 45be e423 963e
00000290: 3842 0ebd 646b b53e 8b83 95be 8996 6f3d
000002a0: 1ef4 bebc f23a c1be f7a5 bf3e 1758 13bf
000002b0: bcb0 8cbd ad6a 1dbd 1d68 743e e638 bf3d
000002c0: 038d 9bbd 513c e1bd 572e 373e 34e9 a73e
000002d0: cc90 c8bd b893 0a3d a283 02bd d492 ac3c
000002e0: 90b8 5f3d bbaa c43c b105 93bc c0f3 45be
000002f0: 1d74 e73d ce57 f23e 21b1 d03d c20d 073f
00000300: 0dc1 083f b06e f63d 9491 a4bc 04cf 5a3d
00000310: 5ee0 0f3d b139 843b 97a9 b03d a53b 61be
00000320: d29f b43c 357a 84be 0b82 55bd b7a1 bb3e
00000330: 9954 a8be 1c9e 133d fdad b1bd 5153 7ebd
00000340: d273 5f3e a444 853d 9714 443e ec64 c8bb
00000350: 3027 d03d 5d32 aa3c d98d c73e 9bee a43d
00000360: 2e6f 133e 2dc9 553e 5e26 243c fab0 0cbe
00000370: 7027 babe 46f7 cfbe 1589 ebbb 3955 173d
00000380: 4aab 8b3d 32ed 2b3d f227 80bd 243a 28be
00000390: 0544 e53d 4dbd 14bd f846 99be 40a5 3d3d
000003a0: ecec c8be 2e91 fc3b 168a adbd 43a6 37bc
000003b0: 2b7a ac3d b0fe e33d c454 b6bd 6f99 063f
000003c0: f73f 09bf 2620 383d 8201 cd3e 67b6 f0bd
000003d0: 65f5 debe 9ef7 cd39 8d9f 903e b6b4 48be
000003e0: abf1 663e 0662 5b3d 8a4d 5fbc 7f30 28bc
000003f0: d245 373e 78e9 c13d 9b4b 063d ff1b c53d
0.1545218 0.4908914 0.25009313 0.10404417 0.0030798553 -0.05261137 -0.26976627 0.011508372
-0.141656 -0.04410227 0.23509195 0.07103692 0.08074065 -0.13382685 0.025063308 0.004418025
-0.004321321 -0.013896111 -0.45129427 -0.016803011 -0.28624666 -0.122160375 -0.51939225 -0.038237035
-0.09094267 0.0587817 -0.05532557 0.18053558 0.09673879 -0.11798646 0.025231557 0.0024409995
0.081615366 0.04286447 -0.023227725 -0.41722256 0.14854921 -0.26240715 0.47813746 0.03471756
0.053169094 -0.0022782297 -0.5835838 0.021657603 -0.18866034 -0.18375087 0.041156396 -0.16156252
-0.062358804 -0.016436735 0.018002331 0.19425583 0.12304 0.12102708 -0.48867938 0.07894801
0.029476639 0.011518199 -0.10389074 0.0022205326 -0.11011394 0.61742944 -0.115201905 0.022227045
-0.18287805 -0.029424759 -0.106816664 0.07412656 0.013086657 -0.026122935 -0.03664005 0.07812193
-0.08402118 -0.010938361 0.17653182 0.025173536 -0.03688663 -0.09045668 -0.17557666 0.38190132
-0.17572027 -0.037333097 0.6684074 0.09257084 -0.058670845 -0.017589267 0.04695724 -0.013645837
-0.059950665 0.047339335 -0.14685754 0.004436086 -0.15354301 -0.016060833 -0.08933466 0.04015874
-0.2183812 0.058268316 -0.15797344 -0.09064466 0.10600667 0.032025296 0.07530288 -0.23792404
0.1243545 -0.16631363 -0.008162827 -0.36841726 -0.36144966 -0.11731821 0.039557286 0.25486004
0.044226374 0.050862767 0.036841948 0.13231012 -0.042381525 0.0639775 -0.35456795 0.05620266
0.05288853 0.10404894 -0.25456443 0.020767557 0.07006972 0.039260004 -0.26568848 0.016544806
0.15441461 -0.5148632 -2.212012e-05 0.629292 0.036137067 0.14944935 0.14022219 0.018567553
0.16675723 0.024006873 0.0881971 -0.025198208 -0.17171445 0.00708746 -0.45021972 0.01089908
0.074674234 0.4411179 0.20915513 0.1555975 0.08277891 0.051546507 -0.088935524 0.5867703
0.012232925 -0.06705397 0.046731055 0.017938994 -0.065785214 -0.07644767 0.2711277 0.036553036
0.21363774 -0.15350676 -0.19331004 0.29324257 -0.03473112 0.35433495 -0.29201922 0.05849317
-0.023309764 -0.37740284 0.3743131 -0.5755629 -0.06869647 -0.038431812 0.23867841 0.093370244
-0.07595255 -0.109978326 0.17888771 0.32795107 -0.09793243 0.03383228 -0.031863816 0.021066107
0.054619372 0.024007192 -0.01794705 -0.19331264 0.11301444 0.47332615 0.10190035 0.5275537
0.5341957 0.12032831 -0.020088948 0.05342008 0.035126083 0.0040351977 0.08626097 -0.21995409
0.022048865 -0.25874487 -0.05212597 0.36646816 -0.32877043 0.036039457 -0.08675764 -0.062091175
0.21821526 0.06507233 0.1914848 -0.0061155465 0.101637244 0.020775968 0.3897541 0.08053323
0.1439788 0.20877524 0.010018913 -0.13739386 -0.36358213 -0.40618342 -0.0071879723 0.03694651
0.0681978 0.041974254 -0.06257619 -0.16428429 0.11194614 -0.036313344 -0.29936957 0.046300173
-0.39243257 0.0077077365 -0.084736034 -0.0112090735 0.08421739 0.11132562 -0.089028865 0.5257787
-0.5361323 0.044952534 0.40040213 -0.117535405 -0.43546596 0.00039285136 0.28246728 -0.19600186
0.22553127 0.05356028 -0.013629327 -0.010265469 0.17897728 0.09468359 0.032786947 0.096244805

bias f4 [256]
00000000: d3a7 3bbc 5383 d7bd 5d6d 24bc edef 5dbe
00000010: 0257 debd da12 77bd 7a30 dabc 946c 20be
00000020: 4179 943d 61c0 ad3d 80ba 04be 9c96 68bb
00000030: 7a14 21be 40c7 16be d5ae 08bd 5dab 86bd
00000040: ccc1 2bbe 3d78 12be c51d a4bc ae70 18be
00000050: cda2 633d f1ea 643e 0716 9dbd 56b1 463d
00000060: 502d 92bd 9e37 d8bd e12c 87bd 0349 1fbd
00000070: cf98 453d 7cac a33a 1085 38be 85e8 05be
00000080: 6865 bd3c 2ea2 20be 6f0b 8abc 190b 8f3d
00000090: abc2 b4bc 853f 14be 69ed 56be 2fe3 4dbe
000000a0: 8afa 943d 31cd ac3c da95 1dbe 7f4b e5bd
000000b0: 8853 04bd 2b42 093d aca8 2ebe ab51 18be
000000c0: 1a2e 20bc 347d 7cbd a9af 53bd dca5 6cbe
000000d0: 9666 853d a4c0 1a3e cee4 1fbe b8b5 d0bd
000000e0: ea09 febc c79b b83d 94b2 8f3c 591f a4bc
000000f0: bbc3 503d 7918 863d 8783 573d 9017 7a3d
00000100: 3d85 fdbc 42c6 243e ed6e 10be e2b3 153d
00000110: 7c84 a33d f610 0cbd 6ef4 37be 00c6 09be
00000120: 8add f73c 793b 59bb 51fd e63c 8c56 543d
00000130: 385b 26be b091 163e 6f8f 98bd 3263 0e3e
00000140: 2db0 ef3d 4818 803c 7d95 2bbe c57f e03d
00000150: 114a 3dbc 4170 ec3d 2dd3 5c3d accc 943d
00000160: e185 fbbd e737 d63a f208 f43d c06d 4c3d
00000170: f655 e7bc 567f 3abd c64c f6bd d8fa 5dbe
00000180: 4739 ff3c c172 0abe dd04 ecbc 5b65 17be
00000190: 6533 aa3d 3cbd 67bc d724 1d3d 5096 90bb
000001a0: 61f6 95bd 7e0d 32bd 129f 1dbd 5ad9 fbbd
000001b0: 5663 903d e7e2 c5bc 3ac2 3f3d 8cca b03c
000001c0: 8d18 dc3c 666c 053e c9eb 5cbe 7109 86bd
000001d0: 8598 6abe 5eba 46bc 7066 e03b 946c d5bd
000001e0: a114 cc3a aa4f 3c3e 26d7 003d 88e3 173e
000001f0: 47c6 c33d d438 25be c41b c2bd 4ab0 f2bd
00000200: 740c e2bc ecc1 203e ff8f 55be 6956 61bc
00000210: aa04 ad3d 59cc 963d 3830 593d d3b3 05be
00000220: 95ff d6bd 43dc 12be 3029 52be e20e d03a
00000230: 5e1a 0cbd 9bd1 7d3d 6773 2cbe fb03 d1bd
00000240: 4da2 45be 53d0 c33d 49fb 51be 403b 003c
00000250: c1a0 90bd c9c6 1bbe 425a 1ebe 3aed 17ba
00000260: 3cac c5bd cfeb 16bd 9606 313e c14d a6bc
00000270: 5634 6bbd d70c 883c cba6 cfbd 402f c73d
00000280: 2b93 6d3d 5246 c9bd 893c 07be b368 74bd
00000290: 3491 4d3d e800 7d3a 861f e9bd 892f 9a3d
000002a0: 4821 fe3d ca1e 8fbd 3fea 2dbe 7c4b 343e
000002b0: ea0f c03d 85ca c13b 4915 2f3d 7c85 113d
000002c0: 3aac ebbd d601 6f3d bd90 1bbe 40dc 1dbe
000002d0: 1f40 9b3c 559c bf3d c9f5 6c3c 8032 9b3d
000002e0: de62 7f3d ee92 9cbb d5a7 fabd 7d3c 5e3d
000002f0: 218d 45be f770 2c3e f1d7 0c3e 42e5 dabc
00000300: 7ef9 60be 340a d8bd d2c7 4bbb 46fa 0dbe
00000310: 05ba 95bd 92c2 a53c d136 88bd e796 13be
00000320: c86b fbb9 5bc1 b83c 9959 673d 6370 073d
00000330: 2c14 a03d 504f c63d bdad 933d 68a1 7abd
00000340: e5ec dabd feb8 23be b842 9cbd db83 323d
00000350: a8cf 1bbe 92cf 0ebe 3d2a 43be cdaa 6b3c
00000360: a4ce 8e3c 0ee3 96bd 1cc3 46be fd07 d4bd
00000370: 2206 41be d83c aa3d 7b0f 343c 75ca 95bd
00000380: af3d b33d e589 5abe 313d e9bd b0c0 5dbe
00000390: 3fd8 2abe 0fe5 38be 4719 43bc 9ebe d2bd
000003a0: 503f 2cbe 479c ce3c cbb1 273d 5c35 c0bc
000003b0: b9c8 113e 6895 4fbe 7206 253e 2633 a63d
000003c0: c80d 05be 0599 3b3c c2f9 753c 4abd ae3c
000003d0: 7982 473e 5a5c 0c3d a5e6 0fbd 9669 f93d
000003e0: 87ed 25be f128 cfb9 9af8 c2bc 36e7 7bbd
000003f0: 4e24 863c edbb 0e3d 5872 a33d c2ff d73d
-0.011453587 -0.10523095 -0.01003584 -0.21673556 -0.10856439 -0.060320713 -0.026634444 -0.1566642
0.0724969 0.08483959 -0.12961769 -0.003549016 -0.15730467 -0.14724445 -0.033369858 -0.06575654
-0.16773146 -0.1430368 -0.020033726 -0.14886734 0.05557518 0.22355248 -0.07670217 0.048508964
-0.07137549 -0.10557483 -0.06600357 -0.03888799 0.048241433 0.0012487317 -0.1801951 -0.1307698
0.023119643 -0.15686867 -0.016851155 0.069845386 -0.022065481 -0.14477356 -0.20989002 -0.20106195
0.07274349 0.021093937 -0.15389195 -0.1119604 -0.032306224 0.03351037 -0.1705653 -0.14874904
-0.0097766165 -0.06164284 -0.051681194 -0.23110145 0.06513707 0.15112549 -0.15614626 -0.1019091
-0.031010587 0.09014087 0.017541207 -0.020034479 0.050967913 0.065476365 0.05261567 0.061057627
-0.030947322 0.16091254 -0.14104815 0.036548503 0.07984254 -0.034195863 -0.17964336 -0.13454437
0.030257005 -0.003314702 0.028196963 0.05184035 -0.16245735 0.14704013 -0.07449233 0.13905028
0.11703525 0.015636578 -0.16756244 0.1096187 -0.011553303 0.11544848 0.05391233 0.072656006
-0.12281395 0.0016343564 0.11915769 0.049909353 -0.028239232 -0.045531593 -0.12026362 -0.2167772
0.031155242 -0.13520338 -0.028810913 -0.14784758 0.08310584 -0.014144238 0.03836521 -0.00441245
-0.07322384 -0.0434699 -0.03848178 -0.12297316 0.07050197 -0.024156047 0.04681609 0.021580957
0.026867175 0.13029632 -0.2157432 -0.065447696 -0.22909744 -0.012129394 0.006848149 -0.104211
0.0015570113 0.18389764 0.03145518 0.1483289 0.09559303 -0.1613496 -0.09477952 -0.11850031
-0.027593829 0.15698975 -0.20855711 -0.013753512 0.08448155 0.07363195 0.0530245 -0.13056879
-0.10497967 -0.14341836 -0.20523524 0.0015873576 -0.034204833 0.061967473 -0.16840898 -0.10205837
-0.19300194 0.09561219 -0.20506014 0.007826626 -0.070619114 -0.1521255 -0.15464118 -0.00057955424
-0.09651992 -0.03684598 0.17287669 -0.020300748 -0.05742296 0.016607685 -0.10139235 0.09725809
0.05800168 -0.09827866 -0.13206686 -0.05967016 0.050187305 0.0009651319 -0.11382966 0.07528598
0.12408692 -0.069882944 -0.16983889 0.1760692 0.09378035 0.005914035 0.04274491 0.03552769
-0.11507459 0.05835136 -0.15191932 -0.1541605 0.018951474 0.0935599 0.014462897 0.075779915
0.062350146 -0.0047782576 -0.12239043 0.054256905 -0.19292118 0.16839968 0.1375425 -0.026720647
-0.21970174 -0.10548821 -0.0031094444 -0.13865003 -0.07310871 0.02023438 -0.066510804 -0.14413033
-0.00047954754 0.022553137 0.05648193 0.033066165 0.078163475 0.096830964 0.07210872 -0.061189085
-0.10689715 -0.15988538 -0.07629913 0.04358278 -0.15215933 -0.1394637 -0.19059081 0.014383984
0.017432518 -0.07367526 -0.19410366 -0.10353086 -0.18849996 0.08312386 0.010990019 -0.07314006
0.087519996 -0.21341665 -0.113886245 -0.21655536 -0.16684054 -0.18056129 -0.011907882 -0.102902636
-0.16821027 0.025221003 0.04094104 -0.023462944 0.14236726 -0.20271838 0.1611574 0.081152245
-0.12993538 0.011450057 0.01501316 0.021330494 0.19483365 0.03426776 -0.03513207 0.12178342
-0.1620389 -0.0003951262 -0.023800183 -0.061499797 0.016374733 0.03484719 0.07980794 0.10546829

weight f4 [32, 256]
00000000: c304 be3e 7ab9 3bba ba1a cb3d 5d95 073e
00000010: 161e a53d 4f93 973d 5356 523c 723e 463d
00000020: 5877 083e c211 92bd efc5 9f3c 257c 9f3d
00000030: 70f0 483d cb2a a33e bfa2 f93d 654e dc3c
00000040: fdd2 a63d 5045 b43d 3900 2f3e 5fed 773d
00000050: 4b9d 633d 9110 c9bd 25de abbc c53a 1f3e
00000060: 25ed 1e3e e56b 803b 8e66 67bd df83 543e
00000070: 6bc3 253d 7436 043e e42b 783e 4e4e aa3c
00000080: 2492 cb3d 210c 503d 6c6a 87bb 5914 7d3d
00000090: 745b 603d 535f d5bc a3ad 353d 8234 583c
000000a0: e458 c93d ca4b da3c 0bb3 863d 570f 223e
000000b0: f4f8 54bd 6b56 2a3d dc2e c33b cf3c 923e
000000c0: a232 793d b7af ba3b 8152 78bd 3f34 4f3c
000000d0: 48ff b43d bd57 2cbd f649 283e cafe 8c3d
000000e0: a6ff 533d b648 cb3d a596 8b3d a89d 053e
000000f0: 77e6 c7bc 5689 be3d 67e6 2e3d 7927 293d
00000100: 4174 353d d951 6cbe b086 6b3d 0e2f 82bc
00000110: 226c 9b3d 0f48 5a3c 61dd 243d c5bc ce3e
00000120: b3bc 0f3d 252f 2b3d 5c8a fc3e 8da4 ac3e
00000130: 833d 543e e65f efbc f8a5 f3bb 9937 8cbe
00000140: 34c1 04be 40e3 d93d 6c70 2f3e dace 033d
00000150: 24e3 a13d 9bcf 92bc d973 de3d aa7c 2b3e
00000160: 0a00 04bc a0a6 d13d 1847 ccbd ba8e 4d3d
00000170: e5ac f6ba 091c b73d a490 fb3d c992 c93d
00000180: 692d cb3d e1c1 e73b 2b07 cd3d 08ff 0d3d
00000190: f1c3 453d 56ed bf3d 18a2 d13b 2502 bd3d
000001a0: 185f ef3d ccf8 be3d 1ff4 113e 0430 383c
000001b0: 6d3a 8d3d a3a8 203e 8d90 303d 7a3a a2bd
000001c0: 89db c33e 9556 1cbe 8682 a13d fe71 8d3e
000001d0: 77b8 db3d 3e2a d33d 172f 7e3d 64a2 ca3e
000001e0: b7e2 fe3d f98d 94be 461e 35bd cb6f 07bc
000001f0: 3c95 5bbc 0876 ca3d 36e1 42bb 5e2f 43bd
00000200: f9f1 ca3c 5c18 eebc c879 473e cd50 cf3d
00000210: 494a c33d abf3 be3d e219 5f3d 5a19 843d
00000220: 05c2 313d a24b 933d 50dd 943d 8c91 513d
00000230: f0af 833a d2ad b5ba e9a1 98bb bd94 6d3d
00000240: 2b78 8b3e 26c6 1c3e 33a8 073e b528 053e
00000250: 5040 1d3e 5ab2 943e 28b6 6fbc 84b4 f93d
00000260: 9073 b1bb 1dda 973d d52b a6bd 07db ca3c
00000270: 55c2 8e3c f7d6 903d b4de b1bc cf74 9d3c
00000280: 1efc 2f3d 729d 2fbc 2029 a63d cf25 343d
00000290: 9dd6 143c 19cf 393e 98c7 ef3d e426 533d
000002a0: f682 01bd 4d87 583d 9edc b13a 67c9 a1bd
000002b0: 3d14 133e 6f94 9a3d d85e 073e 5435 8b3d
000002c0: e066 f93d ad03 253e 5011 ec3d 750e b13c
000002d0: 34a4 963d e3eb 753d f298 6f3d 9d0a 8fbd
000002e0: e4a2 d13d 8356 c83d e4f6 55bc a4a8 f73d
000002f0: a2d1 e73d 26e4 b3bd edf2 063c a265 c03e
00000300: 5139 eb3c d5b5 3a3d d975 5f3d 2c8d 1bbd
00000310: 73a1 14bd 964e f83c 21da f5bc 6539 c9bb
00000320: ab8a 103e 55cb 1a3d 6bc8 913d a270 2d3d
00000330: dc33 8e3c 97ac 41be c162 133e d9eb ba3e
00000340: 5182 0d3e 6fde 8b3c 468a 0dbc d66b 883d
00000350: 22ce 093e 3b47 b13d 82f4 d73d 7d3e 9fbd
00000360: bb0f b03d ade9 29bd 594e 8e3d 03b5 7dbc
00000370: bb38 7d3e 72a2 fa3d 5dc6 ac3d df93 c3bd
00000380: 7ac9 8f3d 67cf da3d 97ee 6e3c d425 c03a
00000390: aa15 65bc 96ae 563e fbd3 053e 7374 8bbd
000003a0: 31ce 9c3d 0345 213e 404c e13d f719 c63d
000003b0: 9d35 a1be ede3 433e 245a d3bd 7b9a 01be
000003c0: 0dbf 483e c8e7 ae3e 482b 4d3d 1527 15bc
000003d0: 7227 cabc dab4 6d3e f5c4 b43c f7fb 33be
000003e0: 5ba8 83bd 0156 e7bc a611 983e b657 113d
000003f0: 0a1e fa3d 743a 8b3d c5be eabd e302 4abc
0.37113008 -0.0007161122 0.09917207 0.13240571 0.08062379 0.07401144 0.012837964 0.048399396
0.13326776 -0.07132293 0.019503562 0.077873506 0.049057424 0.31868586 0.121892445 0.02689285
0.081457116 0.08802283 0.17089929 0.06052911 0.05556993 -0.09817613 -0.02097995 0.15549763
0.15520151 0.003919112 -0.05649429 0.2075343 0.04046957 0.12911397 0.24235493 0.020789292
0.099399835 0.050792817 -0.0041325595 0.061786983 0.054774716 -0.02604643 0.044355046 0.013196113
0.09831408 0.026647467 0.065771185 0.15826164 -0.051995233 0.04158632 0.005956514 0.28562018
0.060839303 0.0056972164 -0.060625557 0.012646734 0.088377535 -0.04207586 0.16434464 0.06884535
0.051757477 0.09925978 0.068158425 0.13048422 -0.024401886 0.093035385 0.042700198 0.04129741
0.04430032 -0.23078097 0.057501495 -0.015891578 0.07588984 0.013322844 0.040250186 0.40378395
0.035092067 0.041793007 0.4932431 0.33719292 0.2072659 -0.029220533 -0.0074355565 -0.27386168
-0.12964326 0.106390476 0.1713273 0.03217969 0.07904652 -0.01792126 0.1086194 0.16746774
-0.00805665 0.10236859 -0.099744976 0.050184943 -0.0018819837 0.08940894 0.122834474 0.0984245
0.09920771 0.0070726727 0.10011133 0.034667045 0.048282567 0.0937144 0.006397497 0.09228925
0.116880596 0.09324798 0.14253281 0.011241917 0.068959095 0.1568933 0.043106604 -0.0792131
0.3825343 -0.15267403 0.078862235 0.27626032 0.10728543 0.103107914 0.062056627 0.3957702
0.12445586 -0.29014567 -0.044218324 -0.0082664 -0.0134022795 0.09885794 -0.0029736287 -0.047652595
0.024773585 -0.02906435 0.1948005 0.101228334 0.09535653 0.0932382 0.054468043 0.06450148
0.043397922 0.0719216 0.072687745 0.051164195 0.001004694 -0.0013861007 -0.004657973 0.058003176
0.27240118 0.15309963 0.13247757 0.1300381 0.15356565 0.2904232 -0.014630832 0.12192634
-0.0054153875 0.07414649 -0.08113829 0.024762644 0.01742665 0.07072251 -0.021712638 0.019220738
0.042965047 -0.01071869 0.08113313 0.04398137 0.009084371 0.18145408 0.11707991 0.05155076
-0.031619035 0.052863408 0.0013569777 -0.078997426 0.14363189 0.07547843 0.13219774 0.06797281
0.12177825 0.16114683 0.115267396 0.021613339 0.07355538 0.060039412 0.05849547 -0.06984446
0.10236147 0.09782126 -0.013059352 0.120927125 0.11319281 -0.0878375 0.008236629 0.3757754
0.028713854 0.045583565 0.054555748 -0.03797643 -0.036286782 0.03031091 -0.030011239 -0.006140875
0.14115398 0.03779157 0.07118305 0.042343743 0.017358713 -0.18913494 0.1439314 0.36508062
0.13819243 0.017073838 -0.008638924 0.06661193 0.1345754 0.08656164 0.10544683 -0.077755906
0.0859675 -0.041482616 0.069485374 -0.015485051 0.24728672 0.12238015 0.08436272 -0.095496885
0.070208505 0.1068409 0.014583251 0.0014659711 -0.013982216 0.20965037 0.13069145 -0.0680932
0.076565154 0.15748982 0.11000872 0.09672921 -0.31486216 0.19129916 -0.10319927 -0.12656586
0.1960413 0.3416121 0.050090104 -0.009103556 -0.024677012 0.2321352 0.022066573 -0.17576586
-0.06428596 -0.028239252 0.29700965 0.03548404 0.12212761 0.067982584 -0.11462168 -0.01232979

bias f4 [32]
00000000: 3f16 0bbe 57ab dfbd f6e8 843e 0f17 8bbe
00000010: f56b eabd 8536 acbe 7efa 183e 6ca5 95be
00000020: 8261 8c3e 4174 1dbe e5cc a83e f172 1cbe
00000030: 5041 853e fca2 003e 89b8 72bc 48b5 afbc
00000040: 52a3 fbbd 4f54 27be de6e 363e 4021 d1be
00000050: d89c 1dbd 3d94 19bd 4615 323d 5ba6 98bd
00000060: d8ad 953e 7009 813e 4a84 a43e 9cdf 9d3e
00000070: a0b5 833d 2dfc 9bbe fec1 08be aa92 87be
-0.13582705 -0.10921352 0.25958985 -0.2716603 -0.114463724 -0.33635345 0.14939305 -0.2922777
0.27418143 -0.15376379 0.32968822 -0.15278222 0.26026392 0.12562174 -0.014814504 -0.021448746
-0.1228701 -0.16340755 0.1781573 -0.4084568 -0.038479656 -0.037494887 0.04347732 -0.07453605
0.29234195 0.25202513 0.3213218 0.30834663 0.064311266 -0.30465832 -0.13355252 -0.26479083

weight f4 [256, 32]
00000000: 122a 77bd 2c9a 083f 639d 00be 263b 253f
00000010: 2ce2 11be 4708 053e f77a 1f3e 4a91 053e
00000020: 9a16 83bc 2ccd 61be ec11 48be 803f 53be
00000030: b947 963c 982a 82be 79af 0fbe b367 253e
00000040: 9b4b 323f 92ff 253f d88b 21bf af04 103e
00000050: 4e50 dd3e 8f5f b53e 9dae edbd 5ab7 edbc
00000060: 9841 0abe 95e5 b2be 1b83 2ebe 190c 8bbd
00000070: 8af3 683e aa89 943d c667 c53e ba89 7e3d
00000080: ce5d bdbe 556d d53c 2daf b93e be60 67bd
00000090: 9851 c7be 371a 97be 83db 563e 6638 a43c
000000a0: d68b b93e 53a9 33be 3bad 9bbd 71e3 3bbe
000000b0: 25d9 743e 5d6f 5fbe 899a 173b aba4 f93d
000000c0: 0fb3 9cbd aacd 1c3e efe1 04be 9b0d 87be
000000d0: 7fb5 efbc 3145 083e eb1a 38be fe74 c0bd
000000e0: 3028 833e b821 15be 2938 d03e 2844 723c
000000f0: 55cd 843e 5571 23be 021f b8bc 5f0c 0ebe
00000100: a353 ec3d a305 48bd ef35 b3be ca92 c93d
00000110: 7940 513d 400c a03e af22 3cbe 8676 0e3e
00000120: 6db9 d8bd e7dd 2b3d 17b6 0abe c66f 263e
00000130: c488 0fbf 8ffb 41bd c4e1 9abb 9196 08be
00000140: a300 9d3d b1a4 d03c 0750 50bd bdf9 163f
00000150: b123 e93d 140d dc3d eb31 423e 04b5 8d3d
00000160: aa79 ccbe 57dd 2d3e e9bd c6be 77dc 223e
00000170: 5f4c 65bd 5b77 123f 2610 cc3d e284 82bd
00000180: de4f 8b3c 1e28 e13d c72f dc3d 809e 073e
00000190: ba24 9bbe a346 1a3e 00c0 913e e1df 11be
000001a0: 6a8a 7bbd 9f5a 24bf d522 f43d fd11 cfbe
000001b0: b104 29be 4e1d 9cbe 7cc3 88bd 4b91 7d3d
000001c0: 4e16 f63c 7530 3fbd 261d 4cbb fa5e 933e
000001d0: 0c33 3c3d a284 f5bb 2639 b9bd 4549 d8be
000001e0: 607f 3abe fdac 2e3d eaad a53d c336 d93d
000001f0: 1acf f5bc eec7 2c3c eb29 e3bd 56a1 8cbe
00000200: e3bb 2b3d 6f07 c13e 7af7 03be ae4d b93e
00000210: df41 23be ff97 2d3e 2fb6 1b3e f856 243e
00000220: 0c0c ff3c da61 35be 542e b1be 90ff cabd
00000230: 8620 48be d634 d0be 7a5a 3bbe 98a9 c33d
00000240: f769 083f 7029 313f 8579 33bf 395c 673e
00000250: 1464 923e f1e3 0a3e afd0 c1be 01f5 8dbe
00000260: 72fb 1dbd 15e0 62be 2289 513d d9f1 52be
00000270: 542e 163c dbc5 8e3c 4e0d f73e 4670 243d
00000280: 9dce bcbd 16a1 193e 559b 05bc 237b e3bc
00000290: 020f 583d 97cb c13d a138 35be e174 80bd
000002a0: 1972 44bd 0f5b 2cbe 658f 86bc 2d8d e8be
000002b0: 18a5 a93c 5921 d43d 0fe1 0cbe 9d9d 0f3e
000002c0: 37db 423e 73b9 46bc 451b 8dbd e84e 063c
000002d0: dbb5 943d a62f 523d 2125 333d 8aa8 99be
000002e0: 9e5a e7bd 7154 183e a4b0 1c3c 850b 6cbd
000002f0: beeb a13d 51ba 7f3e fffa 253e bdb5 ea3c
00000300: 11b8 32bd c5ed 4abd f5ae 9dbe 0fb8 e7bd
00000310: fd15 043e ac16 ab3e 9810 1bbe 52c2 113e
00000320: 0176 53be b953 e53c 4839 1a3d b26e 7d3d
00000330: 024a acbe 057a 8ebc 8358 cfbd 5c31 06be
00000340: 28df 893d 702a c93d 1d13 e7bd d217 2b3e
00000350: fecf acbd 050d 893c 5ef3 34bc 5007 593e
00000360: e35b cfbe a4c0 f0bd dd7a a3bd ad6a 9ebd
00000370: 30ff e3bb 9e09 b23e bf6f 5fbd 29f4 b5bd
00000380: 5754 153e 20fc 5b3e cc4b ccbd 5313 383e
00000390: 076c e9bd 6bb6 133c 1826 183c 3750 343e
000003a0: 1987 a1bc b912 993d 3c39 aebe 0c50 b33e
000003b0: 37cf 523e 7519 9dbc e1b0 da3c 6548 d03d
000003c0: 6be4 b83e 07e2 103f 287a e8be af4d e4bc
000003d0: 7b99 653e 275a ddbd 27a3 77be ad52 f33c
000003e0: c59f 723d 00a7 0abf ea84 8d3d bdd4 a0be
000003f0: 87f8 2a3d 968f 1ebe 36b9 153f be51 be3e
-0.060342856 0.5336025 -0.12560038 0.6454338 -0.14246434 0.12991439 0.15574251 0.13043705
-0.016001988 -0.22050923 -0.19538087 -0.20629692 0.018344747 -0.2542312 -0.14031781 0.1615284
0.69646615 0.64843094 -0.6310401 0.14064287 0.4322533 0.35424468 -0.116055705 -0.029018093
-0.13501585 -0.34940782 -0.170422 -0.06789417 0.22749153 0.0725282 0.38555735 0.062143065
-0.3698563 0.02605311 0.3626646 -0.056488745 -0.3892944 -0.29512188 0.20982175 0.020046424
0.362395 -0.17545061 -0.076014005 -0.18348481 0.23910959 -0.21819825 0.0023132882 0.12189611
-0.0765134 0.1531283 -0.12976812 -0.26377568 -0.029261349 0.13307644 -0.17979018 -0.093973145
0.25616598 -0.14563644 0.40667847 0.0147867575 0.25937906 -0.15961201 -0.022475723 -0.13871907
0.1153939 -0.0488335 -0.35002086 0.09842451 0.051086877 0.31259346 -0.18372606 0.139124
-0.10582242 0.04195967 -0.13546024 0.16253576 -0.5606806 -0.047359046 -0.0047266204 -0.13338687
0.07666137 0.025469156 -0.05085757 0.5897482 0.11383761 0.10744682 0.18964355 0.069192916
-0.39936572 0.16978966 -0.38816765 0.15904413 -0.055981036 0.5721337 0.099640176 -0.06373002
0.017005857 0.1099398 0.107513 0.13244057 -0.30301458 0.15066008 0.28466797 -0.1424556
-0.0614113 -0.64200777 0.11920706 -0.4044341 -0.16505696 -0.30491108 -0.06677911 0.06190614
0.030039933 -0.04667707 -0.0031145304 0.287834 0.04594712 -0.0074926177 -0.09044103 -0.422434
-0.18212652 0.042645443 0.08089812 0.10606148 -0.03000598 0.010545714 -0.110919796 -0.2746684
0.04192723 0.37700984 -0.12887374 0.36192077 -0.15943097 0.16952513 0.15206216 0.16048801
0.031133674 -0.17713109 -0.34605658 -0.09912026 -0.19543657 -0.4066531 -0.18296233 0.09553832
0.5328669 0.69203854 -0.701073 0.22593774 0.2859198 0.13563515 -0.37854525 -0.27725986
-0.038569875 -0.22155793 0.05115617 -0.2060007 0.009166319 0.01742833 0.48252338 0.040146135
-0.09219096 0.15002856 -0.00815471 -0.027768677 0.052748688 0.0946266 -0.17697383 -0.06272293
-0.047960375 -0.16831611 -0.016425798 -0.4542021 0.020708606 0.10357923 -0.13757728 0.14024968
0.19028936 -0.0121291755 -0.06889967 0.008197524 0.07261249 0.051314972 0.04373658 -0.30011398
-0.11296581 0.14875962 0.009563599 -0.057628173 0.079062924 0.24973418 0.16209029 0.028651113
-0.04363257 -0.04954316 -0.30797544 -0.11314403 0.12899013 0.33415735 -0.15143049 0.14234284
-0.20650484 0.027994024 0.037652284 0.061873145 -0.33650213 -0.017392168 -0.10124304 -0.13104767
0.06732017 0.098225474 -0.112829424 0.16708305 -0.08438109 0.016729841 -0.011044351 0.21194196
-0.40499792 -0.11755493 -0.07982419 -0.077351905 -0.006957911 0.34772962 -0.05454993 -0.088844605
0.14582954 0.21482897 -0.099753946 0.17976122 -0.11397558 0.00901566 0.009286426 0.17608725
-0.01971774 0.07474274 -0.3402804 0.35022008 0.20586859 -0.019177178 0.02669567 0.10170058
0.3611177 0.5659489 -0.45405698 -0.027869074 0.2242183 -0.10808211 -0.24183331 0.029702509
0.0592344 -0.5416107 0.06910117 -0.31412306 0.04174092 -0.15484461 0.58485734 0.3717174

bias f4 [256]
00000000: d633 04bf a4b8 3e3d b11b 4dbe d509 923d
00000010: 666e 11bf 1a72 01be 9e47 55be 08da 4cbc
00000020: 78a4 acbe fcf9 95be b4cc 133f 8002 313e
00000030: 3465 203f 57ea adbe fabc b5be b618 91bd
00000040: 11d4 2d3f 9186 b73e 784f 173f cd9f b7bd
00000050: ffa4 173f fbc4 d93d 4986 b63e 41bb 1ebf
00000060: cc0a 15be 8cea 0cbe 77bd 453e dd11 133f
00000070: 5b4a db3d 3d72 aabe 7da3 b03d 81d6 733c
00000080: 0990 b1be 0565 cb3c e37f 17be 34f3 b93a
00000090: cc93 35be c6a9 37be 442d 253f b147 0b3e
000000a0: 8d02 343f f7d3 853e 8cb9 203e 5f52 af3b
000000b0: 927b 5fbe e75a 723e e31e 003f 3f61 073f
000000c0: 0eb6 4dbe beb3 9d3e 51ed 82be a79c 2e3e
000000d0: 4867 143f 1c8e 893d dc18 8abe 6d80 efbe
000000e0: 9900 f43d a63d 1f3f e271 28bd 0282 913e
000000f0: 8031 153f 63cf 033d 68b3 033f 5a62 b4be
00000100: e4be 8d3e 90c4 4e3e 65aa c33e 9391 e93e
00000110: 8778 a7ba db7f 50bd b6ca 5f3d d8fe 473e
00000120: 9d8d 263f ea50 cd3d 148a 243e c283 b93e
00000130: 3428 a6bd 67fb abbe e25a 66be f9d1 c03d
00000140: 8baa 663d 34a3 ef3e ab2e b23e 8569 d5bd
00000150: bae6 f2be 32c5 2e3e 6be8 dcbe af12 9dbd
00000160: 566d 9ebd f7d6 6fbe acaf bdbe 32ea 273f
00000170: 9f65 233f e4ee 7c3d 03e7 273f 62da d53d
00000180: f129 f5bd 3bd8 9f3d 6d79 4e3f dfc0 02be
00000190: 7442 70be 416f b9be fb53 753e d71e d1be
000001a0: 0e83 56be ce32 ca3c 6ac8 023f f835 e33d
000001b0: e069 093f ab02 72be 3f7b 073f 6f49 7e3e
000001c0: bcea d63d d6f3 c33e 1f29 8fbb 2d2c 9cbe
000001d0: 2528 893e b5b0 f83e 95d2 163f 1813 0bbe
000001e0: 556a 913e 76bb b73c 57a4 8bbc be58 b43e
000001f0: e974 cd3e b814 4fbe 9481 263c e354 16bd
00000200: b382 b83e 98dd ec3d cb69 0b3f 5cd2 d23e
00000210: 68f4 983d 81b0 a0be 885d 21be 58b1 e43d
00000220: 49be d03c 5b86 e4bd 0647 043d eb19 71be
00000230: 119a f03e efb8 bfbd e924 273f 9409 163f
00000240: 1504 793d f3b5 a63e 604f e9be 05fc 043f
00000250: ddea 0b3f 950d 6dbe cfb1 a03e 83fd de3e
00000260: 768c 023f 735b 343e 19b0 19bc 0880 8ebd
00000270: 6e83 043e fdde 4bbd 50a4 53be d2f6 9cbe
00000280: b5f5 713d 6438 4abe c58e 0a3f 3c48 973e
00000290: e7e2 69be 9067 1d3f 4fcd d23e 1404 8c3e
000002a0: 66a0 4bbe 5d58 bebd 74e0 073f 06c9 603e
000002b0: ccfa 293f 7404 f63e d6ee 20bf 9aa5 acbc
000002c0: 3bad 053f ffff 433e 7afb da3e a447 7bbe
000002d0: 1d1c 1dbe cbc9 e0bd 8e23 033f 1675 623d
000002e0: 85fb a63e 33cb b6bc dc5c 16be 583f a8bc
000002f0: 593f 50be e1c1 9dbe 1ed2 9e3e f6a2 1ebd
00000300: 73bd e53e 4744 083e 6085 4b3e e36a 793d
00000310: 50b2 3c3e 3eb1 c63d 681b 173f 4838 ecbe
00000320: 8d64 f33c 54c4 633e 7de7 cb3e 8bdf 343f
00000330: 0621 bc3e 8626 d7be 3636 fe3e 5eab 2a3d
00000340: dc7c 4dbc 576e 47be 5878 9c3d 70f4 a53e
00000350: c701 863d 678c 30be 2da8 b1bc d7da 44be
00000360: 399d 1a3f f0d5 8dbb 8a33 f33e e8a0 073f
00000370: 3f8a 2d3f 984b 85be a6b0 163f 56ba 00be
00000380: f176 b23d 2f67 a63e 6fcd 163f e0eb 883e
00000390: f086 d8be 4a74 f63c d898 d43e ea5d dc3e
000003a0: cbd3 1e3d 252f d03d c714 aebe c3c4 053f
000003b0: e3f7 e63e dc47 d93c b408 0ebe 0d3f 45bd
000003c0: 4b41 e53b 2d8d 2fbe ac0b 01be c250 dc3e
000003d0: e22e 03be db08 97be bb10 92be e369 4f3d
000003e0: 3c6d 293f bce1 9cbe 7eb6 bd3e 4dc6 cfbe
000003f0: 9e37 76bc a764 2bbd 0a3a a3be e594 a6be
-0.51641595 0.046562806 -0.20030095 0.071307816 -0.5680908 -0.12641183 -0.20828101 -0.012503155
-0.3371923 -0.29292285 0.5773423 0.1728611 0.62654424 -0.3396785 -0.3549574 -0.07084791
0.6790171 0.35844854 0.59105635 -0.089660265 0.5923614 0.10633274 0.35649326 -0.62004477
-0.145549 -0.13761348 0.19310556 0.5744913 0.107075416 -0.33290282 0.08624933 0.014882685
-0.34680203 0.024828443 -0.14794879 0.001418686 -0.17732161 -0.17935857 0.64522195 0.13601567
0.7031639 0.2613828 0.1569578 0.0053503956 -0.21824482 0.23667489 0.5004713 0.5288276
-0.2008898 0.30801195 -0.25571683 0.17051946 0.57970095 0.06716558 -0.2697209 -0.4677767
0.119141765 0.62203443 -0.041124232 0.284195 0.58278656 0.0321802 0.5144563 -0.35231286
0.276847 0.2019217 0.38215938 0.45618877 -0.0012777009 -0.050903182 0.05463668 0.19530809
0.65059835 0.10025199 0.16068298 0.36233336 -0.08113137 -0.33590242 -0.22495607 0.09415049
0.056314986 0.46804202 0.3480123 -0.10420517 -0.47441655 0.17067412 -0.4314607 -0.07669579
-0.07735698 -0.23421846 -0.3704809 0.6559173 0.63826936 0.06175126 0.6558687 0.10442044
-0.1197089 0.078049146 0.8065403 -0.12768887 -0.2346285 -0.36217692 0.23957817 -0.4084384
-0.20948431 0.024682429 0.5108706 0.11094278 0.5367718 -0.2363383 0.52922434 0.248327
0.10493991 0.3827197 -0.0043689157 -0.30502453 0.2678844 0.48572317 0.5891507 -0.13581502
0.28401437 0.022428256 -0.017046137 0.35223955 0.40128258 -0.20222747 0.01016273 -0.036702048
0.36037216 0.11565703 0.544583 0.41176116 0.07468492 -0.31384662 -0.15758336 0.11166638
0.02548136 -0.11158439 0.032294296 -0.23545043 0.46992543 -0.09361445 0.65290695 0.58608365
0.06079491 0.3256069 -0.4556837 0.5194705 0.5465525 -0.23149712 0.31385657 0.4355279
0.50995576 0.1761301 -0.009380364 -0.06958014 0.12940761 -0.049773205 -0.20668149 -0.3065706
0.059072215 -0.19748074 0.541241 0.29547298 -0.22840463 0.6148615 0.41172263 0.2734686
-0.19885406 -0.09294198 0.53076863 0.21951684 0.6639831 0.48050272 -0.62864435 -0.021075059
0.52217454 0.19140624 0.42769986 -0.24539047 -0.15342756 -0.10975989 0.5122613 0.055287443
0.3261377 -0.02231369 -0.1468386 -0.020538017 -0.20336665 -0.3081198 0.31019682 -0.03872963
0.448711 0.13307296 0.19875097 0.06089295 0.18427396 0.09701775 0.59026194 -0.4613669
0.029711032 0.22242862 0.3982505 0.706536 0.36743945 -0.4202158 0.49650735 0.041667335
-0.012541976 -0.19475685 0.07640141 0.32413054 0.06543308 -0.17241059 -0.021686638 -0.19224106
0.6039615 -0.004328482 0.4750026 0.529799 0.6778907 -0.26034236 0.58863294 -0.12571082
0.087140925 0.32500598 0.58907217 0.26742458 -0.4229045 0.030084748 0.4152286 0.430404
0.0387762 0.10165242 -0.34000227 0.5225336 0.45110998 0.026523523 -0.13870507 -0.048155833
0.006996309 -0.17143698 -0.12602109 0.43030363 -0.12810853 -0.29498944 -0.2852839 0.05063809
0.66182303 -0.30640972 0.37053293 -0.4058098 -0.015027909 -0.041844036 -0.31880218 -0.32535473

weight f4 [256, 256]
00000000: 4a56 d83a 323e d9be 6429 01bd a6d4 f43e
00000010: 5cc3 9a38 2530 143d 0b98 eb3c 397b 283d
00000020: 08e8 90b8 8406 0d3e 2171 093e de55 953d
00000030: 8da2 0b3e 4d41 e93d d79d 6135 7da4 793c
00000040: 2040 193e 2a89 0f3e d713 723d 2cbf ed3d
00000050: 0ade 173e 2f8f 1bbf 35ad 9c3d c898 8c3d
00000060: c48c 12bf c92a 243e d8a6 cf3c ab77 6c3e
00000070: c37a 5d3e 25eb 7abe c364 2dbf 1f70 30be
00000080: b639 56be d2df ee3e e21c 713e cc46 4dbe
00000090: 5269 a3be 3114 06be 2726 0b3e 73ad e13e
000000a0: a39a 5e3e 72ed 063e 15c8 d1bd 661c 32bf
000000b0: 0683 0c3e bdc8 b93d 7f45 283d 5d55 243e
000000c0: 6603 86bd 184e 5a3e 341a 9abd 1990 cb3d
000000d0: b0ce 143e 0b5d 2cbf 41ff 18be 8c1a 373e
000000e0: f620 ef3c d859 303e a3be aa3e 2c4f 923d
000000f0: 06c8 233e 1c56 8e3d 9190 393e 9d9b b1bd
00000100: a0a5 4e3e feb3 1b3e fcdb 903d e70d 6d3e
00000110: bcb6 65be 106c 953d f7fe 9abe 4240 2b3f
00000120: 8772 233e d45c 3abf 0d45 c7bd 7a7a c83d
00000130: 46de 0abf 5162 0c3e 9dad b63b fd38 dcbe
00000140: 41d0 03bf f2d4 3f3e 281a bb3d e1a7 933e
00000150: 8405 cb3d ccf6 78be 2df3 4f3d c85b c53d
00000160: 970f a63e 1ca7 6e39 90ae 5b3d 0017 543e
00000170: 7b9b 343e 8aa5 b7bd 1f1f 323e e205 9f3d
00000180: 8b8a bc3c 19ad f1bc 8c24 893e bb19 01bf
00000190: ae40 0ebd c445 9bbd bffe 363e dd81 993d
000001a0: 44e0 303e cb07 7fbf ae1a 2a3e 4f09 1cbf
000001b0: c567 293e 19e9 a63d a242 fc3d 2496 66bd
000001c0: 6e37 e6be f1af 053e cf41 473e 67c9 183e
000001d0: b900 93be bc3b c63d 7b77 013e 4298 c73c
000001e0: 7a97 8c3c f544 083f ca08 8ebd a07c e63d
000001f0: 6eef 043e 90b6 ae3e b5c7 d3be bcaa 9e3e
00000200: dbca 153d ea9c f63d 7b4b 623e 4fb5 e93d
00000210: 4558 303e 07c1 b4bd 16f1 123c 454c 26bf
00000220: f545 163e bc3b 23bf abc0 18bf c63b 213d
00000230: 8b0c fe3d 2930 cc3d 1f26 143e aeae db3d
00000240: f579 823d ea87 1c3e 22f7 913d 0361 66bd
00000250: 43ac 4a3e 97eb eb3b 049d 423e 5338 693e
00000260: 7fde 823e 34f3 083e 6557 283e d635 f43d
00000270: e17a ffbd 9136 833e 3e7d 63bf 7cf4 a43e
00000280: aeda eebe 91d5 13bd 7e93 053e 5d00 b53d
00000290: 3c1f f83d 3ecc 413e c843 d83d c149 6a3e
000002a0: bc28 8e3c 1a2e 16bf 50fc ed3d 4061 9dbe
000002b0: e3b3 c63d 1609 853c 42a8 0cbf 6f26 a73d
000002c0: 8ec2 cb3d a98f 983e 55e5 193e e14a 773f
000002d0: c932 423e ece3 3bbf 493e 2f3e 3b63 ebbd
000002e0: 9b05 c9be 38de ea3e fba7 c53d f6eb 943e
000002f0: 17c3 c13d b66b 0a3e 0262 363e cba4 b33d
00000300: 92da af3d 4f7d cf3c e2af 943d 9b21 c3be
00000310: 7301 cb3d 7a97 c1bc dfc4 f83d e6a3 ffbe
00000320: de96 ba3d c1ce 1dbe 3321 d5bc b2cc 153d
00000330: 8224 d43d efe0 9f3d 935a 973e 0f9c 893d
00000340: 3c63 483b 38da a2be 2cd2 d63c 926f bc3d
00000350: 9ce3 b23d 8e30 9e3c fc8d f23e 4257 c5be
00000360: 48ba e33b 179c 25bf 297b 873e 21db d33d
00000370: 89c5 033e d83f 373d 7d43 3c3e 6d36 fa3e
00000380: a9b4 dfbd 17fd c43d a9c8 413e 2991 603e
00000390: 8d04 a93d 97f3 59be 7cfd 223e c71d fd3d
000003a0: 575b aa3b 3bdc 72be 3b47 65bc 73a5 283e
000003b0: d4ee bb3d 78f0 933d aeb2 29bf dbeb 6b3d
000003c0: 9915 273e 01c3 363e ad17 a03d 9f01 b33c
000003d0: e22a a03d 2c9f 703d 981d 053e 4b8a 843d
000003e0: b04f 993d 648f 79bd 470e 443e c8eb bd3c
000003f0: 95c1 e43e 200e b63e 298d 7f3d 873c a1bd
0.0016505208 -0.42430264 -0.031533614 0.47818488 7.379681e-05 0.036178727 0.028759023 0.04113314
-6.909674e-05 0.13772017 0.13422062 0.072917685 0.13636227 0.11389408 8.404872e-07 0.015236971
0.14965868 0.14017168 0.059100952 0.11608729 0.14830795 -0.60765356 0.07650224 0.06865078
-0.5724604 0.16031946 0.025348112 0.23092525 0.21628861 -0.24503763 -0.67731875 -0.17230271
-0.20920452 0.46655136 0.23546174 -0.20046538 -0.3191629 -0.1309364 0.13588773 0.44077644
0.21738677 0.13176516 -0.10243241 -0.6957458 0.13721856 0.09071491 0.0410819 0.16048189
-0.06543617 0.21318853 -0.07524529 0.09939594 0.1453197 -0.6732947 -0.14941122 0.1788122
0.029190522 0.17221773 0.3334857 0.07144007 0.15994272 0.06950018 0.18121554 -0.08672259
0.20180368 0.1520538 0.07073209 0.23149835 -0.22432989 0.07296002 -0.30272648 0.66894925
0.15961657 -0.72797894 -0.09729967 0.097889856 -0.5424541 0.1370938 0.0055748955 -0.4301223
-0.51489645 0.18733576 0.09135848 0.2883902 0.099131614 -0.24312896 0.05076902 0.096366465
0.3243377 0.00022759702 0.053633273 0.20711899 0.17637436 -0.08967121 0.17394684 0.07764794
0.023015281 -0.029501485 0.26785696 -0.50429887 -0.034729652 -0.07581666 0.17870615 0.074954726
0.1727305 -0.99621266 0.1661174 -0.60951704 0.16543491 0.081499286 0.12317397 -0.05629553
-0.44964164 0.13055398 0.19458698 0.14920579 -0.2871149 0.09679362 0.12643234 0.024364594
0.017162073 0.5323022 -0.0693527 0.11254239 0.1298196 0.3412366 -0.41363302 0.30989635
0.03657041 0.12041648 0.22099106 0.11411535 0.17221172 -0.088258795 0.008968612 -0.6496013
0.14675124 -0.6376302 -0.5966899 0.039363645 0.12404736 0.09970123 0.14467667 0.10726677
0.06370918 0.15286222 0.07127215 -0.05624486 0.19792275 0.0071997154 0.19005209 0.22775392
0.25560376 0.13374025 0.16439588 0.11924331 -0.12474609 0.25627568 -0.8886298 0.32217777
-0.46651214 -0.036092345 0.13044545 0.0883796 0.121153325 0.18925568 0.10559803 0.22879697
0.017353408 -0.58664095 0.116203904 -0.30738258 0.097022794 0.016239684 -0.5494424 0.081616275
0.09949218 0.29797104 0.1502889 0.9659863 0.18964685 -0.73394656 0.17113604 -0.11493536
-0.3926209 0.45872664 0.0965118 0.29086274 0.094610386 0.13517651 0.17810825 0.08771666
0.08586611 0.025328306 0.072601095 -0.38111576 0.09912386 -0.0236318 0.12146925 -0.49929732
0.09110807 -0.15410902 -0.026016807 0.036572166 0.10358526 0.078065746 0.2956129 0.06719219
0.0030576726 -0.31807113 0.026223265 0.09200968 0.08734819 0.019310262 0.4737395 -0.38543135
0.0069496967 -0.646913 0.2646115 0.1034453 0.12868322 0.04473862 0.1838512 0.4886965
-0.1092313 0.096185856 0.18924202 0.21930374 0.08252821 -0.21284328 0.15917009 0.12359195
0.005198877 -0.23716824 -0.013994033 0.16469364 0.09176412 0.072236 -0.6628827 0.057597976
0.16316833 0.17847826 0.07817016 0.021851359 0.07820679 0.058745548 0.1299957 0.0647169
0.07485902 -0.060927764 0.19146071 0.023183718 0.4467894 0.35557652 0.06239048 -0.07872873
