models/autoencoder_interval_sw_100k_n.pt (torch, 815453 bytes, 12 tensors)

weight f4 [128, 2]
0.9556893 -0.8167462 -0.6601035 -1.0352198 0.21836583 0.6177946 0.17907315 0.28281465
0.17703417 -0.030610343 0.47005352 0.37428606 -0.78405535 0.3581287 0.24920207 0.37912136
-0.83572763 0.2061714 -0.11700604 0.22912891 0.46404192 -0.2857275 -0.3139494 0.05872736
-0.2527516 0.17609379 0.41595367 -0.34394586 -0.8768153 0.79656404 -0.6830567 -0.20183837
0.49765357 0.43441713 -0.7754635 -0.8448353 0.12341488 0.12381107 -0.82661825 -0.05120175
-0.06289127 -0.18998365 0.5771284 0.69180983 -0.25581723 0.27699655 0.6389232 0.5627575
-0.30949488 0.40901074 0.03381698 0.18034816 0.22766656 0.5042142 -0.00083847006 -0.20921032
-0.4089372 -0.5339593 0.3475409 -0.41638657 0.7496923 0.6610377 -0.040934592 -0.23067942
-0.1295187 -0.15480913 -0.55476433 0.4301189 -0.33916467 -0.3510401 -0.7115453 0.29930103
0.3856303 0.47288164 0.520896 0.55342776 -0.15514791 0.40507102 -0.7428329 -0.040727686
1.0259945 -0.74178004 -0.104159944 0.37528992 0.62841415 -0.5682947 -0.47929764 0.52172667
-0.0016372728 0.001960446 -0.2898284 0.3014989 0.0071963198 0.19195288 -0.954417 0.3182301
0.39420477 -0.61421967 -0.52452 0.24548674 0.72083765 0.68045783 -0.82689846 -0.03275728
0.63639325 0.18531987 0.13359803 -0.16549507 -0.4764311 0.35120183 -0.0015969384 -0.05228686
0.37422574 0.54727274 0.1504106 0.5047152 0.026527861 0.3182815 -0.33154035 0.5133976
0.23882945 0.56343144 0.60912585 -0.50595236 0.051453635 0.2770035 0.3019299 -0.7620339
0.42361808 -0.39456794 -0.123923436 0.09076368 0.16408011 0.31139565 -0.35456648 -0.22624682
-0.3157274 0.21081428 0.09680998 -0.21344103 0.47309968 -0.7312433 -0.007849915 -0.0061020646
0.76237035 -0.05617242 -0.31031242 -0.767348 -0.052723415 0.33354834 0.45312664 0.154967
0.5029396 0.41464183 0.2303427 -0.41435653 -0.6879555 0.054490022 0.32731655 -0.4867245
0.48582685 -0.3674696 0.41168675 -0.65061396 -0.37277916 -0.83932245 0.2121764 0.74866945
-0.014956079 0.218534 -0.6957392 0.3311225 -0.16118841 0.07952176 0.6961341 -0.44841656
-0.020328552 0.15468231 0.485133 0.0028661513 0.0015527979 -0.3704979 -0.4300173 -0.30661058
-1.2494408 0.65468556 0.61557156 -0.5329209 -0.68046004 0.41626012 0.106962785 -0.0402085
1.1762035 -0.77015543 -0.1267453 -0.44341415 -0.962353 0.80104584 -0.029726136 0.6181443
0.38618153 -0.4786739 -0.53438866 -0.91743994 -0.74514407 -0.27717656 -0.2530152 -0.30296206
-0.2017303 0.18768492 0.51059276 -0.23685198 0.30024713 0.6072133 -0.1644164 0.24654597
0.039834976 0.34918052 0.12094219 0.5986818 -0.75285023 -0.8783792 0.018841695 0.6045125
0.08496611 -0.18712136 0.4204235 -0.65054524 0.75778526 0.4229626 -0.16128425 -0.08254065
-0.009820854 -0.08100756 -0.065836124 0.2760778 -0.22484261 0.6650886 0.37831762 -0.0883914
0.5511892 -0.72211635 -0.7824526 0.36122766 -0.00020955862 0.4718885 0.23864424 -0.52689993
-0.53797376 -0.79694057 -0.12022077 0.05603522 0.08270972 0.037977356 0.31706473 -0.40249205
00000000: 0ea8 743f 4716 51bf 8bfc 28bf 1582 84bf
00000010: 4b9b 5f3e c927 1e3f f45e 373e 15cd 903e
00000020: 7248 353e 8bc2 fabc dbaa f03e 6ca2 bf3e
00000030: dab7 48bf a55c b73e d42e 7f3e 321c c23e
00000040: 3ff2 55bf 981e 533e dda0 efbd c5a0 6a3e
00000050: e796 ed3e e04a 92be fabd a0be 1a8c 703d
00000060: a868 81be ee51 343e e1f7 d43e ac19 b0be
00000070: f876 60bf 9feb 4b3f cedc 2ebf b8ae 4ebe
00000080: 73cc fe3e ec6b de3e c784 46bf 2047 58bf
00000090: f1c0 fc3d a990 fd3d 419d 53bf edb8 51bd
000000a0: 23cd 80bd 138b 42be b0be 133f 731a 313f
000000b0: 7afa 82be 7ed2 8d3e 7990 233f e010 103f
000000c0: 1d76 9ebe db69 d13e ac83 0a3d 30ad 383e
000000d0: 6c21 693e 2f14 013f c6cc 5bba 3b3b 56be
000000e0: 3760 d1be 8fb1 08bf e1f0 b13e 9f30 d5be
000000f0: d6eb 3f3f c439 293f 08ab 27bd 3a37 6cbe
00000100: 8da0 04be 4986 1ebe 0905 0ebf 8b38 dc3e
00000110: fea6 adbe 87bb b3be d527 36bf fc3d 993e
00000120: 5671 c53e 8b1d f23e 7159 053f 71ad 0d3f
00000130: 18df 1ebe 7865 cf3e 4c2a 3ebf 13d2 26bd
00000140: ca53 833f 4ce5 3dbf cf51 d5bd 0026 c03e
00000150: c0df 203f c37b 11bf 8066 f5be e18f 053f
00000160: c299 d6ba d37a 003b 6364 94be 105e 9a3e
00000170: 1bcf eb3b 4c8f 443e ac54 74bf 0eef a23e
00000180: 35d5 c93e 803d 1dbf f146 06bf e060 7b3e
00000190: d188 383f 7c32 2e3f 9eaf 53bf 7f2c 06bd
000001a0: abea 223f 7ec4 3d3e eccd 083e 8a77 29be
000001b0: c7ee f3be bad0 b33e 5c50 d1ba bf2a 56bd
000001c0: 849a bf3e 111a 0c3f 3c05 1a3e 0435 013f
000001d0: f550 d93c cbf5 a23e a8bf a9be 066e 033f
000001e0: b58f 743e 0b3d 103f acef 1b3f 1886 01bf
000001f0: 0cc1 523d 67d3 8d3e 8e96 9a3e a714 43bf
00000200: 78e4 d83e cf04 cabe 92cb fdbd 4fe2 b93d
00000210: 9e04 283e 406f 9f3e bd89 b5be 3fad 67be
00000220: 06a7 a1be b3df 573e 5044 c63d 4990 5abe
00000230: 1f3a f23e c332 3bbf ee9c 00bc d4f3 c7bb
00000240: b42a 433f 0d15 66bd 45e1 9ebe eb70 44bf
00000250: 82f4 57bd d9c6 aa3e 3700 e83e abaf 1e3e
00000260: a6c0 003f ef4b d43e f5de 6b3e 8a26 d4be
00000270: da1d 30bf ee30 5f3d 0996 a73e f433 f9be
00000280: 4cbe f83e fa24 bcbe 9bc8 d23e a38e 26bf
00000290: e9dc bebe d6dd 56bf c544 593e cda8 3f3f
000002a0: 580a 75bc 60c7 5f3e f71b 32bf e388 a93e
000002b0: 930e 25be 4edc a23d d835 323f db96 e5be
000002c0: 1088 a6bc 0a65 1e3e 5a63 f83e 0ad6 3b3b
000002d0: 4087 cb3a e7b1 bdbe 3a2b dcbe 10fc 9cbe
000002e0: aded 9fbf 7999 273f 1996 1d3f 816d 08bf
000002f0: a132 2ebf 0c20 d53e 4e0f db3d abb1 24bd
00000300: d68d 963f e828 45bf 85c9 01be 2e07 e3be
00000310: c45c 76bf 5711 4d3f 3a84 f3bc b43e 1e3f
00000320: 96b9 c53e bf14 f5be b2cd 08bf 58dd 6abf
00000330: c3c1 3ebf 16ea 8dbe 358b 81be d81d 9bbe
00000340: 6392 4ebe 7a30 403e 35b6 023f 5389 72be
00000350: feb9 993e 5572 1b3f c65c 28be 8c76 7c3e
00000360: 002a 233d cac7 b23e 8ab0 f73d 3643 193f
00000370: cbba 40bf 76dd 60bf e659 9a3c 55c1 1a3f
00000380: b602 ae3d be9c 3fbe c041 d73e 228a 26bf
00000390: 37fe 413f 8e8e d83e b327 25be 130b a9bd
000003a0: a6e7 20bc 4be7 a5bd 17d5 86bd 125a 8d3e
000003b0: 243d 66be 3f43 2a3f d9b2 c13e 8d06 b5bd
000003c0: bc1a 0d3f 9edc 38bf d04e 48bf d5f2 b83e
000003d0: f7bc 5bb9 5f9b f13e 285f 743e eae2 06bf
000003e0: a6b8 09bf 4c04 4cbf 4f36 f6bd 3085 653d
000003f0: b763 a93d 258e 1b3d 4f56 a23e 7013 cebe

bias f4 [128]
-0.17961386 -0.28620583 -0.39699158 -0.40483662 -0.6787042 -0.7031167 -0.0069240225 -0.22814679
0.645892 0.30034876 -0.22293812 0.6159476 0.051218733 -0.44192475 0.08194969 0.79130465
0.45453513 -0.46665445 -0.18835805 0.49638778 0.20019409 -0.45841995 -0.051582396 -0.3289971
0.17545886 -0.17044508 -0.07022626 0.16514328 0.63127714 0.12674163 -0.36973086 0.27847144
0.22578202 0.040604904 0.6398089 0.49732184 0.017805353 -0.11393864 -0.22536388 0.7861176
-0.26640508 0.14505117 -0.047962744 -0.19948195 0.0017252325 -0.033417087 -0.6176744 0.05769554
0.31610927 0.5131947 -0.6256861 0.6253299 -0.35796046 0.040659696 0.063794255 0.036465306
-0.46381873 -0.6326156 0.43047482 -0.19726385 -0.626489 0.16650689 -0.49034393 0.2908908
0.43188477 0.32265157 0.2710412 0.4012639 0.054886717 0.07848352 0.53645235 0.0020280648
-0.57279783 -0.6829716 -0.21868804 0.25840366 -0.33283338 0.15428142 0.60009396 0.12922908
0.5031838 0.3407087 -0.5953386 -0.47484323 -0.65049165 0.64935917 0.060658928 -0.19654188
-0.44724715 -0.53245145 0.2911471 0.3940379 -0.19270445 0.14237629 0.45078653 -0.035664488
-0.4247261 0.18371765 -0.2681775 -0.5301938 0.2649493 -0.53540254 0.72479755 0.5151853
0.004226939 -0.22613859 -0.7559111 -0.07616506 -0.34085682 -0.6155561 -0.57944113 -0.7084323
0.3402565 0.6352604 -0.6328245 0.5417149 0.07149402 0.21353912 -0.34168822 -0.22963423
0.13567753 0.58709717 -0.5558879 0.25590497 -0.6466626 -0.66781455 -0.16440994 0.073906936
00000000: b2ec 37be 9289 92be 7b42 cbbe bf46 cfbe
00000010: 8fbf 2dbf 75ff 33bf e9e2 e2bb 509f 69be
00000020: 2e59 253f 50c7 993e e449 64be beae 1d3f
00000030: bcca 513d f643 e2be 3dd5 a73d f192 4a3f
00000040: d4b8 e83e 55ed eebe efe0 40be 8a26 fe3e
00000050: aeff 4c3e 05b6 eabe 1048 53bd 4f72 a8be
00000060: 7dab 333e 2889 2ebe c9d2 8fbd 521b 293e
00000070: 619b 213f 8fc8 013e 5d4d bdbe cf93 8e3e
00000080: 6733 673e 5451 263d 84ca 233f f8a0 fe3e
00000090: 88dc 913c a958 e9bd cac5 66be 013f 493f
000000a0: 3f66 88be 4b88 143e 9574 44bd ff44 4cbe
000000b0: 3221 e23a 5be0 08bd e91f 1ebf 2952 6c3d
000000c0: 13d9 a13e ba60 033f f72c 20bf 9f15 203f
000000d0: 9846 b7be c88a 263d 90a6 823d a55c 153d
000000e0: a679 edbe 19f3 21bf 3267 dc3e 89ff 49be
000000f0: 9561 20bf c880 2a3e 5c0e fbbe a4ef 943e
00000100: 0020 dd3e 9632 a53e eac5 8a3e 7672 cd3e
00000110: e5d0 603d f8bb a03d f154 093f 48e9 043b
00000120: e1a2 12bf 3ad7 2ebf c2ef 5fbe 7c4d 843e
00000130: 2369 aabe f3fb 1d3e c29f 193f a154 043e
00000140: a7d0 003f 5f71 ae3e 1c68 18bf a71e f3be
00000150: 9f86 26bf 673c 263f 7f75 783d 4642 49be
00000160: 94fd e4be bd4e 08bf 3c11 953e 56bf c93e
00000170: 5154 45be 17cb 113e 7ecd e63e ed14 12bd
00000180: b375 d9be 7b20 3c3e 904e 89be c8ba 07bf
00000190: 6fa7 873e 2410 09bf 558c 393f 2fe3 033f
000001a0: 2282 8a3b e090 67be 6483 41bf 6dfc 9bbd
000001b0: c984 aebe 1695 1dbf 4156 14bf d25b 35bf
000001c0: 1a36 ae3e 6da0 223f c900 22bf d4ad 0a3f
000001d0: 756b 923d 00aa 5a3e c2f1 aebe 3c25 6bbe
000001e0: 0def 0a3e 004c 163f ab4e 0ebf fa05 833e
000001f0: ae8b 25bf e5f5 2abf 145b 28be 855c 973d

weight f4 [128, 128]
-0.13350724 -0.118906625 -0.16416216 -0.09293857 -0.14568688 -0.24307893 0.23850435 -0.03335296
0.2878237 0.02952788 -0.042849123 0.009620126 0.052989267 -0.14874126 0.421372 0.38515165
0.057408642 -0.03697805 -0.042858254 0.57443774 -0.11494528 -0.07244595 0.15577754 -0.14411682
0.035576425 0.14383376 0.05966758 -0.07546823 0.024317598 -0.11814688 -0.034762733 -0.04357812
-0.08750823 0.426855 0.06564856 0.32161587 -0.034530364 -0.07298385 0.06969071 0.32867348
-0.21455806 0.119617715 -0.15711087 0.18237913 0.027775142 -0.020879932 -0.070441075 0.20468558
-0.22786523 0.13292609 -0.32633013 0.78290206 -0.24254693 -0.07885085 0.009599922 -0.10081437
-0.27457163 -0.055636864 0.0064772535 0.20560905 -0.09244455 -0.19434464 -0.073693946 -0.23881504
-0.043751106 -0.030612823 -0.048556183 0.15338382 0.15533613 -0.037876163 -0.17086889 0.04864093
-0.19983771 -0.17012799 0.0070308708 0.071456835 -0.082846075 -0.16390711 0.25920472 -0.2843255
-0.027448468 -0.2546797 -0.07425684 -0.13668048 -0.064086154 0.19010375 0.07042916 -0.23856656
-0.039931267 -0.014409937 -0.1536481 0.018040795 0.2157449 -0.20873809 0.12667458 0.018033408
-0.06483334 -0.028675208 0.49183783 0.1748094 -0.043977674 -0.152234 0.46387145 0.09862885
0.10487268 -0.0002057743 -0.22137809 0.071740635 0.20202567 -0.047231473 -0.12605487 -0.088595405
-0.006720167 -0.004616807 -0.38068154 0.105291225 -0.027236458 0.09025739 0.18569002 -0.1405832
-0.25056273 0.28230533 -0.038940895 -0.36245003 -0.06783451 -0.049538177 0.021261562 -0.2814812
-0.19428512 0.005245827 0.21041654 0.043049134 0.070309155 0.17030524 -0.11163297 0.120767415
-0.1374577 0.07488385 0.02335561 -0.11020151 0.033275325 0.004819837 -0.0352603 -0.14238541
-0.026145283 -0.0049437466 -0.0034113338 -0.17221569 0.076881364 0.19525911 0.05645367 0.045779385
0.07998413 -0.06987672 -0.03313566 0.013680805 -0.21629235 -0.08571482 -0.0033623113 0.0009167065
0.0047376733 0.1543422 -0.18553707 -0.08949531 0.057116248 0.024239572 -0.011766297 -0.12546007
-0.07857565 0.088550515 -0.06988655 0.035039503 0.039050154 0.01155476 0.111705564 -0.038057953
-0.22077258 0.040469818 0.11246133 -0.3731589 0.10288491 -0.025252176 -0.04574246 0.11486738
0.1687565 0.19073749 -0.07928138 0.058460217 0.37295997 -0.017893614 0.1432147 -0.22096519
-0.084909275 0.03937242 -0.048111916 -0.14241074 0.15798141 0.070459254 -0.14922334 0.053474415
-0.10760892 0.14557347 0.10972179 0.058823645 0.0416163 -0.047345378 -0.15068053 -0.14722054
-0.065686494 -0.32295433 -0.00986633 0.16433477 0.06528131 0.03895858 0.0022448103 -0.14231981
0.056459896 -0.03824055 -0.028637452 -0.06001408 -0.08963261 -0.1516951 0.051552437 -0.0164378
-0.054565813 0.04479714 0.034005214 0.25754908 -0.11004461 0.15498003 -0.3967612 -0.2120637
-0.008371195 0.0053744563 0.20573282 0.020811249 0.11594123 0.3331151 0.07833659 0.1352173
-0.113407135 -0.057033382 0.065930545 -0.06541254 0.14429304 -0.0148195615 0.16066055 -0.092212714
-0.32777917 0.0053736167 0.18624261 -0.32706964 0.012863318 0.012773896 -0.016039697 -0.056876935
00000000: 1fb6 08be 5185 f3bd 201a 28be 9456 bebd
00000010: f12e 15be afe9 78be 7c3a 743e 1d9d 08bd
00000020: a15d 933e 74e4 f13c 9082 2fbd bc9d 1d3c
00000030: 460b 593d a14f 18be 12be d73e 9932 c53e
00000040: 5325 6b3d 4c76 17bd 238c 2fbd 5a0e 133f
00000050: 6e68 ebbd 8b5e 94bd 2684 1f3e 5c93 13be
00000060: 96b8 113d 2849 133e fe65 743d 168f 9abd
00000070: b335 c73c fef6 f1bd 5e63 0ebd f97e 32bd
00000080: 8437 b3bd bd8c da3e c172 863d d6aa a43e
00000090: b66f 0dbd 8f78 95bd 01ba 8e3d e447 a83e
000000a0: 1cb5 5bbe 22fa f43d ace1 20be 98c1 3a3e
000000b0: b288 e33c 640c abbc 6943 90bd 1999 513e
000000c0: 8155 69be c71d 083e be14 a7be 456c 483f
000000d0: 395e 78be 8e7c a1bd fe48 1d3c c477 cebd
000000e0: a794 8cbe 7be3 63bd 243f d43b 2e8b 523e
000000f0: 9153 bdbd 4802 47be daec 96bd ee8b 74be
00000100: 5c34 33bd bec7 fabc d9e2 46bd a610 1d3e
00000110: 6f10 1f3e 0924 1bbd 41f8 2ebe b63b 473d
00000120: 42a2 4cbe 0836 2ebe 3863 e63b f657 923d
00000130: 34ab a9bd 44d7 27be 7bb6 843e 1d93 91be
00000140: 9cdb e0bc 6165 82be f813 98bd f8f5 0bbe
00000150: 9a3f 83bd 8faa 423e 2a3d 903d cb4a 74be
00000160: f88e 23bd a817 6cbc ed55 1dbe 4aca 933c
00000170: 3bec 5c3e 70bf 55be fbb6 013e ccba 933c
00000180: 58c7 84bd 45e8 eabc 2bd2 fb3e 3c01 333e
00000190: ef21 34bd 3be3 1bbe 8f80 ed3e ecfd c93d
000001a0: 7dc7 d63d 1ec5 57b9 f0b0 62be c1ec 923d
000001b0: d1df 4e3e ca75 41bd 8714 01be 8271 b5bd
000001c0: d934 dcbb 9648 97bb b1e8 c2be eda2 d73d
000001d0: fe1e dfbc ded8 b83d 8625 3e3e 0bf5 0fbe
000001e0: c249 80be 538a 903e 7d80 1fbd 0d93 b9be
000001f0: d2ec 8abd 8be8 4abd ba2c ae3c 4e1e 90be
00000200: aef2 46be 30e5 ab3b 6f77 573e 4a54 303d
00000210: 3ffe 8f3d 7f64 2e3e d49f e4bd e854 f73d
00000220: b6c1 0cbe b45c 993d 4454 bf3c 54b1 e1bd
00000230: b54b 083d b9ef 9d3b 1b6d 10bd 7bcd 11be
00000240: a22e d6bc 27ff a1bb af90 5fbb 4f59 30be
00000250: fa73 9d3d 01f2 473e f73b 673d 2a83 3b3d
00000260: b8ce a33d 871b 8fbd 42b9 07bd 7525 603c
00000270: be7b 5dbe 408b afbd 395a 5cbb 224f 703a
00000280: 7c3e 9b3b e20b 1e3e 6efd 3dbe 5149 b7bd
00000290: baf2 693d 1192 c63c 6dc7 40bc 9b78 00be
000002a0: 45ec a0bd f959 b53d ae20 8fbd 9585 0f3d
000002b0: 0ef3 1f3d 2d50 3d3c e3c5 e43d a8e2 1bbd
000002c0: 3512 62be aec3 253d 2052 e63d af0e bfbe
000002d0: 53b5 d23d a7dd cebc 725c 3bbd 973f eb3d
000002e0: 81ce 2c3e b050 433e 475e a2bd fb73 6f3d
000002f0: 9cf4 be3e a195 92bc e0a6 123e b344 62be
00000300: eae4 adbd fa44 213d 0011 45bd 1fd4 11be
00000310: e1c5 213e f14c 903d 01ce 18be fd07 5b3d
00000320: 1162 dcbd 3611 153e d1b5 e03d 10f1 703d
00000330: da75 2a3d 3aed 41bd ff4b 1abe fbc0 16be
00000340: a486 86bd 455a a5be 63a6 21bc 6047 283e
00000350: 35b2 853d 0893 1f3d ab1d 133b 49bc 11be
00000360: 7e42 673d 1fa2 1cbd 1799 eabc 53d1 75bd
00000370: 4d91 b7bd f655 1bbe a628 533d 91a8 86bc
00000380: 6780 5fbd 357d 373d 0d49 0b3d 79dd 833e
00000390: 125f e1bd 16b3 1e3e 4924 cbbe 3a27 59be
000003a0: 5627 09bc 351c b03b a0ab 523e 5a7c aa3c
000003b0: 9872 ed3d 108e aa3e ef6e a03d 6776 0a3e
000003c0: 0042 e8bd d69b 69bd 9806 873d 03f7 85bd
000003d0: 8ec1 133e bfcd 72bc 3384 243e 05da bcbd
000003e0: acd2 a7be 2a15 b03b 62b6 3e3e ac75 a7be
000003f0: abc0 523c 9a49 513c af65 83bc caf7 68bd

bias f4 [128]
0.060748283 -0.09656795 0.27377164 -0.0005253151 -0.06550705 -0.021991838 0.11128068 0.014174977
0.068259224 0.23454836 -0.14405255 -0.09062438 -0.14009055 -0.14265531 0.022875782 0.11204273
0.074550025 0.17011352 0.07696526 0.08345363 0.075335026 -0.004114284 0.05404716 0.04782259
0.07286969 0.051068317 0.1563626 0.013719849 0.022852993 0.08773865 0.024349356 0.123954736
0.04072324 -0.16340196 -0.053488057 0.123824485 0.16058509 0.08129816 0.15525451 -0.11049719
-0.03304398 0.020773694 0.0025863366 0.029049147 -0.097545624 0.10318729 0.15519734 -0.065526225
0.047686286 -0.09572429 0.13164838 -0.17878734 0.008963795 0.052427746 0.077597454 -0.1109712
0.0483439 0.053082112 0.054443527 0.025740545 -0.074289784 -0.0096995 0.18727027 0.056082796
0.0077524846 0.061434463 -0.011570088 0.09319478 0.040771965 0.10449852 0.030159878 0.06055447
0.10600196 0.036005434 0.09002784 0.100406595 -0.059288103 0.20266667 0.16948718 0.0020566077
0.13615468 0.040556453 -0.054695185 0.039335877 -0.047075685 0.14212702 0.066837735 -0.020595962
-0.036729913 0.0380972 -0.11312528 0.07189271 -0.0030141668 0.049891897 0.116119914 0.13693228
-0.14690723 -0.0003375334 -0.10978564 0.081837885 0.10272966 0.11833727 -0.061124973 0.09217275
0.120452054 -0.05815249 0.14531659 0.14852943 -0.04708822 0.023435576 0.058579434 -0.06515874
-0.049833775 -0.07210135 -0.07836726 0.1795474 -0.069540665 0.08916088 0.14371218 0.048756097
-0.03853199 -0.07268746 0.16933878 -0.08027568 -0.060847603 -0.054547086 0.0725277 0.06541854
00000000: 31d3 783d 6bc5 c5bd cc2b 8c3e 4db5 09ba
00000010: 8f28 86bd 3a28 b4bc 20e7 e33d 2a3e 683c
00000020: 7ecb 8b3d 722d 703e 8382 13be 4699 b9bd
00000030: e673 0fbe 3c14 12be fe65 bb3c a976 e53d
00000040: afad 983d 3d32 2e3e f69f 9d3d bde9 aa3d
00000050: 4049 9a3d 1ed1 86bb 8e60 5d3d 9fe1 433d
00000060: b43c 953d 032d 513d 841d 203e 38c9 603c
00000070: 3336 bb3c 52b0 b33d 4d78 c73c fbdb fd3d
00000080: 69cd 263d d852 27be 4b16 5bbd b197 fd3d
00000090: 6b70 243e a67f a63d 0afb 1e3e 5a4c e2bd
000000a0: 2059 07bd 982d aa3c 877f 293b 7af8 ed3c
000000b0: 00c6 c7bd dc53 d33d 0dec 1e3e 9d32 86bd
000000c0: b252 433d 190b c4bd d5ce 063e 0714 37be
000000d0: e2dc 123c 7abe 563d 6aeb 9e3d de44 e3bd
000000e0: 4104 463d a16c 593d 2d00 5f3d d6dd d23c
000000f0: 3e25 98bd a7ea 1ebc c7c3 3f3e 13b7 653d
00000100: 8e08 fe3b b4a2 7b3d 7790 3dbc e8dc be3d
00000110: 8100 273d 5203 d63d d911 f73c f707 783d
00000120: 8e17 d93d 6f7a 133d 8460 b83d f9a1 cd3d
00000130: 15d8 72bd da87 4f3e 0c8e 2d3e 27c8 063b
00000140: 226c 0b3e 861e 263d 0f08 60bd a81e 213d
00000150: 6fd2 40bd bf89 113e 39e2 883d ddb8 a8bc
00000160: 1b72 16bd cf0b 1c3d 3aae e7bd 7c3c 933d
00000170: 5489 45bb 725b 4c3d 47d0 ed3d fa37 0c3e
00000180: d96e 16be f7f6 b0b9 4bd7 e0bd 9f9a a73d
00000190: ee63 d23d d05a f23d 2e5e 7abd 11c5 bc3d
000001a0: 91af f63d 4e31 6ebd dfcd 143e 1918 183e
000001b0: 94df 40bd f7fb bf3c fdf0 6f3d f271 85bd
000001c0: 801e 4cbd dfa9 93bd 047f a0bd 46db 373e
000001d0: 566b 8ebd fb99 b63d 4929 133e 79b4 473d
000001e0: b8d3 1dbd 2add 94bd 2567 2d3e 9367 a4bd
000001f0: 563b 79bd c46c 5fbd 6789 943d 28fa 853d

weight f4 [128, 128]
0.03260488 -0.024025615 -0.09967956 0.018854449 -0.041414924 0.13102861 0.08999583 0.14080307
0.18899009 -0.13311353 -0.011633353 0.03963416 -0.046629533 0.07308639 -0.06776397 -0.17023085
-0.016214833 -0.020455617 0.20531002 -0.020516884 0.035097446 0.025159748 0.115100056 0.112157546
0.1719081 -0.122356884 -0.06787561 -0.025322122 -0.0058038766 0.03825242 -0.12240861 0.014764648
-0.013641834 0.033948418 0.07823604 0.14524758 -0.04198472 0.09410798 -0.15116782 0.060063135
0.009172506 0.09274182 0.089969926 -0.023701731 -0.07407111 -0.13215066 0.004129789 -0.028907346
-0.014614141 -0.029372793 -0.016143093 0.062609434 0.08530638 0.1055728 0.21502122 0.0872916
-0.11683745 0.15516312 0.04057954 0.12230444 0.05155822 0.18489957 -0.15081154 0.03318108
0.13117939 0.011726591 0.02409181 0.21766797 -0.0163856 -0.0642426 -0.024219105 0.10073753
0.13209108 0.1966424 -0.050120074 0.14198765 0.0898231 -0.0729646 -0.1352864 0.038935404
0.23682603 -0.068824716 0.08229897 -0.106388554 0.15582004 0.02368399 0.015580009 0.15268487
0.05043272 -0.010741147 0.12195358 -0.04785958 0.017183786 -0.47574225 0.04485553 0.13020752
-0.997363 -0.097138196 0.098177485 -0.05956616 -0.12965631 0.18451516 -0.020424468 0.15771416
-0.0077776182 -0.0042376216 0.09430891 0.048466876 0.065926306 0.21447264 -0.008077768 0.029444898
0.13651858 0.0733302 0.12740372 0.103197515 0.020492196 -0.032383393 0.13699526 -0.09540081
0.083621465 0.04129921 -0.011560211 -0.046328127 0.12752824 0.040564787 -0.095475145 0.16822745
0.13560115 -0.035899173 -0.057884913 0.059324566 0.06479568 0.006247615 0.08001449 0.055507068
-0.06409394 0.051215075 -0.023637747 -0.09989808 0.06926319 0.038896117 0.135828 0.07110673
0.011657004 0.06576374 -0.13759305 0.09156861 0.13362706 -0.16288282 -0.18279532 -0.09571212
-0.10742317 0.008526428 0.015789617 0.050942592 0.42970148 -0.043382943 0.015402456 0.09992362
0.13497871 -0.034424618 0.0040521324 0.25247607 0.010701734 -0.10591777 0.07228669 0.039410617
-0.045607373 -0.0045926576 -0.035283986 0.008058572 0.058355786 0.0948301 0.15126008 0.09695102
-0.026861561 0.094298206 -0.019815695 -0.09259948 0.120176144 -0.01445308 -0.1859669 -0.085693866
0.03486448 0.320942 0.06345578 -0.10314307 -0.027082203 -0.17741556 0.08456901 -0.040047202
-0.12423271 0.027846666 -0.11568006 -0.2102873 0.061049614 0.0033956394 0.020074442 -0.039881274
0.076524734 -0.15935789 0.11518076 0.101890996 0.03935327 0.11607557 0.0778572 0.10506966
-0.11457335 0.05915211 -0.0718142 0.10327354 -0.12393856 0.023835987 -0.032195583 -0.14448431
-0.0071477657 0.0035123446 0.00067025307 0.013161015 0.3125205 0.84880286 0.06295148 -0.13810572
0.83897895 0.13041903 -0.041284896 0.13353705 0.057434577 -0.08977392 -0.12103691 0.026496654
0.112808764 -0.096437335 -0.12706286 0.1004076 -0.07452981 -0.13037895 0.046028346 -0.012394585
-0.07049518 0.053631194 -0.058103107 0.066761106 -0.101701066 0.0667353 -0.10677322 0.06302109
-0.010407322 -0.08196949 0.05140465 -0.06975934 0.09547427 0.07893575 0.13288268 -0.003611087
00000000: b28c 053d 5ed1 c4bc cc24 ccbd a574 9a3c
00000010: b2a2 29bd 5d2c 063e bc4f b83d ae2e 103e
00000020: 9e86 413e ea4e 08be d299 3ebc 6e57 223d
00000030: 9cfe 3ebd 51ae 953d d6c7 8abd ff50 2ebe
00000040: f8d4 84bc 8a92 a7bc ca3c 523e 0613 a8bc
00000050: 57c2 0f3d d11b ce3c 94b9 eb3d dbb2 e53d
00000060: ad08 303e 3f96 fabd 5e02 8bbd 5770 cfbc
00000070: 722e bebb 92ae 1c3d 5eb1 fabd 6ce7 713c
00000080: 0082 5fbc 7f0d 0b3d 383a a03d c8bb 143e
00000090: 2bf8 2bbd afbb c03d bdcb 1abe c304 763d
000000a0: 4748 163c 6cef bd3d 2742 b83d 222a c2bc
000000b0: 98b2 97bd 8152 07be 2e53 873b 19cf ecbc
000000c0: 2670 6fbc 369f f0bc 853e 84bc 6039 803d
000000d0: 1db5 ae3d 8d36 d83d 862e 5c3e f0c5 b23d
000000e0: 7948 efbd 15e3 1e3e bb36 263d c07a fa3d
000000f0: b62e 533d 5056 3d3e 576e 1abe e2e8 073d
00000100: e453 063e e320 403c 305c c53c 5ae4 5e3e
00000110: 183b 86bc a091 83bd 2567 c6bc 7a4f ce3d
00000120: e242 073e a05c 493e b54a 4dbd 3665 113e
00000130: 2cf5 b73d 776e 95bd 8588 0abe bb7a 1f3d
00000140: 8682 723e f9f3 8cbd 5d8c a83d 3ee2 d9bd
00000150: 4a8f 1f3e ed04 c23c 4b43 7f3c 6c59 1c3e
00000160: 8a92 4e3d a3fb 2fbc ccc2 f93d 6808 44bd
00000170: 03c5 8c3c 7d94 f3be 6fba 373d 1f55 053e
00000180: 2e53 7fbf 64f0 c6bd 4711 c93d a5fb 73bd
00000190: a0c4 04be 8bf1 3c3e 3751 a7bc d27f 213e
000001a0: 64db febb bfdb 8abb 0825 c13d 3485 463d
000001b0: 5f04 873d b79e 5b3e 9d58 04bc 6d36 f13c
000001c0: 87cb 0b3e 252e 963d 1f76 023e 3859 d33d
000001d0: 40df a73c 73a4 04bd 7c48 0c3e 8061 c3bd
000001e0: bb41 ab3d 5c29 293d 0a67 3dbc 90c2 3dbd
000001f0: c396 023e 4327 263d 7988 c3bd d143 2c3e
00000200: 07db 0a3e 030b 13bd bb18 6dbd 51fe 723d
00000210: 99b3 843d cbb8 cc3b a3de a33d 615b 633d
00000220: af43 83bd e6c6 513d f3a3 c1bc 5d97 ccbd
00000230: dcd9 8d3d 8951 1f3d 7f16 0b3e 68a0 913d
00000240: 05fd 3e3c 24af 863d 31e5 0cbe 5388 bb3d
00000250: 88d5 083e c1ca 26be b22e 3bbe b704 c4bd
00000260: ae00 dcbd 6eb2 0b3c 3a59 813c 2ea9 503d
00000270: d501 dc3e 50b2 31bd 955a 7c3c c1a4 cc3d
00000280: dc37 0a3e d400 0dbd c0c7 843b 8b44 813e
00000290: 5356 2f3c 6aeb d8bd 0b0b 943d 076d 213d
000002a0: ccce 3abd 017e 96bb f185 10bd 1a08 043c
000002b0: 7a06 6f3d 4936 c23d ece3 1a3e 428e c63d
000002c0: c70c dcbc 6b1f c13d 8654 a2bc cca4 bdbd
000002d0: e91e f63d 9ccc 6cbc 1b6e 3ebe 4480 afbd
000002e0: 0fce 0e3d 8352 a43e 1bf5 813d ad3c d3bd
000002f0: 7fdb ddbc 6dac 35be 8432 ad3d 8908 24bd
00000300: b86d febd b11e e43c abe9 ecbd 8e55 57be
00000310: 290f 7a3d 6089 5e3b 2873 a43c 8c5a 23bd
00000320: 00b9 9c3d b72e 23be e4e3 eb3d 3aac d03d
00000330: e530 213d 07b9 ed3d 9873 9f3d c32e d73d
00000340: 6fa5 eabd 7c49 723d 5313 93bd 1481 d33d
00000350: 80d3 fdbd b043 c33c 84df 03bd b2f3 13be
00000360: ce37 eabb 5d2f 663b ecb3 2f3a 4ca1 573c
00000370: b002 a03e 254b 593f b5ec 803d 966b 0dbe
00000380: 53c7 563f 918c 053e 5a1a 29bd f0bd 083e
00000390: 8540 6b3d 64db b7bd 33e2 f7bd 830f d93c
000003a0: 4808 e73d f080 c5bd c41c 02be 80a2 cd3d
000003b0: 16a3 98bd 0f82 05be 3888 3c3d a812 4bbc
000003c0: c75f 90bd 62ac 5b3d 86fd 6dbd 0cba 883d
000003d0: a648 d0bd 84ac 883d ebab dabd 3411 813d
000003e0: 7983 2abc 9fdf a7bd af8d 523d fcdd 8ebd
000003f0: 0488 c33d 11a9 a13d 6612 083e fda7 6cbb

bias f4 [128]
0.22245418 -0.20368096 0.35477304 -0.22613294 -0.32029644 -0.14236252 0.1015555 -0.1586828
0.24094954 -0.0856911 -0.18367119 -0.25801647 0.029153932 -0.03989414 -0.053696662 -0.2209859
-0.32223716 -0.0051665213 -0.18024948 -0.04565862 0.23244195 -0.21070781 -0.08183915 -0.2119016
-0.14988887 -0.04687547 0.009555432 -0.30092365 -0.34776115 0.28717008 0.29730758 -0.161291
0.27482474 0.24410038 -0.21758719 -0.17273924 -0.3171563 0.2868484 0.29644606 0.061036065
-0.11570364 0.25985312 -0.1745439 0.16982219 -0.13227084 0.19779214 0.15953708 0.056314796
0.2059653 -0.25383437 -0.15172772 -0.22718766 -0.23768523 0.24195419 0.33246922 0.15887009
0.040197063 0.14359067 -0.0568824 0.16634446 -0.19661716 -0.21405728 0.33709803 -0.036306277
0.03585893 -0.23351415 -0.25631803 -0.078931905 -0.056873143 0.012837549 -0.05661967 -0.23998564
-0.2983718 0.12805007 -0.3325412 0.19620053 -0.16737068 -0.14512803 -0.19443136 0.10685064
-0.20161192 0.14321253 -0.2611087 -0.07062952 -0.04855972 0.3816045 0.111875266 0.14076093
0.06591492 0.24236146 -0.2432048 0.27209103 -0.10210205 0.011584798 -0.23644617 0.18133076
-0.088771075 0.15735085 0.15521933 -0.29622868 0.2341354 -0.28697705 -0.25401494 0.2904961
0.1166991 -0.11441169 0.31227732 -0.2884027 -0.21952477 -0.13460317 -0.15087846 0.122512594
0.20853646 0.13216667 -0.30365908 0.22244523 -0.21842128 -0.00026813243 -0.22022367 -0.1767644
-0.21325879 -0.07382602 0.20059563 -0.0017736885 -0.3171258 0.04903879 0.2419976 -0.29961964
00000000: 07cb 633e be91 50be d0a4 b53e 658f 67be
00000010: e5fd a3be 7bc7 11be 54fc cf3d be7d 22be
00000020: 7abb 763e d17e afbd 4d14 3cbe bc1a 84be
00000030: 3ad4 ee3c 0a68 23bd 08f1 5bbd 214a 62be
00000040: 45fc a4be ec4b a9bb 5293 38be 8804 3bbd
00000050: 4305 6e3e cac3 57be 499b a7bd bcfc 58be
00000060: 787c 19be 7e00 40bd 638e 1c3c aa12 9abe
00000070: c00d b2be f507 933e b338 983e 7829 25be
00000080: d4b5 8c3e 73f5 793e 2dcf 5ebe 8ee2 30be
00000090: 5062 a2be cbdd 923e c7c7 973e f400 7a3d
000000a0: 08f6 ecbd 780b 853e a3bb 32be dee5 2d3e
000000b0: 0272 07be 068a 4a3e b05d 233e 58aa 663d
000000c0: 91e8 523e 94f6 81be 835e 1bbe e2a3 68be
000000d0: c263 73be d7c2 773e 6839 aa3e d7ae 223e
000000e0: ada5 243d 6f09 133e 85fd 68bd 3456 2a3e
000000f0: 0256 49be d531 5bbe 1d98 ac3e e4b5 14bd
00000100: d0e0 123d 551e 6fbe 1e3c 83be 0da7 a1bd
00000110: d0f3 68bd 9554 523c 07ea 67bd ccbe 75be
00000120: 30c4 98be 8f1f 033e d742 aabe cbe8 483e
00000130: 3863 2bbe 719c 14be 0419 47be 82d4 da3d
00000140: 5b73 4ebe 4ea6 123e 0ab0 85be 36a6 90bd
00000150: 8fe6 46bd aa61 c33e dc1e e53d a223 103e
00000160: 67fe 863d 9a2d 783e ae0a 79be 844f 8b3e
00000170: e11a d1bd 2ace 3d3c f21e 72be c5ae 393e
00000180: 9ccd b5bd 9520 213e d1f1 1e3e 49ab 97be
00000190: 31c1 6f3e a8ee 92be 3f0e 82be e8bb 943e
000001a0: f0ff ee3d ad50 eabd d0e2 9f3e 85a9 93be
000001b0: 1acb 60be 6ad5 09be e27f 1abe e2e7 fa3d
000001c0: 958a 553e b356 073e 3479 9bbe afc8 633e
000001d0: d4a9 5fbe 2094 8cb9 5082 61be ba01 35be
000001e0: 8360 5abe 1932 97bd f168 4d3e 1c7b e8ba
000001f0: 505e a2be e6dc 483d 38ce 773e bf67 99be

weight f4 [128, 128]
0.060835544 0.01646144 0.103757255 -0.10638724 -0.038334314 0.07227752 0.009381726 -0.117449895
-0.023809416 -0.0066884793 -0.04124347 0.017316256 -0.045669638 -0.081106514 -0.047021545 0.08647441
0.006599907 0.071021155 -0.044302825 0.05710664 -0.027908718 0.0021219559 -0.012446273 0.023523778
0.030278584 -0.050520252 -0.011279029 -0.103603564 0.045229793 0.031768937 0.16649362 0.072058484
-0.0251044 -0.13146438 0.046207365 -0.04493246 0.07252133 0.12351642 0.09892943 -0.041737802
-0.027662134 0.12229231 0.019709488 0.017957544 -0.035192534 0.06014747 -0.06747551 0.16526191
-0.04879905 -0.10975899 -0.044287015 0.0913248 -0.051147606 -0.07463435 0.14113241 0.101083085
-0.027007578 0.010038834 0.06284428 0.01049726 -0.07175254 -0.09072279 0.020032365 -0.006391314
-0.09149619 0.019316653 0.043317884 -0.029446168 -0.07115007 -0.029229721 0.073730454 -0.039293908
-0.024039691 0.023392763 0.0052336073 -0.06218946 -0.0071749943 -0.0076402705 -0.038054902 -0.07730194
0.026844483 -0.017577741 -0.13038595 0.017765332 0.09076564 0.1277696 0.095174484 0.11414175
0.09185466 -0.039940815 -0.123334795 0.095650226 -0.0020308942 0.032699086 0.025170282 -0.0579812
-0.09437086 -0.07800869 -0.047126126 -0.06787206 -0.014622062 0.10835344 -0.03224331 0.055847444
-0.101325154 0.07379893 -0.112774655 0.02405778 0.086252995 0.01657759 -0.047167707 -0.114277825
-0.0842879 0.009327769 0.064505845 -0.09315062 0.03240006 -0.101755716 0.018413203 0.07280991
-0.028940557 0.038618177 -0.0388747 -0.017757023 -0.121742405 -0.05626598 0.032683156 -0.050861083
0.07219223 0.101326205 0.13355517 -0.0038270452 -0.1189155 0.029442482 -0.037288062 2.7176022e-05
0.03434822 -0.068106316 -0.0017323052 0.044507015 -0.0064725075 -0.10076154 -0.018099744 -0.033500846
-0.1668118 0.08672065 0.05165239 -0.042099383 -0.007628918 0.067895964 -0.07096488 -0.012174504
0.08180147 -0.11031262 0.041978292 -0.026514906 -0.112549566 0.14657693 0.04786969 0.017673614
0.07090852 -0.029753134 -0.009756983 -0.05868523 0.11353504 0.11464152 -0.016797585 -0.030149326
0.070797324 0.038855836 -0.007977215 0.10496112 -0.08906591 0.082948014 0.0002754518 0.106665164
0.09134579 -9.209475e-05 -0.028069198 0.0974973 -0.031393044 0.07351118 0.075523786 0.067497246
0.018619299 0.0018220197 0.092385 0.033899385 0.018235242 0.030286679 0.04431953 -0.09680807
0.09796785 0.07879995 -0.09226814 0.051524147 0.023091955 -0.029240094 0.016987367 0.03455263
-0.0803409 -0.014141203 -0.12346575 0.0731438 0.022944968 0.070114106 0.041531038 -0.026003841
-0.08694898 0.014521923 -0.06781736 0.058340166 0.016841898 0.1631072 -0.033112254 0.10719357
0.0002613616 0.062317118 -0.06365686 0.027570868 -0.09829753 -0.07835871 -0.109673195 -0.0039426605
0.07564242 -0.053622313 -0.019193262 -0.114848636 0.07577109 -0.029267782 -0.10002693 -0.018443478
-0.04050694 0.008795286 0.0066543296 -0.047154527 -0.04128652 -0.042255536 -0.001731547 -0.08148471
-0.0051668542 -0.13033688 -0.13096485 -0.10678255 0.06395449 -0.021007294 -0.047079735 -0.008448505
0.040768858 0.053805873 0.13014996 -0.0005530603 -0.11630222 0.046185505 -0.009804238 -0.027627822
00000000: b12e 793d 24da 863c af7e d43d 8ee1 d9bd
00000010: 7104 1dbd 3d06 943d d0b5 193c 9289 f0bd
00000020: f70b c3bc 082b dbbb eaee 28bd d2da 8d3c
00000030: 1610 3bbd 2c1b a6bd aa99 40bd 7f19 b13d
00000040: 0844 d83b 8a73 913d e176 35bd a7e8 693d
00000050: d3a0 e4bc 8310 0b3b 74eb 4bbc f0b4 c03c
00000060: cb0a f83c 53ee 4ebd adcb 38bc 1b2e d4bd
00000070: e042 393d 2520 023d 4e7d 2a3e 6693 933d
00000080: bea7 cdbc 999e 06be ef43 3d3d 190b 38bd
00000090: 1086 943d 2df6 fc3d 839b ca3d 42f5 2abd
000000a0: b39b e2bc 6474 fa3d cb75 a13c b31b 933c
000000b0: 0c26 10bd 325d 763d 9a30 8abd 6b3a 293e
000000c0: 83e1 47bd 52c9 e0bd 4d66 35bd 7f08 bb3d
000000d0: 2780 51bd e5d9 98bd 0485 103e a604 cf3d
000000e0: ff3e ddbc ec79 243c 80b4 803d b3fc 2b3c
000000f0: fff2 92bd dfcc b9bd ea1a a43c 3a6e d1bb
00000100: 5b62 bbbd f53d 9e3c 186e 313d 1739 f1bc
00000110: 21b7 91bd 2b73 efbc feff 963d a6f2 20bd
00000120: e3ee c4bc 2ea2 bf3c ae7e ab3b 60ba 7ebd
00000130: 371c ebbb 3c5b fabb 75df 1bbd 7b50 9ebd
00000140: f6e8 db3c 32ff 8fbc e583 05be 9a88 913c
00000150: 56e3 b93d 09d6 023e d7ea c23d 26c3 e93d
00000160: 4c1e bc3d fb98 23bd f496 fcbd 44e4 c33d
00000170: c018 05bb 7aef 053d e831 ce3c b27d 6dbd
00000180: 8245 c1bd 05c3 9fbd 5307 41bd 8200 8bbd
00000190: 6091 6fbc 69e8 dd3d 9011 04bd 4ac0 643d
000001a0: 9083 cfbd e523 973d 66f6 e6bd d214 c53c
000001b0: 69a5 b03d bacd 873c ed32 41bd 7e0a eabd
000001c0: 229f acbd 80d3 183c a41b 843d c1c5 bebd
000001d0: edb5 043d 4d65 d0bd 49d7 963c 5d1d 953d
000001e0: bf14 edbc 182e 1e3d 143b 1fbd 2d77 91bc
000001f0: 1554 f9bd 2877 66bd c6de 053d b653 50bd
00000200: 85d9 933d 1d84 cf3d b0c2 083e 2acf 7abb
00000210: f889 f3bd 5c31 f13c 5ebb 18bd 10f8 e337
00000220: b8b0 0c3d 537b 8bbd 840e e3ba fd4c 363d
00000230: 5417 d4bb 115c cebd ea45 94bc 2f38 09bd
00000240: b6d0 2abe 999a b13d 7591 533d 6770 2cbd
00000250: 01fc f9bb 0a0d 8b3d 0956 91bd 9277 47bc
00000260: 8787 a73d 95eb e1bd 6ef1 2b3d ca35 d9bc
00000270: 6380 e6bd 4318 163e 0213 443d 41c8 903c
00000280: 7c38 913d d8bc f3bc c1db 1fbc ec5f 70bd
00000290: 0f85 e83d 2cc9 ea3d 179b 89bc b8fb f6bc
000002a0: 30fe 903d 4c27 1f3d ddb2 02bc dbf5 d63d
000002b0: 3068 b6bd a6e0 a93d 846a 9039 4473 da3d
000002c0: 8013 bb3d fe22 c1b8 60f1 e5bc aaac c73d
000002d0: fe95 00bd 088d 963d 37ac 9a3d ff3b 8a3d
000002e0: 8087 983c d6d0 ee3a 5934 bd3d 15da 0a3d
000002f0: 1362 953c c51b f83c 6588 353d 4f43 c6bd
00000300: 5ea3 c83d de61 a13d 14f7 bcbd fc0a 533d
00000310: 572b bd3c ec88 efbc 1729 8b3c 0f87 0d3d
00000320: c589 a4bd 81b0 67bc 9cdb fcbd 6bcc 953d
00000330: 16f7 bb3c fc97 8f3d 731c 2a3d 0206 d5bc
00000340: 4f12 b2bd 5ced 6d3c d4e3 8abd 19f6 6e3d
00000350: 05f8 893c 9305 273e b7a0 07bd 4d88 db3d
00000360: 5c07 8939 3c40 7f3d 875e 82bd 4ddc e13c
00000370: 3750 c9bd 887a a0bd 579c e0bd 6f31 81bb
00000380: 6aea 9a3d 12a3 5bbd 303b 9dbc c335 ebbd
00000390: e02d 9b3d fdc2 efbc ebda ccbd c716 97bc
000003a0: 9bea 25bd 1a1a 103c 900c da3b 1b25 41bd
000003b0: 0e1c 29bd 2414 2dbd 13f5 e2ba 75e1 a6bd
000003c0: b74e a9bb 0877 05be a61b 06be cfb0 dabd
000003d0: 92fa 823d 7d17 acbc aed6 40bd 996b 0abc
000003e0: 3ffd 263d 8c63 5c3d 0846 053e 40fb 10ba
000003f0: dc2f eebd 032d 3d3d f4a1 20bc be53 e2bc

bias f4 [128]
0.16652612 0.40260386 0.32860708 0.38786465 0.23042224 -0.004789798 0.11080224 -0.18645334
0.077131756 0.17374678 -0.09867663 0.62942123 -0.53335816 -0.16190842 0.14581607 0.057824004
0.31379122 0.35986963 0.36795136 -0.018759832 0.14579733 -0.22041643 -0.12763573 -0.42353642
0.31459096 -0.14085796 -0.065023996 -0.45447686 -0.21726413 0.3078284 0.01954017 -0.2561653
0.5250698 -0.2899572 0.0994459 -0.21086441 -0.051011182 -0.44943106 0.40756837 -0.11644155
0.6198626 0.34358564 -0.0112917395 -0.08782653 -0.04824974 0.5968779 -0.4357142 0.06101373
0.04687051 -0.29859483 -0.14415771 0.042047724 0.3040473 -0.07960714 -0.027327282 0.04373149
0.14495209 0.26058552 -0.15675637 0.24821855 0.14850436 0.005062938 0.022257376 -0.23827797
0.10153411 0.08932684 -0.047857996 -0.04484294 -0.54831195 0.08784018 0.32072255 0.40676683
0.02676382 -0.11767896 0.4607454 0.38026485 -0.18933152 -0.025797086 0.47960517 -0.27437216
0.026222628 -0.038923405 0.60290223 0.42022985 0.36441758 0.023828508 0.26866606 0.43486726
0.30927756 0.28066337 0.12461896 -0.011969071 0.6253642 -0.108568564 -0.082653314 0.117052525
-0.4361231 -0.61233115 0.35277572 0.3832267 0.38857877 0.25140265 0.39848587 0.31402445
0.557455 -0.39673045 -0.044948507 -0.13858734 -0.11734395 -0.087921254 -0.1377012 -0.09552449
0.4169636 -0.17008129 -0.0071193757 0.6016032 0.066076584 -0.48455563 0.54619694 0.026483681
0.38883528 -0.1344942 0.5689317 -0.11457907 0.13272859 0.06852378 -0.5364244 -0.65027213
00000000: d385 2a3e 1822 ce3e 303f a83e 3296 c63e
00000010: cff3 6b3e bdf3 9cbb 49ec e23d a0ed 3ebe
00000020: 41f7 9d3d adea 313e f916 cabd c021 213f
00000030: 298a 08bf 52cb 25be cf50 153e ddd8 6c3d
00000040: 3ea9 a03e d540 b83e 1f64 bc3e 38ae 99bc
00000050: e54b 153e d8b4 61be f1b2 02be c4d9 d8be
00000060: 1112 a13e 123d 10be 4d2b 85bd 31b1 e8be
00000070: 7d7a 5ebe af9b 9d3e b512 a03c 1928 83be
00000080: f96a 063f 4575 94be 4baa cb3d d7ec 57be
00000090: 1af1 50bd d41b e6be cdac d03e e878 eebd
000000a0: 51af 1e3f 75ea af3e fd00 39bc 65de b3bd
000000b0: 85a1 45bd fdcc 183f ee15 dfbe 88e9 793d
000000c0: 4bfb 3f3d 6ce1 98be 149e 13be 3c3a 2c3d
000000d0: 16ac 9b3e 1109 a3bd 77dd dfbc ca1f 333d
000000e0: 526e 143e 776b 853e be84 20be 012d 7e3e
000000f0: 8711 183e 01e7 a53b 1a55 b63c 24ff 73be
00000100: 1ef1 cf3d fef0 b63d bf06 44bd 3bad 37bd
00000110: 2c5e 0cbf 8de5 b33d bf35 a43e be43 d03e
00000120: cc3f db3c ab01 f1bd d2e6 eb3e 13b2 c23e
00000130: 1fe0 41be 6954 d3bc cf8e f53e 827a 8cbe
00000140: d6d0 d63c 266e 1fbd cd57 1a3f 5e28 d73e
00000150: f194 ba3e 0134 c33c 998e 893e eca6 de3e
00000160: a159 9e3e 1cb3 8f3e 3a38 ff3d ec19 44bc
00000170: de17 203f 3259 debd 2446 a9bd 3cb9 ef3d
00000180: 874b dfbe bcc1 1cbf 059f b43e 4a36 c43e
00000190: ccf3 c63e d9b7 803e 5706 cc3e d0c7 a03e
000001a0: 5fb5 0e3f 4120 cbbe ed1b 38bd d7e9 0dbe
000001b0: 0652 f0bd 0f10 b4bd 8b01 0dbe 58a2 c3bd
000001c0: 417c d53e ca29 2ebe a749 e9bb ab02 1a3f
000001d0: 2953 873d ad17 f8be 90d3 0b3f 4ef4 d83c
000001e0: 6b15 c73e d9b8 09be 82a5 113f 6ea8 eabd
000001f0: 01ea 073e 3256 8c3d 1c53 09bf 3c78 26bf

weight f4 [128, 128]
-0.029135961 -0.014500068 0.001731151 -0.040401842 -0.047330644 0.010178607 -0.0051223715 -0.006226032
-0.005334423 -0.019397972 -0.011928952 -0.023695203 -0.007439848 -0.0068795183 -0.025970185 -0.0013159586
-0.053081498 -0.003766388 0.0049050865 -0.0049134856 -0.016259322 -0.020575006 -0.024193207 -0.011348272
-0.016594341 -0.0031277891 4.064409e-15 -3.7197868e-05 -0.0058341273 -0.032626513 -0.008033218 -0.019193366
-0.012266666 -0.02604759 0.015943017 -0.018244887 -0.010292382 -0.0053237597 0.004249251 0.001668157
-0.06817839 -0.0237237 -0.0019399626 -0.007899646 -0.007181 -0.0040503843 -0.012078776 -0.0012171232
-0.012050841 -0.02814972 -0.017699212 -9.606996e-06 0.006547423 -0.017921481 -0.005567746 0.0034199145
-0.0020752305 -0.01742243 -0.01427162 -0.004506605 -0.004797507 -0.00860393 -0.0006686781 -0.013008045
-0.037192892 -0.008318452 -0.007124634 -7.71958e-09 -0.008553761 -0.008234014 0.008660106 0.0065206084
-0.0024636989 -0.011043245 -0.045717057 -0.032693196 -0.011263111 -0.007456242 -0.006916503 -0.023784505
-0.009457914 -0.0079089515 0.0061768014 -0.0115466975 0.00941487 0.000107784166 -0.01920413 0.0036521063
-0.0014876032 -0.02899725 -0.0016019777 -0.0048925527 -0.02532904 -0.009460643 -0.006783014 -0.006247171
-0.012746024 -0.0005455807 -0.0384573 0.017223526 -9.405888e-06 0.009354268 -0.0183232 0.0012536386
0.005089396 -0.0051478436 -0.0061246385 -0.022091206 -0.008684511 -0.0061305193 -0.0012625041 -0.017079372
0.016894279 -0.008741978 0.0039125755 0.004111699 0.0059288144 -0.0125017455 0.0031620064 -0.0078209955
-0.036388494 -0.006628486 -0.00035038154 0.0016828064 -0.032026116 0.0038245823 -0.013670539 -0.008194738
0.058631837 0.1287545 0.072879806 0.095604956 0.06838088 -0.7073353 -0.27306288 0.005358221
-0.48167658 0.09343787 1.4145669e-09 -0.15489256 -4.107755e-34 0.10027732 0.1620802 0.03800482
0.0339897 0.14288503 0.059749223 -0.27518293 0.07409745 0.06734102 0.03788728 2.75564e-34
0.17172912 0.055232882 0.0025619748 1.1388173e-34 -0.024722135 0.20118947 -0.24781744 1.5047378e-06
-0.22858232 0.0270623 -0.7056532 0.3057198 0.0051815636 1.919403e-24 0.15961282 -0.0171581
-0.16674371 0.14289203 0.4648565 2.2153099e-05 -0.20825505 0.09481937 -2.5683622e-33 -0.040923852
-0.05196451 0.54043746 0.08977706 -0.09705265 0.013197165 -0.018533545 -0.36659345 0.030177448
-0.02000259 0.06544565 -3.1956204e-10 -0.40516824 0.07246304 -0.57481587 -0.054418214 8.562924e-09
0.07285882 -0.5535898 0.027400589 0.021905055 -1.35938455e-30 -0.3134096 0.061376896 0.0578286
0.053658146 2.409366e-09 0.038146634 0.09884792 0.111780405 0.016026149 0.06309504 0.09333008
-0.12305105 -0.10895925 -0.13633285 0.19133027 0.026579214 0.07813703 0.1473377 0.18567641
0.040577345 0.06513025 0.018710958 -0.37654895 0.011862756 -1.3213409e-07 -3.1405748e-06 0.03569638
6.39568e-32 1.1946e-41 0.12333798 0.118134186 0.14255367 0.14479645 0.10428791 0.09128921
-0.17973545 3.077947e-13 0.07371056 1.1260616e-06 0.0014815076 -0.45458764 0.049294233 0.09456984
0.17690323 -0.008909315 0.03498091 -0.17169867 0.05712203 -8.30551e-40 -0.037537694 0.0700716
0.20654814 -0.00019116812 -0.092900544 0.0010129893 0.15178935 0.09031737 -1.29053e-39 -5.01397e-40
00000000: 8aae eebc b191 6dbc cae7 e23a 677c 25bd
00000010: c7dd 41bd 2cc4 263c 91d9 a7bb be03 ccbb
00000020: 62cc aebb 7fe8 9ebc a771 43bc 711c c2bc
00000030: f8c9 f3bb 956d e1bb 6dbf d4bc 3e7c acba
00000040: fc6b 59bd 81d5 76bb d9ba a03b 4e01 a1bb
00000050: 4532 85bc ea8c a8bc d530 c6bc 1aee 39bc
00000060: dbf0 87bc 98fb 4cbb 8e6f 9227 e804 1cb8
00000070: 352c bfbb 61a3 05bd c29d 03bc 683b 9dbc
00000080: 20fa 48bc c161 d5bc ee9a 823c 4d76 95bc
00000090: 61a1 28bc ef72 aebb 4d3d 8b3b 10a6 da3a
000000a0: 1da1 8bbd 3458 c2bc 5846 feba 846d 01bc
000000b0: 984e ebbb 16b9 84bb 0fe6 45bc e187 9fba
000000c0: e470 45bc 3e9a e6bc f0fd 90bc bc2d 21b7
000000d0: c48b d63b 12d0 92bc a371 b6bb a520 603b
000000e0: 9700 08bb 7cb9 8ebc 83d3 69bc 25ac 93bb
000000f0: 6834 9dbb 7ff7 0cbc 3a4a 2fba b21f 55bc
00000100: 9357 18bd 1e4a 08bc c375 e9bb 129f 04b2
00000110: 1325 0cbc f5e7 06bc 1ee3 0d3c d4aa d53b
00000120: 0276 21bb baee 34bc cf41 3bbd 4de9 05bd
00000130: e988 38bc 7e53 f4bb d5a3 e2bb b9d7 c2bc
00000140: 5ef5 1abc 8c94 01bc c466 ca3b 5c2e 3dbc
00000150: d440 1a3c 2f0a e238 fb51 9dbc 2d58 6f3b
00000160: aefb c2ba a48b edbc 74f9 d1ba b551 a0bb
00000170: d97e cfbc d000 1bbc 0c44 debb 12b5 ccbb
00000180: b3d4 50bc 4d05 0fba 6785 1dbd 5a18 8d3c
00000190: fbcd 1db7 a542 193c 891a 96bc 2251 a43a
000001a0: f3c4 a63b 3eaf a8bb 31b1 c8bb 9ef8 b4bc
000001b0: 7b49 0ebc 86e2 c8bb 9c7a a5ba 0aea 8bbc
000001c0: df65 8a3c 833a 0fbc 1035 803b 6ebb 863b
000001d0: 8046 c23b 1fd4 4cbc aa39 4f3b a223 00bc
000001e0: 1a0c 15bd c533 d9bb 6ab3 b7b9 9d91 dc3a
000001f0: d12d 03bd d8a5 7a3b 65fa 5fbc 3943 06bc
00000200: f027 703d 38d8 033e 0242 953d 88cc c33d
00000210: 460b 8c3d ed13 35bf e6ce 8bbe 0494 af3b
00000220: 509e f6be 5b5c bf3d a66a c230 289c 1ebe
00000230: ea80 0888 325e cd3d 5af8 253e f1aa 1b3d
00000240: c938 0b3d 7450 123e 9abb 743d c7e4 8cbe
00000250: 67c0 973d 17ea 893d b12f 1b3d c924 b707
00000260: c2d9 2f3e e03b 623d cee6 273b f25f 1707
00000270: 1386 cabc 9d04 4e3e dbc3 7dbe 66f6 c935
00000280: 7c11 6abe c2b1 dd3c b0a5 34bf 4e87 9c3e
00000290: 1bca a93b b181 1418 8b71 233e 258f 8cbc
000002a0: ddbe 2abe 4a52 123e ac01 ee3e 6bd5 b937
000002b0: d040 55be a830 c23d 065f 5589 c59f 27bd
000002c0: bdd8 54bd 1c5a 0a3f 09dd b73d 8ac3 c6bd
000002d0: ec38 583c a9d3 97bc 23b2 bbbe b236 f73c
000002e0: 79dc a3bc 5e08 863d 5cae afaf 3672 cfbe
000002f0: 8167 943d 2227 13bf a2e5 5ebd 231c 1332
00000300: 0137 953d 10b8 0dbf 3377 e03c 3b72 b33c
00000310: a092 dc8d 3977 a0be 5766 7b3d afdd 6c3d
00000320: a5c8 5b3d 0492 2531 a53f 1c3d c770 ca3d
00000330: 20ed e43d 4549 833c f937 813d d723 bf3d
00000340: 3002 fcbd 0726 dfbd d79a 0bbe 15ec 433e
00000350: a7bc d93c 4f06 a03d b2df 163e f521 3e3e
00000360: 6e34 263d 0263 853d b947 993c 06cb c0be
00000370: 015c 423c bee0 0db4 aac2 52b6 5e36 123d
00000380: 960a a60b 4d21 0000 9f98 fc3d 56f0 f13d
00000390: 97f9 113e 8545 143e e694 d53d d6f5 ba3d
000003a0: 920c 38be e445 ad2a 90f5 963d 2f23 9735
000003b0: 252f c23a b6bf e8be c0e8 493d d5ad c13d
000003c0: 1f26 353e 60f8 11bc 2548 0f3d c7d1 2fbe
000003d0: caf8 693d 3d0b 0980 20c1 19bd b381 8f3d
000003e0: 5b81 533e 4d74 48b9 a442 bebd 48c6 843a
000003f0: ab6e 1b3e 50f8 b83d 790d 0e80 b175 0580

bias f4 [128]
-3.215228e-07 -0.11805507 -0.5787076 -0.077784516 0.032283638 -0.022298325 0.2046404 0.35073608
0.34828532 -0.001399474 -0.006496715 -0.009526253 -1.070087e-06 -0.49402472 0.23469119 0.38704544
-0.15344988 0.28442827 0.22866984 -0.040362403 0.35552102 -0.0006776073 2.0119053e-06 -0.7431569
0.08230189 0.42876264 0.5362734 0.37275422 0.22957164 -0.48594728 -0.082269855 -0.2598067
0.5255833 -0.60059637 -0.0077060857 0.42793775 0.46976757 0.00039819925 -0.0018101162 -0.011736294
0.15713595 0.15534997 -0.5147591 -0.6537727 -5.5057768e-05 0.30551618 -3.0854444e-12 0.2193602
0.422083 -0.0033270747 0.26332146 0.37520036 0.113908805 0.28310177 0.3326647 -0.29296595
0.33561048 0.39297128 -1.0839916e-08 -0.44716358 0.38198736 0.3009444 -3.1187104e-05 0.35820854
-0.43474692 0.3744043 0.35136408 0.21369845 0.29236525 0.047484554 -0.05630409 0.42165276
0.35696727 0.47337553 0.42568707 0.26422912 -0.1770488 0.22051372 0.37334624 -0.6006996
0.34409282 0.38091326 -0.01035206 0.41813442 0.009118965 -0.00020059616 -1.4348075e-06 -0.04060012
-1.1841719e-06 0.38378188 -0.11503488 0.37342048 0.3384792 0.15912887 0.34420073 0.35686746
0.35277516 0.4483527 0.010546923 0.27721682 -0.09169721 0.2679435 0.29798946 -0.0066840365
-0.32183397 -0.089574255 0.24218413 -0.00033802103 0.2913164 -1.053273e-09 -0.00035951787 0.41161588
0.3597387 0.3473787 -0.04260556 -0.728571 -5.7603085e-14 0.2565283 -0.0053715915 -6.483486e-05
-0.17407438 0.43249843 0.45990914 0.010103265 0.50862056 0.21984383 -0.00013268874 0.42173615
00000000: c29d acb4 dbc6 f1bd 2e26 14bf 7d4d 9fbd
00000010: d93b 043d faaa b6bc 418d 513e ae93 b33e
00000020: 7452 b23e 8e6e b7ba 65e2 d4bb 0014 1cbc
00000030: e99f 8fb5 cff0 fcbe e352 703e d22a c63e
00000040: f721 1dbe 95a0 913e 6d28 6a3e 0c53 25bd
00000050: da06 b63e 75a1 31ba 4504 0736 883f 3ebf
00000060: e58d a83d c786 db3e 3749 093f a4d9 be3e
00000070: d414 6b3e 15ce f8be 197d a8bd 6205 85be
00000080: a18c 063f afc0 19bf 5583 fcbb a81a db3e
00000090: 6085 f03e 66c5 d039 6c41 edba 9649 40bc
000000a0: 3fe8 203e 1014 1f3e 41c7 03bf a65d 27bf
000000b0: d4ed 66b8 9e6c 9c3e 6d1e 59ac f69f 603e
000000c0: 431b d83e 0d0b 5abb 12d2 863e 431a c03e
000000d0: 0549 e93d b7f2 903e 0753 aa3e a2ff 95be
000000e0: 23d5 ab3e 8833 c93e 743a 3ab2 a0f2 e4be
000000f0: d993 c33e 6215 9a3e e6ce 02b8 1c67 b73e
00000100: 2697 debe ecb1 bf3e fee5 b33e c4d3 5a3e
00000110: e6b0 953e 2a7f 423d 1e9f 66bd dfe2 d73e
00000120: 6ac4 b63e 475e f23e a8f3 d93e 0a49 873e
00000130: 484c 35be 59ce 613e 3d27 bf3e 73c7 19bf
00000140: ef2c b03e 1007 c33e b09b 29bc b715 d63e
00000150: b667 153c 1f57 52b9 9c93 c0b5 504c 26bd
00000160: d6ef 9eb5 0f7f c43e 6897 ebbd f830 bf3e
00000170: 254d ad3e aef2 223e 143b b03e 55b7 b63e
00000180: f29e b43e 7c8e e53e 00cd 2c3c 5def 8d3e
00000190: bfcb bbbd e42f 893e 1392 983e c305 dbbb
000001a0: 6cc7 a4be b572 b7bd 1eff 773e 6a38 b1b9
000001b0: 6c27 953e c0c2 90b0 ac7d bcb9 51bf d23e
000001c0: ac2f b83e 9fdb b13e 2b83 2ebd a183 3abf
000001d0: ebb5 81a9 ad57 833e 2d04 b0bb f3f7 87b8
000001e0: 8e40 32be 6f70 dd3e 3679 eb3e 2a88 253c
000001f0: f534 023f be1e 613e 5d22 0bb9 cded d73e
