models/autoencoder_sw_100k_mean_n.pt (torch, 454229 bytes, 12 tensors)

weight f4 [128, 2]
0	0xbd1e105e	-0.038589828
1	0xbece8571	-0.40336183
2	0x3f1f61fe	0.622589
3	0xbea65322	-0.324853
4	0xbdfdfe7b	-0.12402054
5	0xbd9a1eb4	-0.075253874
6	0xbf09564d	-0.5364731
7	0x3e837075	0.25671735
8	0xbe96b974	-0.29438365
9	0xbf93b667	-1.154004
10	0x3ef8da49	0.48604038
11	0x3f048732	0.5176879
12	0x3ec52d23	0.38511
13	0x3f32f4b7	0.69904655
14	0xbd483fbb	-0.048888903
15	0xbeaa9df4	-0.33323634
16	0x3e459bc1	0.19297697
17	0xbf36629a	-0.71244204
18	0xbe7476ce	-0.23873445
19	0xbe0c0f9b	-0.13677828
20	0x3f199d66	0.60005796
21	0x3e19b987	0.1501218
22	0x3f605747	0.87633175
23	0xbf198b4b	-0.5997817
24	0x3f2c198b	0.67226475
25	0xbed56ae5	-0.41683117
26	0xbf1168ee	-0.56800735
27	0x3f01af1f	0.5065784
28	0x3f29a8e1	0.66273314
29	0x3f5033db	0.81329125
30	0x3f8c8366	1.09776
31	0xbf249108	-0.642838
32	0xbeeea095	-0.4660689
33	0x3e3ef9e4	0.18650013
34	0x3ef2886d	0.4736971
35	0xbf053bb2	-0.5204421
36	0x3eac9ec3	0.33714876
37	0xbf3993f3	-0.7249138
38	0xbeab9e72	-0.33519322
39	0xbf6a4b88	-0.915215
40	0xbedfe236	-0.43727273
41	0xbbcb9e81	-0.0062139635
42	0x3d58454f	0.052800473
43	0xbe9d2db4	-0.3069893
44	0xbdd64ce4	-0.104638845
45	0x3dbc5f3a	0.091978505
46	0xbf34c379	-0.7061077
47	0x3edbb77a	0.4291342
48	0x3d27949e	0.040913217
49	0xbf0ec6d2	-0.55772126
50	0x3e96d8aa	0.29462177
51	0x3f0aa55f	0.54158586
52	0xbe44d8da	-0.19223347
53	0x3d6145c5	0.054998178
54	0x3c212956	0.009836515
55	0x3e89251e	0.2678613
56	0x3c804cba	0.015661586
57	0x3dd3c078	0.10339445
58	0x3e9b4b06	0.30330676
59	0xbef91b9e	-0.48653883
60	0xbe42413b	-0.18970196
61	0xbe32bdf5	-0.17455275
62	0xbf2d9b00	-0.67814636
63	0xbf454a89	-0.77066857
64	0xbf4c165b	-0.7972161
65	0x3e93524e	0.2877373
66	0x3e361fdc	0.17785591
67	0x3e76ce12	0.24102047
68	0x3eaabaed	0.33345738
69	0x3d380c0d	0.044933368
70	0xbed6ef06	-0.41979235
71	0xbf02df52	-0.5112201
72	0xbdfd666e	-0.123730525
73	0xbeb4d4ff	-0.35318753
74	0xbf44fed6	-0.7695135
75	0x3f37d5d8	0.71810675
76	0xbe82aa50	-0.25520563
77	0x3f1ee65c	0.6207025
78	0x3e564564	0.20924908
79	0xbea4b305	-0.3216783
80	0x3d8f39cc	0.06993446
81	0x3e96ddf2	0.29466206
82	0xba9a37a6	-0.0011765852
83	0x3d7e6e0f	0.06211668
84	0x3f203e05	0.62594634
85	0x3f32e67d	0.6988295
86	0x3f15de13	0.58541983
87	0xbe6cea28	-0.23136199
88	0xbe8d19f5	-0.27558866
89	0xbf904feb	-1.1274389
90	0xbeabe935	-0.3357636
91	0x3e4f92e2	0.20270875
92	0x3f4af3c8	0.7927823
93	0xbf233f82	-0.6376878
94	0xbe2dddb2	-0.16979101
95	0xbe602fce	-0.21893236
96	0xbf6ae25c	-0.91751647
97	0x3f1b3d6d	0.60640603
98	0x3e14bdf2	0.14525583
99	0xbdb9e79a	-0.090773776
100	0x3db52882	0.08845617
101	0xbdf42f2d	-0.119230606
102	0xbf5591a2	-0.83425343
103	0x3f29eec2	0.6637994
104	0x3ef2a446	0.47390956
105	0xbe22d86a	-0.15902868
106	0xbf312901	-0.6920319
107	0xbe97e047	-0.29663298
108	0xbe3d4209	-0.18482222
109	0x3e8939ff	0.2680206
110	0xbe4d771e	-0.20064971
111	0x3eec3353	0.46132907
112	0xbeb4eb9e	-0.35336012
113	0x3d07024b	0.03296117
114	0x3eb86aaa	0.36018878
115	0xbeabe60b	-0.33573946
116	0xbf67c5ea	-0.9053637
117	0x3ec7ad8d	0.38999596
118	0x3efdf13a	0.49598104
119	0x3edd8a93	0.43269786
120	0xbf1ac677	-0.60459083
121	0xbf723c88	-0.94623613
122	0x3e6d23b4	0.23158151
123	0xbdd630a3	-0.104584955
124	0x3dde5983	0.10856917
125	0x3ebc7ca4	0.36813843
126	0xbf2218e7	-0.6331925
127	0xbdff9600	-0.12479782
128	0xbd1d6307	-0.038424518
129	0xbdda3cce	-0.10656129
130	0x3ec42720	0.383111
131	0x3de4f914	0.111803204
132	0xbe9d4889	-0.30719402
133	0xbd58fe23	-0.05297674
134	0xbed586d6	-0.41704434
135	0x3e85b7db	0.26116833
136	0xbf0726ac	-0.52793384
137	0x3e43600c	0.19079608
138	0x3f45f49d	0.77326375
139	0x3eb9439a	0.36184388
140	0xbeeb4971	-0.4595447
141	0xbed5bb95	-0.41744676
142	0xbe6e11fb	-0.23249047
143	0xbe8f5965	-0.2799789
144	0xbf06104f	-0.52368635
145	0x3ea250d0	0.3170228
146	0xbf1130f9	-0.5671535
147	0x3e6b13a5	0.22956713
148	0x3f0ed7f5	0.55798274
149	0xbf2f04a0	-0.6836643
150	0xbed482c9	-0.4150603
151	0x3dfa7e00	0.12231064
152	0xbeb18f19	-0.34679487
153	0xbeee74a3	-0.46573362
154	0x3e37d74b	0.17953221
155	0x3e796579	0.24355115
156	0xbe4a4aa0	-0.1975503
157	0x3da4e3db	0.080512725
158	0xbd6cc166	-0.057801627
159	0xbf1babf1	-0.60809237
160	0xbe73c1f2	-0.23804453
161	0xbc7c4665	-0.015397643
162	0xbeea7b07	-0.45796987
163	0xbea64960	-0.32477856
164	0xbd892948	-0.06697327
165	0xbed93f8b	-0.42431292
166	0xbf03f4c9	-0.5154539
167	0x3e878b7c	0.26473606
168	0x3ed3d563	0.4137374
169	0xbf131604	-0.5745547
170	0xbf85ca23	-1.0452312
171	0x3f31d65c	0.6946771
172	0xbe4f4628	-0.20241606
173	0x3d3a47be	0.045478575
174	0xbf0a4a55	-0.5401967
175	0xbe0a79ea	-0.13523069
176	0xbf22ba1a	-0.6356522
177	0xbdbc12f7	-0.09183305
178	0xbeb40d2a	-0.35166293
179	0xbef1f145	-0.47254387
180	0xbf2dce34	-0.67892766
181	0x3ef6f059	0.48230246
182	0xbed88e7b	-0.42296204
183	0x3ec2e49b	0.38065037
184	0xbf2530b9	-0.6452747
185	0xbf6421da	-0.89114153
186	0xbf030b7c	-0.511894
187	0x3f2622d2	0.6489688
188	0xbf1e4415	-0.61822635
189	0x3d637533	0.05553169
190	0x3f17c80f	0.5928964
191	0x3f1fb729	0.62388855
192	0xbea4cbfa	-0.32186872
193	0x3e214088	0.15747273
194	0xbe1e3c1f	-0.15452622
195	0x3e8dd4a7	0.27701303
196	0x3e9d9900	0.30780792
197	0xbed55f2b	-0.4167417
198	0xbd2082a0	-0.039187074
199	0xbe0fc781	-0.14040948
200	0xbf20969e	-0.62729824
201	0x3f1ce8db	0.6129281
202	0x3a9c6b1a	0.0011933774
203	0x3b0d019d	0.0021515854
204	0xbd21b0a4	-0.0394751
205	0x3eaeffae	0.34179443
206	0xbf3aecf7	-0.7301783
207	0x3e0ba1d9	0.13635959
208	0x3f2ac15d	0.667013
209	0xbd4e1528	-0.050313145
210	0xbf346e8d	-0.7048119
211	0x3f00d103	0.50318927
212	0x3f34d003	0.706299
213	0xbf22a6eb	-0.63535947
214	0x3eca733b	0.3954104
215	0x3f16460b	0.5870063
216	0x3bb7a314	0.005604157
217	0x3bd03d38	0.006354954
218	0xbdd5dbc0	-0.104423046
219	0xbe43cd32	-0.19121245
220	0xbe2375ef	-0.15962957
221	0x3dc5993b	0.09648367
222	0x3ea391f6	0.31947297
223	0xbf1f7af4	-0.62296987
224	0xbeb8e448	-0.36111665
225	0x3d885bad	0.06658111
226	0x3f305ef6	0.688949
227	0xbecc7fce	-0.39941257
228	0x3f0417fd	0.51599103
229	0xbeee52d2	-0.46547562
230	0xbea1c60f	-0.3159642
231	0xbd680cb4	-0.05665274
232	0x3f06e7d5	0.526975
233	0x3f457830	0.77136517
234	0x3ea8b9f0	0.3295436
235	0x3eabc0b6	0.33545464
236	0xbf834a01	-1.0256959
237	0x3eada667	0.33916017
238	0xbdd72919	-0.10505886
239	0x3e2cb467	0.16865693
240	0x3cb4e759	0.022082971
241	0xbf0a7399	-0.5408264
242	0x3f1d0c23	0.61346644
243	0xbe9dadbf	-0.3079662
244	0xbf26f8c7	-0.65223354
245	0x3ed50957	0.41608688
246	0xbef552ad	-0.4791464
247	0xbf75a473	-0.95954055
248	0x3f0b4b41	0.54411703
249	0x3e13dfeb	0.14440887
250	0x3f053d06	0.5204624
251	0x3f04aacd	0.5182312
252	0xbf115ce5	-0.5678237
253	0x3ec97139	0.39344195
254	0x3ed1a8b2	0.40949017
255	0xbea10690	-0.3145032

bias f4 [128]
0	0x3f36313b	0.7116887
1	0xbe685b65	-0.22691114
2	0x3e1b9575	0.15193732
3	0x3e97e062	0.29663378
4	0xbea48257	-0.3213069
5	0x3e8c37ca	0.27386314
6	0xbf3bf4a1	-0.7342015
7	0x3e9e0d88	0.308697
8	0x3ee76fb1	0.452024
9	0xbe8ea9a3	-0.27863798
10	0xbf1a060b	-0.6016547
11	0xbe630df5	-0.22173293
12	0xbe47c61f	-0.19509171
13	0xbcd2772c	-0.025691591
14	0xbeeb1978	-0.4591787
15	0xbecae186	-0.39625186
16	0x3e34551e	0.17610595
17	0x3edfdb4b	0.43721995
18	0x3e98f89d	0.29877177
19	0xbf14d576	-0.58138216
20	0x3e4d99bf	0.2007818
21	0x3f1070ed	0.5642231
22	0x3de43b5e	0.11144136
23	0x3eef945b	0.46792874
24	0x3ecf8079	0.40527704
25	0x3e79ae54	0.24382907
26	0x3dc0396f	0.093859546
27	0xbf07b5f3	-0.5301201
28	0xbdcaf0a0	-0.09909177
29	0x3f24ef99	0.64428097
30	0x3edb7c7b	0.4286841
31	0xbf197b1f	-0.5995349
32	0x3ede26a6	0.4338886
33	0xbd4877fe	-0.04894256
34	0xbea2e038	-0.3181169
35	0x3f229019	0.63501126
36	0x3eb0cec8	0.34532762
37	0xbede61b7	-0.43433926
38	0xbec7be75	-0.39012495
39	0x3de26f4b	0.11056384
40	0xbe56bbc1	-0.2097006
41	0x3e63ea73	0.22257404
42	0xbeb07a6b	-0.34468397
43	0xbe62b8c1	-0.2214079
44	0xbee5c5f7	-0.44877598
45	0x3d952267	0.07281952
46	0xbdff6f8b	-0.12472447
47	0x3e900ab0	0.28133154
48	0xbe89a71f	-0.26885316
49	0xbdb1a5cc	-0.08674201
50	0x3cf45870	0.029827327
51	0x3e207233	0.15668564
52	0xbe49cee4	-0.19707829
53	0x3f0f6c52	0.5602466
54	0xbf2ca870	-0.67444515
55	0xbe29b172	-0.16571596
56	0x3ebbddf9	0.3669279
57	0xbafbaf77	-0.0019202073
58	0x3e7ab483	0.24482922
59	0x3e8d1680	0.2755623
60	0xbeb9321c	-0.36171043
61	0xbdbca93a	-0.09211965
62	0xbf2b2a8e	-0.6686181
63	0x3edd2d45	0.431986
64	0x3de7ba20	0.113147974
65	0xbf0440a4	-0.51661134
66	0x3eea6e4f	0.45787284
67	0x3eb08ab2	0.34480816
68	0x3e6577ea	0.22409025
69	0xbeced877	-0.40399525
70	0x3f031811	0.512086
71	0x3f0472a8	0.5173745
72	0x3de25ed4	0.11053243
73	0x3e1174b9	0.14204682
74	0x3f0eb076	0.5573801
75	0x3e6da38c	0.2320692
76	0x3f25d3c1	0.64776236
77	0x3d0b365d	0.03398739
78	0x3d9ab758	0.07554501
79	0x3f037701	0.5135346
80	0xbf1f51dc	-0.6223428
81	0x3ee8e7f2	0.4548946
82	0x3ef94253	0.48683414
83	0x3ec95412	0.39321953
84	0x3e0d853c	0.13820356
85	0xbe907f55	-0.28222147
86	0x3df0e35c	0.11762115
87	0x3db77f68	0.08959848
88	0x3f0214c0	0.5081291
89	0x3efd1ce8	0.49436116
90	0xbe7fc1d0	-0.24976277
91	0xbca40c78	-0.020025477
92	0xbea237e3	-0.31683263
93	0xbe867c8c	-0.26266897
94	0x3e2e7f64	0.17040783
95	0xbf1ad98d	-0.60488206
96	0x3dda90e0	0.10672164
97	0xbdfbe85b	-0.12300178
98	0x3ea52fa6	0.32262915
99	0x3e7b8e34	0.24565965
100	0xbeafd26f	-0.34340236
101	0xbb0de49a	-0.002165115
102	0xbe250c5e	-0.16117999
103	0x3f14370c	0.57896495
104	0xbf0b4ea1	-0.54416853
105	0x3e029339	0.12751473
106	0x3d9aa523	0.075510286
107	0x3ec48d15	0.38388887
108	0xbc1f4ddc	-0.009723153
109	0x3efcf294	0.49403822
110	0x3d178f37	0.037001815
111	0x3ec81aa1	0.39082816
112	0x3e5a4b80	0.21317863
113	0xbe012282	-0.1261082
114	0x3ede7376	0.43447465
115	0x3ea76b7d	0.32699195
116	0xbe3a5ea2	-0.18200162
117	0xbe844c2e	-0.2583937
118	0x3ca85548	0.020548478
119	0xbd748197	-0.0596939
120	0x3f10d8ab	0.5658061
121	0xbe6f55c3	-0.23372559
122	0x3e63a9b0	0.222327
123	0xbf07592c	-0.5287044
124	0xbe685918	-0.22690237
125	0xbeb38767	-0.3506424
126	0x3d9a0ccb	0.07521971
127	0xbd4961f3	-0.049165677

weight f4 [128, 128]
0	0xbdb8fb3c	-0.09032294
1	0xbde900e0	-0.1137712
2	0xbd917084	-0.07101539
3	0x3d9ba63a	0.076000646
4	0xbd8198f9	-0.06328005
5	0x3e3743df	0.17896985
6	0x3f2df08e	0.6794518
7	0xbe0f22f4	-0.13978177
8	0xbed47b62	-0.41500384
9	0xbdfa11de	-0.12210439
10	0x3d0b4fa8	0.034011513
11	0xbe3b66e0	-0.18300962
12	0xbd866feb	-0.065643154
13	0x3dcd7ae7	0.100332074
14	0x3eb0b0e0	0.34509945
15	0xbe572c91	-0.21013094
16	0xbd031246	-0.03199985
17	0xbcf065d5	-0.029345432
18	0xbe97fd63	-0.29685506
19	0xbcaaecea	-0.020864923
20	0xbe209fe5	-0.15685995
21	0x3c8ba591	0.017046722
22	0x3d6d2a51	0.057901684
23	0x3da036ea	0.07822974
24	0xbec00bcd	-0.37509003
25	0x3e2ed03d	0.17071624
26	0xbd51bd1d	-0.051205743
27	0xbdb97498	-0.090554416
28	0xbc3bc1c1	-0.011459769
29	0x3d64c676	0.05585333
30	0x3b7b6be8	0.0038363878
31	0xbdffc8de	-0.12489484
32	0xbe468be4	-0.19389302
33	0x3d041ce6	0.032254122
34	0x3d5201aa	0.05127112
35	0xbf05ca56	-0.52261865
36	0xbd0c0a36	-0.034189425
37	0xbe306994	-0.17227775
38	0x3d10f499	0.035389517
39	0x3d9e4003	0.07727053
40	0x3e29a66f	0.16567396
41	0x3d0b101b	0.033950906
42	0x3ea66f28	0.3250668
43	0x3d150f15	0.036391336
44	0xbda25da5	-0.079280175
45	0xbd163df8	-0.03668019
46	0xbdac9476	-0.08426754
47	0xbe2a80de	-0.16650721
48	0xbdb37a11	-0.08763517
49	0xbdf6069e	-0.12012981
50	0xbcb8d08d	-0.022560382
51	0x3d694f53	0.056960415
52	0x3c710b11	0.014712111
53	0xbed81221	-0.4220133
54	0xbdb279c3	-0.087146305
55	0x3e233a93	0.15940313
56	0xbc867d50	-0.016417176
57	0x3d2b0afa	0.041758515
58	0xbee18523	-0.44046888
59	0x3d6273ee	0.05528634
60	0x3ada0fad	0.0016636752
61	0xbd2de7e8	-0.04245749
62	0xbd664cbf	-0.056225535
63	0xbeadda35	-0.3395554
64	0x3d8514e7	0.064981274
65	0xbb9d1ca7	-0.0047946754
66	0x3dba07e6	0.09083538
67	0x3e29ea9e	0.16593406
68	0x3dd0fb71	0.10204209
69	0x3e933828	0.2875378
70	0xbe61d99b	-0.22055666
71	0xbdde7268	-0.10861665
72	0x3d89f0f5	0.06735412
73	0xbe78740e	-0.24263021
74	0xbdac57e1	-0.08415199
75	0x3d2f13ad	0.042743374
76	0xbed81874	-0.42206156
77	0x3e100211	0.14063288
78	0x3c674b8c	0.014117133
79	0xbea39e12	-0.31956536
80	0xbd291955	-0.041283924
81	0xbe83ceac	-0.25743616
82	0xbe4ca0cd	-0.19983216
83	0x3e091db5	0.13390239
84	0xbe4a71f8	-0.19770038
85	0xbdf1fe9a	-0.118161395
86	0x3c59d105	0.013294463
87	0xbde4eebd	-0.11178348
88	0xbefe75b7	-0.49699184
89	0xbe80b2e6	-0.2513649
90	0xbe23837e	-0.15968129
91	0x3c620228	0.013794459
92	0xbdb6c55e	-0.089243636
93	0x3c47daf1	0.012198196
94	0xbd1e2352	-0.038607903
95	0x3ee893c1	0.45425227
96	0xbd3959cf	-0.045251664
97	0x3dd0dd4e	0.101984605
98	0x3d8d2fcd	0.06893883
99	0x3ce72053	0.028213656
100	0xbdcd8789	-0.10035617
101	0xbd99c20f	-0.07507717
102	0x3e4f7907	0.20261012
103	0xbd66ab90	-0.05631596
104	0xbe0bba7e	-0.1364536
105	0xbd2b1563	-0.041768443
106	0xbe8cbea8	-0.2748921
107	0x3e4d352c	0.20039815
108	0x3cf6581e	0.030071314
109	0x3ddc88ec	0.10768303
110	0x3d2b27c3	0.041785967
111	0xbdf5a0b8	-0.11993545
112	0xbc5cec55	-0.01348408
113	0x3ce2c07e	0.027679678
114	0xbc837aa6	-0.016049694
115	0xbd48663b	-0.04892562
116	0x3e714030	0.23559642
117	0x3e3b8ae8	0.18314707
118	0xbe59bc10	-0.21263146
119	0x3ddeb937	0.10875171
120	0xbe31e6bc	-0.17373174
121	0xbdeb42ef	-0.11487376
122	0x3e0c73d3	0.13716058
123	0xbde8e2c9	-0.11371381
124	0x3e49552d	0.19661398
125	0x3e68d095	0.22735818
126	0x3ce60453	0.028078234
127	0x3c73337a	0.014843816
128	0xbcbbda1a	-0.022931147
129	0x3d8174e8	0.06321126
130	0xbe4f196a	-0.20224538
131	0xbc720c7e	-0.014773486
132	0xbda88169	-0.08227808
133	0x3d878141	0.0661645
134	0xbeeddb0e	-0.46456188
135	0xbe403a2d	-0.18772192
136	0xbde6a4ba	-0.11261888
137	0xbd433ad5	-0.04766353
138	0xbdb65cbc	-0.089044064
139	0xbdeae1f9	-0.11468882
140	0x3c06c25a	0.008225048
141	0x3d2d430e	0.042300276
142	0xbdc70ae5	-0.09718875
143	0x3d009061	0.03138769
144	0xbe08888b	-0.13333337
145	0x3d7486e3	0.05969895
146	0xbe056999	-0.13028564
147	0xbdc5890a	-0.09645279
148	0xbce72a8e	-0.028218534
149	0xbb77db8a	-0.0037820064
150	0x3d0ada24	0.03389944
151	0xbcb3ae64	-0.021933742
152	0xbd3d127d	-0.04616021
153	0xbcab2f0e	-0.02089646
154	0xbdc335b9	-0.09531731
155	0x3c83d12c	0.016090952
156	0xbd07c0f8	-0.033143014
157	0x3d130b0b	0.035899203
158	0xbd0c1e30	-0.034208477
159	0xbdf3c177	-0.11902135
160	0x3e4ab6db	0.19796316
161	0xbd7b2b6a	-0.0613207
162	0xbbb0fd98	-0.0054013245
163	0xbda631e8	-0.081149876
164	0xbc3cab71	-0.011515484
165	0x3d575ae9	0.052576933
166	0xbc94fdbb	-0.018187394
167	0xbdb738f7	-0.08946412
168	0x3d550881	0.052010063
169	0xbca1fccc	-0.019773863
170	0xbd5a2d83	-0.05326606
171	0x3d5f6198	0.054536432
172	0xbd75ed31	-0.060040656
173	0xbd25332b	-0.040332
174	0xbdb43b3b	-0.0880036
175	0xbdcdbb61	-0.10045505
176	0xbd3e2480	-0.046421528
177	0x3cef4ce3	0.029211467
178	0x3c3503a2	0.011048229
179	0x3d8b4e66	0.06802063
180	0xbdc0d4f3	-0.09415617
181	0xbd344e9b	-0.044020277
182	0xbc7316af	-0.014836951
183	0x3cfee811	0.031116517
184	0x3d1a96cc	0.037741467
185	0x3c7b4c9b	0.015338088
186	0x3e8f1e19	0.2795265
187	0x3c40c1bd	0.011764941
188	0xbe21791b	-0.15768854
189	0x3db226c6	0.08698802
190	0xbbdc52dd	-0.0067237453
191	0x3c8d5460	0.017252147
192	0xbb0045d0	-0.0019572861
193	0xbdcb8256	-0.09936969
194	0xbd21fa37	-0.039545264
195	0x3d7aa6f3	0.06119437
196	0xbe193e94	-0.14965278
197	0xbe26a751	-0.16274764
198	0x3cf77082	0.030205015
199	0x3cb6ab44	0.022298463
200	0xbd9b1c1b	-0.0757372
201	0x3da01a94	0.078175694
202	0xbccac352	-0.02475134
203	0xbcd60f24	-0.026130266
204	0xbbb101dc	-0.005401833
205	0xbdc84679	-0.097790666
206	0xbde8b8e5	-0.11363391
207	0xbd9f00ce	-0.07763825
208	0x3d152500	0.03641224
209	0xbcd1a80a	-0.025592823
210	0x3d7842d3	0.060610604
211	0xbd1c78fb	-0.038201313
212	0xbd9a210c	-0.075258344
213	0xbb8acafe	-0.0042356243
214	0x3bada9c7	0.00529978
215	0x3be7dadb	0.00707565
216	0x3e316224	0.17322594
217	0x3c5f94b2	0.013646292
218	0x3c595e91	0.013267175
219	0xbc920e43	-0.017829066
220	0xbdfb3dec	-0.1226767
221	0x3e00fb1c	0.1259579
222	0xbd8148f4	-0.06312743
223	0xbe7fe520	-0.24989748
224	0x3b993896	0.004675935
225	0x3cbd856d	0.023134911
226	0x3c295d10	0.010337129
227	0xbd398e14	-0.045301512
228	0x3c4f1b7b	0.012640829
229	0xbc548211	-0.012970463
230	0x3d50232a	0.050814785
231	0x3e11e864	0.14248806
232	0xbc9d0bd0	-0.019170672
233	0x3dfb941c	0.12284109
234	0xbdab2163	-0.083559774
235	0xbcdc8ec2	-0.026923541
236	0x3c0342e0	0.00801155
237	0x3da4809b	0.08032342
238	0xbdbce6aa	-0.09223683
239	0x3d8df012	0.069305554
240	0xbd8ef6f7	-0.069806986
241	0xbdb61df0	-0.08892429
242	0x3d819ff4	0.06329337
243	0xbd23a4be	-0.039952032
244	0xbe003357	-0.12519585
245	0xbdde3647	-0.10850196
246	0xbd348333	-0.044070434
247	0x3d8d74f7	0.06907075
248	0x3d734df2	0.059400506
249	0xbcba0eb3	-0.022712087
250	0xbd508d07	-0.050915744
251	0xbc4697a7	-0.012121118
252	0x3ca105ca	0.01965608
253	0xbe33cff1	-0.17559792
254	0x3d28194c	0.04103975
255	0xbcc052fd	-0.023477072

bias f4 [128]
0	0x3dde41a4	0.10852364
1	0x3d0092ec	0.031390116
2	0xbd133492	-0.035938807
3	0xbd3f20a3	-0.046661984
4	0x3dc34360	0.09534335
5	0x3dea6fde	0.11447118
6	0x3d53a7b8	0.05167362
7	0xbe00f2fc	-0.12592691
8	0x3d44a85b	0.04801212
9	0x3dd200ff	0.10254096
10	0xbe4277e6	-0.1899105
11	0xbd159fe9	-0.036529455
12	0x3ddd4d80	0.108057976
13	0x3d9c0c20	0.076195
14	0xbd8b562a	-0.06803544
15	0x3dc163d7	0.09442871
16	0x3df1d17b	0.11807533
17	0x3db36db3	0.08761158
18	0x3dd8cf91	0.10586465
19	0x3d966dd8	0.0734517
20	0x3e14cc36	0.14531025
21	0xbde2264b	-0.1104246
22	0xbd485835	-0.048912246
23	0xbd9dd989	-0.07707507
24	0x3d9af49e	0.07566188
25	0xbd958732	-0.07301177
26	0xbe13c686	-0.144312
27	0x3e1f0994	0.15530998
28	0x3e1bd224	0.15216881
29	0x3da3403d	0.07971237
30	0xbcac67b4	-0.021045543
31	0xbd2a48c0	-0.041573286
32	0x3dd3550c	0.10318956
33	0x3e2d7994	0.1694091
34	0x3cfc3233	0.030785656
35	0xbe1e8ffd	-0.15484615
36	0x3e5712eb	0.2100331
37	0xbdcfefff	-0.101531975
38	0xbcb5cbef	-0.02219197
39	0x3ce1af50	0.027549416
40	0x3e3b65ff	0.18300627
41	0x3d99b390	0.07504952
42	0x3cdb128b	0.02674224
43	0xbd15999f	-0.036523458
44	0xbdc30a31	-0.09523428
45	0x3e61df16	0.22057757
46	0x3d921f5a	0.07134886
47	0x3e34b1c5	0.17645939
48	0x3de3ba91	0.11119569
49	0xbca0112f	-0.019539444
50	0xbd82fdc4	-0.06396058
51	0x3dd0af99	0.101897426
52	0x3d84517a	0.06460853
53	0x3dfdddce	0.123958215
54	0x3e2b93c6	0.1675559
55	0x3e2fb4e4	0.17158848
56	0xbc9b61ad	-0.018967474
57	0x3e031679	0.12801541
58	0xbe04ded9	-0.12975635
59	0xbcc81d60	-0.02442807
60	0x3ca60d11	0.020269902
61	0x3db291b4	0.08719197
62	0xbd13c2bf	-0.036074396
63	0x3de9a14e	0.114077196
64	0xbe0e65f8	-0.13906085
65	0x3d37cb95	0.044871885
66	0x3d8184f6	0.063241884
67	0x3da3666f	0.07978522
68	0x3d37071a	0.044684507
69	0xbd8a2694	-0.067456394
70	0xbcaa81c2	-0.020813826
71	0x3db114c1	0.086465366
72	0x3e328ddd	0.17436929
73	0x3e1b713c	0.15179914
74	0xbd480114	-0.048829153
75	0xbd4fe38e	-0.050754122
76	0x3d5b8a61	0.053598765
77	0x3db80e27	0.08987074
78	0x3de520be	0.11187886
79	0xbd1f374e	-0.038871102
80	0x3ca58e65	0.0202095
81	0x3dbd780e	0.09251414
82	0xbdefc6e6	-0.11707859
83	0x3d563e7a	0.052305676
84	0x3e2b99a0	0.16757822
85	0x3da0c73c	0.07850501
86	0xbd469a32	-0.048486896
87	0x3c9b48fe	0.018955704
88	0x3da4b270	0.08041847
89	0x3d4ed2d3	0.050494026
90	0x3cb65604	0.022257812
91	0xbce8ba7c	-0.028409235
92	0xbd3ef723	-0.046622407
93	0x3d7e7b50	0.06212932
94	0x3d859505	0.06522564
95	0xbcaf7c74	-0.021421649
96	0x3df40d1a	0.119165614
97	0xbda47f28	-0.08032066
98	0x3e307030	0.17230296
99	0xbae04c35	-0.0017112555
100	0xbc503558	-0.012708031
101	0x3a3bafd9	0.0007159687
102	0x3e09a9c0	0.1344366
103	0x3d4dadc8	0.05021456
104	0xbd94d17a	-0.07266517
105	0x3dc9a986	0.09846787
106	0x3d429539	0.04750559
107	0xbe2c3043	-0.16815285
108	0x3d2839e5	0.041070838
109	0xbd23a6ca	-0.039953984
110	0xbce48ae0	-0.027898252
111	0x3dad6f73	0.08468523
112	0x3e62d6bd	0.22152229
113	0xbdf54870	-0.11976707
114	0x3db836af	0.08994805
115	0x3dccb0a0	0.09994626
116	0x3d9f00f3	0.07763853
117	0xbd06186e	-0.03273814
118	0x3e0a75cd	0.135215
119	0x3d61441b	0.05499659
120	0x3e54eeaa	0.20794168
121	0xbc01e9d8	-0.007929288
122	0x3e27228e	0.16321775
123	0xbdf4e497	-0.119576626
124	0xbcbe6c60	-0.023245037
125	0x3d0975b4	0.033559516
126	0x3e3d4fb4	0.18487436
127	0xbdc618e1	-0.09672714

weight f4 [128, 128]
0	0x3d9d8f3d	0.07693336
1	0x3c8f954a	0.017527241
2	0xbe12cd65	-0.14336164
3	0xbdfd806b	-0.123780094
4	0x3de9fb63	0.11424901
5	0x3da368be	0.07978962
6	0xbc3d5117	-0.011554978
7	0xbe7bb5f7	-0.24581133
8	0x3e8df796	0.27727956
9	0xbd9fb64b	-0.077984415
10	0xbd80545f	-0.062660925
11	0xbe1a58f6	-0.15072998
12	0x3eb7551b	0.35807118
13	0x3e394c2b	0.18095462
14	0xbc8371f7	-0.016045554
15	0x3e86835f	0.26272103
16	0x3dfa328b	0.122166716
17	0x3e8f5c00	0.27999878
18	0x3e3aba89	0.1823522
19	0x3e12500d	0.1428835
20	0x3ea19af7	0.3156354
21	0xbd9dd5db	-0.07706805
22	0xbd92601f	-0.0714724
23	0xbdeb7329	-0.114965744
24	0x3d403acf	0.046931084
25	0xbdc1ca1b	-0.09462377
26	0xbe31b63c	-0.17354673
27	0x3eaf8a1a	0.3428505
28	0x3d52e99c	0.05149232
29	0xbdb67abb	-0.08910128
30	0xbc3754fd	-0.011189696
31	0xbadbf25b	-0.0016780602
32	0x3eace6b1	0.33769754
33	0x3eb8535b	0.36001095
34	0xbd9c644e	-0.07636319
35	0xbe4f04c5	-0.20216663
36	0x3e86a4cc	0.26297605
37	0xbe080c81	-0.1328602
38	0xbe175b2c	-0.14780873
39	0x3e5f4e31	0.21807171
40	0x3ea325e5	0.3186485
41	0x3e8547ab	0.2603124
42	0x3e02c2d0	0.12769628
43	0xbe08ed56	-0.13371786
44	0xbbd0dc05	-0.0063738846
45	0x3ec20177	0.37891743
46	0x3da1905c	0.078888625
47	0x3e7cde5a	0.24694195
48	0x3eb455f5	0.3522183
49	0x3ba8c1c2	0.005150051
50	0xbdbbc99a	-0.09169312
51	0x3e95469c	0.29155433
52	0x3dbf9bcf	0.0935589
53	0x3e50f13f	0.20404528
54	0x3eb4e354	0.35329688
55	0x3e704b1e	0.23466155
56	0xbe045b67	-0.12925492
57	0x3ea02448	0.3127768
58	0xbe155a89	-0.14585318
59	0xbe05eb7a	-0.13078108
60	0x3e25bf01	0.16186143
61	0x3ebd160f	0.36930892
62	0x3ce10198	0.02746658
63	0x3e4240cc	0.1897003
64	0xbe7c4d3c	-0.24638838
65	0xbd889ff0	-0.06671131
66	0x3e074b88	0.13212407
67	0x3e0ce339	0.13758554
68	0x3e272d63	0.16325907
69	0xbdf2fea6	-0.118649766
70	0xbd23dea4	-0.04000725
71	0x3de385d0	0.11109507
72	0x3e9a038e	0.30080837
73	0x3e488cef	0.19585012
74	0xbd9af6e5	-0.07566623
75	0xbeaa71b3	-0.3328987
76	0x3d1e220a	0.03860668
77	0xbd89402f	-0.06701695
78	0x3e6e201c	0.23254436
79	0xbe102552	-0.14076737
80	0x3dd62708	0.10456663
81	0x3e905e5b	0.28196988
82	0xbdd5f68b	-0.10447415
83	0xbc1335b7	-0.008984975
84	0x3ec8c127	0.39209864
85	0x3e663957	0.22482811
86	0xbd83bc2d	-0.06432376
87	0xbcbf0a88	-0.023320451
88	0x3e32d5ff	0.17464446
89	0x3dd3645d	0.10321877
90	0x3e5b5273	0.2141817
91	0x3d7ac4ad	0.06122272
92	0xbdc6b807	-0.09703069
93	0x3e6a4fe2	0.22882035
94	0x3dd69ab0	0.10478723
95	0xbd6d5d1b	-0.05795012
96	0x3e11bc46	0.14231977
97	0xbb42b599	-0.0029710291
98	0x3eb0e0b3	0.34546432
99	0x3ce7f800	0.028316498
100	0x3d0b3dd2	0.033994503
101	0xbd374c96	-0.044750772
102	0x3dd7895a	0.105242446
103	0x3e860544	0.26175892
104	0xbee00282	-0.43751913
105	0x3d19121c	0.037370786
106	0x3dffcf61	0.12490726
107	0xbe0ad98c	-0.1355955
108	0x3e541282	0.20710185
109	0xbdcc25de	-0.0996816
110	0xbc7acebd	-0.015308079
111	0x3d877773	0.0661458
112	0x3ebea0b9	0.37231997
113	0xbe5e90da	-0.21734944
114	0x3e9052ab	0.2818807
115	0x3e227cf2	0.15867975
116	0xbca9e234	-0.020737745
117	0xbe023a11	-0.12717463
118	0x3e8147a2	0.25249964
119	0x3d4a11e4	0.049333468
120	0x3ebf7c30	0.37399435
121	0xbcd50d16	-0.026007216
122	0x3e59869a	0.21242753
123	0xbd0e00d7	-0.03466877
124	0xbbcbeff5	-0.0062236735
125	0x3e41fea1	0.1894479
126	0x3ea3a8b8	0.3196466
127	0xbcd0af17	-0.025474114
128	0x3db79e5d	0.08965752
129	0x3e360689	0.1777593
130	0x3e396070	0.18103194
131	0x3e3ea821	0.18618824
132	0xbdf03cbf	-0.117303364
133	0x3bec4294	0.007210085
134	0x3d4eea18	0.050516218
135	0x3e3b09e3	0.1826549
136	0x3cb583fb	0.02215766
137	0xbd0dc058	-0.03460726
138	0x3d2f1d91	0.042752806
139	0x3e39c5d7	0.18141876
140	0xbe03565e	-0.12825915
141	0x3d5b3b63	0.053523432
142	0x3e11118e	0.14166853
143	0x3da85b57	0.08220547
144	0x3aa1815b	0.0012321876
145	0x3c060e68	0.008182146
146	0x3c9ec5bb	0.019381395
147	0xbd3aeb99	-0.04563484
148	0xbdaafd8c	-0.083491415
149	0x3d3ed767	0.046592142
150	0x3d932728	0.07185203
151	0x3d4b8e26	0.04969611
152	0x3dd80c0c	0.10549173
153	0x3de7f926	0.11326818
154	0x3df210ee	0.11819635
155	0xbd12bfc9	-0.03582743
156	0xbe836e0b	-0.25669894
157	0x3db96517	0.090524845
158	0x3e063b30	0.13108516
159	0x3d1b3f5f	0.037902232
160	0xbd3f8a47	-0.04676273
161	0xbe11907a	-0.1421527
162	0xbed6e161	-0.41968825
163	0x3e7b0ab1	0.24515797
164	0xbc850b8c	-0.016240858
165	0xbbfa7578	-0.007643398
166	0xbeff6b48	-0.49886537
167	0x3bf54dec	0.0074860957
168	0x3dc450fe	0.095857605
169	0xbe120107	-0.14258204
170	0x3cc84371	0.024446221
171	0xbe6e8819	-0.23294105
172	0x3d59f95a	0.053216316
173	0xbe4b56a8	-0.19857275
174	0x3df7e404	0.121040374
175	0xbcd84cd1	-0.026403816
176	0xbe18cae1	-0.14921142
177	0x3e026531	0.12733914
178	0x3e0053fa	0.12532035
179	0xbe0052ba	-0.12531558
180	0xbe087d0c	-0.13328952
181	0x3df1ad23	0.11800601
182	0xbe1de122	-0.15417913
183	0x3b8388b1	0.0040140976
184	0xbec595f8	-0.3859098
185	0xbde5d26e	-0.11221777
186	0x3b2f69db	0.0026765976
187	0x3da0b38d	0.078467466
188	0x3d89e25b	0.06732627
189	0xbdc2be00	-0.09508896
190	0x3b42b38f	0.0029709076
191	0x3d584023	0.05279554
192	0x3e27c89c	0.1638512
193	0x3daae62d	0.08344684
194	0xbcff8330	-0.031190485
195	0xbd6eb591	-0.058278624
196	0x3ccba3b5	0.024858335
197	0x3c99b241	0.018761756
198	0x3ca1aa99	0.019734668
199	0x3e1bae92	0.15203312
200	0x3cb288e6	0.021793794
201	0xbd8fad2e	-0.07015453
202	0x3c3cd939	0.011526399
203	0x3e932be7	0.28744432
204	0x3cf1991b	0.029491952
205	0x3d472649	0.048620496
206	0x3d9662a9	0.07343037
207	0x3d137b48	0.036006242
208	0xbc3e69e4	-0.011621926
209	0x3dc7a43c	0.09748122
210	0x3d45da53	0.048303913
211	0x3d81f1d7	0.063449554
212	0xbe2236c6	-0.15841207
213	0xbdc8c871	-0.09803856
214	0x3dd2542d	0.102699615
215	0x3c5cb389	0.013470539
216	0x3d35ea68	0.044413
217	0x3c13a9d0	0.009012654
218	0x3e06183d	0.13095184
219	0x3da9846a	0.08277209
220	0x3de637a6	0.11241083
221	0x3c4bd48d	0.012440813
222	0x3c879d91	0.016554626
223	0x3d00f86f	0.031486925
224	0x3d570949	0.05249909
225	0x3e03a171	0.12854554
226	0xbc9878c6	-0.018612277
227	0x3dcce671	0.10004891
228	0x3d5c5066	0.05378761
229	0x3dc9817e	0.09839152
230	0x3d4bdb34	0.049769595
231	0x3d13503f	0.0359652
232	0xbf21fd76	-0.63277376
233	0x3df6db99	0.12053604
234	0xbddeeb99	-0.108847804
235	0x3ddc50cd	0.10757599
236	0xbcc36c90	-0.023855478
237	0x3df77a2a	0.12083848
238	0x3d0a2e8c	0.033735797
239	0x3de7ff0c	0.11327943
240	0xbd99e372	-0.07514085
241	0x3e437ffb	0.1909179
242	0xbd0655d8	-0.03279671
243	0xbd69ea40	-0.057108164
244	0xbabc8537	-0.0014382963
245	0x3e15d304	0.14631277
246	0x3d5d2ead	0.05399959
247	0x3d68a967	0.05680218
248	0xbdd13787	-0.10215669
249	0x3dd92f3e	0.10604714
250	0x3d97d77e	0.07414149
251	0x3e0ab031	0.13543774
252	0x3e11d324	0.142407
253	0x3ce2c96c	0.027683936
254	0xbe0edf26	-0.13952312
255	0x3e0f9aac	0.14023846

bias f4 [128]
0	0x3e932c4a	0.28744727
1	0xbcf39560	-0.029734313
2	0xbe0f03f7	-0.13966356
3	0xbe86034e	-0.26174396
4	0xbe5f0647	-0.21779738
5	0x3ea00849	0.3125632
6	0xbd6e975a	-0.05824981
7	0xbe40a7cc	-0.1881401
8	0xbe9caabd	-0.30599013
9	0xbe214ccb	-0.1575195
10	0x3e60c6a3	0.21950774
11	0x3eaaa8b7	0.33331844
12	0x3cff1b0c	0.031140827
13	0xbe884e01	-0.26622012
14	0xbe8f5102	-0.27991492
15	0x3e2a5152	0.16632584
16	0x3ea45386	0.32094973
17	0xbe50d5e5	-0.20394094
18	0x3e4da48b	0.200823
19	0x3e519516	0.20467028
20	0x3d846da4	0.06466225
21	0xbe93972b	-0.2882627
22	0xbe4f2008	-0.20227063
23	0x3e27e762	0.1639686
24	0x3e039dff	0.1285324
25	0xbd423bf7	-0.04742047
26	0xbd217753	-0.039420437
27	0xbebf2ada	-0.3733738
28	0x3e46864e	0.1938717
29	0xbebf4c0b	-0.37362704
30	0xbc1f64c8	-0.009728618
31	0x3dc36d94	0.09542385
32	0xbe4a5371	-0.19758393
33	0xbcadfe13	-0.021239316
34	0xbe529dfe	-0.20568082
35	0x3dbb5123	0.09146335
36	0xbe4bc1be	-0.19898126
37	0x3cac269d	0.021014506
38	0xbdee4cb7	-0.11635726
39	0xbe074a54	-0.13211948
40	0xbed48438	-0.41507125
41	0x3da46efa	0.080289796
42	0x3dbd22b6	0.09235136
43	0xbe84cc4c	-0.25937116
44	0xbd5eb8e2	-0.054375537
45	0x3e298591	0.16554858
46	0x3e5b3d67	0.21410142
47	0x3d3c1126	0.04591479
48	0x3c023b61	0.007948727
49	0xbe951a87	-0.291218
50	0x3e8a107a	0.26965696
51	0x3e9635d5	0.29337946
52	0xbe55f7e5	-0.20895346
53	0xbeb8804c	-0.36035383
54	0xbe11ca80	-0.14237404
55	0x3e7257c7	0.23666297
56	0x3e894f06	0.26818103
57	0xbe1d67b1	-0.15371586
58	0xbe15b00c	-0.14617938
59	0x3e8589a7	0.26081583
60	0xbdefc83d	-0.11708114
61	0x3e5af571	0.21382691
62	0xbe2849bb	-0.16434376
63	0x3dfbe294	0.12299076
64	0x3e3466dc	0.17617363
65	0x3cf335d2	0.02968875
66	0xbdda15ba	-0.10648675
67	0xbe30db80	-0.17271233
68	0xbe16b9e0	-0.14719343
69	0xbeb59f93	-0.35473308
70	0xbd8b67d3	-0.06806912
71	0x3e050c72	0.12993029
72	0x3dd0f6f7	0.10203355
73	0x3d80f41f	0.062965624
74	0xbdcac891	-0.09901536
75	0xbe164608	-0.14675152
76	0xbdbbe89c	-0.09175226
77	0xbe5919f2	-0.21201304
78	0xbe40ae5d	-0.18816514
79	0x3dc1713b	0.09445425
80	0x3e8de33f	0.27712438
81	0x3e8cc8a3	0.27496824
82	0xbe6224d2	-0.22084358
83	0xbe818292	-0.2529493
84	0xbea85ed6	-0.32884854
85	0x3d2bdfde	0.041961543
86	0x3dcc6996	0.099810764
87	0xbe8888c2	-0.26666838
88	0x3aa8712b	0.001285111
89	0x3e9d8e18	0.3077247
90	0xbdc47a95	-0.09593693
91	0x3e5ab40a	0.21357742
92	0xbdea00cb	-0.114259325
93	0xbe88770b	-0.26653323
94	0xbe4a30a4	-0.19745117
95	0x3da8b847	0.08238273
96	0xbdfd11f5	-0.12356941
97	0xbe5a9daf	-0.21349214
98	0xbe22231b	-0.15833704
99	0xbd6b8cf4	-0.05750747
100	0xbe7a5ad3	-0.24448709
101	0x3e782392	0.24232319
102	0x3dd314b6	0.10306685
103	0xbd9f2345	-0.07770399
104	0xbdd9a478	-0.10627073
105	0x3dd2b3a4	0.1028817
106	0x3e9f6e6e	0.3113894
107	0xbdad9a86	-0.08476739
108	0x3e3a6235	0.18201526
109	0xbe1aec89	-0.15129294
110	0x3e229555	0.15877278
111	0xbe0c2d7a	-0.13689223
112	0xbe50a438	-0.20375144
113	0xbe3c5d46	-0.18394956
114	0x3d80fce3	0.06298234
115	0x3eb65b79	0.35616663
116	0x3d78d8d6	0.060753666
117	0x3c3e705e	0.01162347
118	0xbe16c0b5	-0.1472195
119	0xbe5d6cfb	-0.21623604
120	0x3ded0a75	0.1157426
121	0xbc22894e	-0.009920431
122	0xbe869d6f	-0.26291987
123	0x3dc3e61b	0.095653735
124	0x3e864b19	0.2622917
125	0xbdd3de91	-0.103451855
126	0xbd482b69	-0.048869524
127	0xbe174db2	-0.14775732

weight f4 [128, 128]
0	0x3e72e802	0.23721316
1	0x3c46f6ae	0.012143774
2	0x3dc6c550	0.09705603
3	0xbca21020	-0.01978308
4	0xbdaa5e48	-0.08318764
5	0x3d8dd9b1	0.06926287
6	0xbdf2acea	-0.11849387
7	0x3d8e55a0	0.069499254
8	0xbe8164b6	-0.2527215
9	0xbde11406	-0.10990147
10	0x3dd09476	0.10184567
11	0x3e2e4fbc	0.17022604
12	0xbd69b4c4	-0.057057157
13	0x3ac39bb0	0.0014923718
14	0xbebad372	-0.36489445
15	0xba9abc9c	-0.0011805478
16	0x3e113cdd	0.14183374
17	0xbe405239	-0.18781365
18	0xbd3476e3	-0.04405869
19	0x3e5bdb98	0.21470487
20	0x3e516ed1	0.2045243
21	0xbea60b95	-0.3243071
22	0x3dca2a8a	0.09871395
23	0xbe06e847	-0.13174544
24	0xbd43ea40	-0.04783082
25	0xbe0ec8d1	-0.13943793
26	0x3dcaa4c4	0.09894708
27	0xbe9de87f	-0.30841443
28	0x3c01dcba	0.0079261605
29	0xbeb05d97	-0.34446403
30	0x3d076a2f	0.03306025
31	0x3c9f114b	0.019417426
32	0xbd55e87d	-0.05222367
33	0xbb6268c8	-0.0034547318
34	0xbcbf48c3	-0.023350125
35	0xb8fd6870	-0.00012083433
36	0xbd3a1d8d	-0.045438338
37	0x3c9b451f	0.018953858
38	0x3e1b3b80	0.15159416
39	0xbd6172b3	-0.055041026
40	0xbe078a21	-0.13236286
41	0xbddb0003	-0.106933616
42	0x3cafce1e	0.021460589
43	0xbe4638f7	-0.19357668
44	0xbbe80fb4	-0.00708195
45	0x3dedcd1f	0.11611389
46	0xbc470d9f	-0.012149244
47	0x3e2b60a9	0.16736092
48	0x3dc0e715	0.094190754
49	0xbe4d85d8	-0.20070589
50	0x3e1c0bbf	0.15238856
51	0x3ded31d4	0.115817696
52	0xbda6dbf6	-0.08147423
53	0xbe5df156	-0.21674094
54	0xbd1e608d	-0.038666297
55	0x3e8b7973	0.27241096
56	0x3e542b91	0.20719744
57	0x3d37fe07	0.044919994
58	0x3d53d183	0.051713478
59	0xbccbc7c4	-0.02487553
60	0xbd553dd0	-0.052060902
61	0x3db56bb0	0.088584304
62	0xbd3cc567	-0.046086695
63	0x3e374e51	0.17900969
64	0x3c401c1c	0.011725452
65	0x3d69063c	0.05689071
66	0xbd99516e	-0.074862346
67	0xbe04cd61	-0.12968971
68	0x3df589d7	0.119891815
69	0xbe67493c	-0.2258653
70	0xbb8d46b1	-0.0043114056
71	0xbdd7e371	-0.10541428
72	0xbde21bbd	-0.11040447
73	0x3d6b768a	0.057486095
74	0x3dc801a5	0.09765939
75	0xbe2af9c8	-0.16696846
76	0x3d92688b	0.07148846
77	0x3d1dae8c	0.03849654
78	0x3deda83c	0.11604354
79	0x3e21c18d	0.1579649
80	0xbd20d4e9	-0.039265547
81	0x3e8f4c5b	0.27987942
82	0x3c080f4d	0.008304429
83	0x3de67195	0.11252133
84	0xbe3fcc2d	-0.1873023
85	0x3d2d9fcb	0.04238872
86	0x3d8786db	0.066175185
87	0xbca33ea5	-0.019927332
88	0xbd3f0f49	-0.046645436
89	0x3e2a1215	0.1660846
90	0xbd523c62	-0.051327117
91	0xbdad6328	-0.08466178
92	0xbd3266f7	-0.043555226
93	0xbe2e9f18	-0.17052877
94	0xbd950e48	-0.072781146
95	0x3b9560cd	0.0045586587
96	0xbd475fca	-0.048675336
97	0xbdd292dd	-0.10281918
98	0xbda25de3	-0.07928064
99	0x3e0a6569	0.13515247
100	0x3d6db927	0.058037903
101	0x3dfc5d75	0.12322513
102	0xbdcd645e	-0.10028909
103	0x3e286f84	0.1644879
104	0xbd9b3f8b	-0.07580479
105	0x3d07dfed	0.033172537
106	0x3e11dd8d	0.14244671
107	0x3c4d5d3d	0.012534437
108	0xbd9d50ef	-0.076814525
109	0x3d36179a	0.044456102
110	0xbd08aa91	-0.03336579
111	0x3bc90ed8	0.0061358027
112	0xbe05716b	-0.13031547
113	0xbd3e6576	-0.04648348
114	0x3cea4262	0.028596107
115	0x3e4ae964	0.19815594
116	0x3e093e5b	0.13402693
117	0xbd90b69d	-0.07066081
118	0xbe1535c5	-0.14571293
119	0xbd35581e	-0.04427349
120	0x3d1eefc9	0.038802896
121	0xbdfefa7c	-0.1245012
122	0xbe2c0b6a	-0.16801229
123	0xbdaae2b7	-0.08344024
124	0x3d6f4572	0.058415838
125	0x3e1be4eb	0.15224044
126	0x3c94fb6e	0.018186297
127	0xbd249510	-0.04018122
128	0x3c528c4d	0.012850833
129	0xbb633edd	-0.003467492
130	0xbc0d8ed7	-0.008640013
131	0xbd59e8a8	-0.053200394
132	0x3c76eee6	0.015071606
133	0x3df700b4	0.12060681
134	0x3c5c4397	0.013443849
135	0xbcbbe9a8	-0.022938564
136	0xbd342524	-0.043980733
137	0x3d7f7a57	0.06237253
138	0x3d9bcf13	0.07607856
139	0x3dcee5cc	0.10102424
140	0x3cf5dd6a	0.030012805
141	0xbc8de160	-0.017319381
142	0x3d96b7ef	0.07359301
143	0xbdd22ab3	-0.102620505
144	0xbcd0a27f	-0.02546811
145	0x3b80e907	0.003934029
146	0xbdc18ec9	-0.09451062
147	0x3c2e2945	0.010629957
148	0x3d73f2d9	0.05955777
149	0xbd6d9e4c	-0.05801229
150	0xbd560918	-0.052254766
151	0x3d6fcb01	0.05854321
152	0x3d1917ac	0.03737609
153	0xbd6744ca	-0.056462087
154	0xbd8a06a1	-0.067395456
155	0x3d816d15	0.06319634
156	0xbc5cc002	-0.013473513
157	0x3bfa0e1a	0.0076310756
158	0xbe0287e1	-0.12747146
159	0xbda54271	-0.08069313
160	0xbcc13dc1	-0.023589017
161	0xbd7fd6ee	-0.062460832
162	0x3d24a35e	0.04019486
163	0xbb6283bb	-0.003456338
164	0x3cf68648	0.030093327
165	0xbd70cb81	-0.058787826
166	0xbced6ed0	-0.028983504
167	0xbad14988	-0.0015967349
168	0x3d15f0a4	0.036606446
169	0xbb93f5c6	-0.0045153825
170	0xbd76f29b	-0.06028996
171	0x3cc20e2d	0.0236884
172	0xbd0e4eea	-0.034743227
173	0xbc96d091	-0.01841
174	0x3d528999	0.051400755
175	0xbd2a8512	-0.041630812
176	0xbd29bbc1	-0.04143882
177	0xbc6d0f08	-0.014468916
178	0xbd1a6ad1	-0.037699524
179	0x3d92d6a8	0.07169849
180	0xbc125743	-0.008931938
181	0xbd0c2f66	-0.03422489
182	0x3d866fe7	0.065643124
183	0xbda667db	-0.081252776
184	0xbd920639	-0.07130093
185	0xbc2c626b	-0.010521512
186	0xbd534387	-0.05157807
187	0xbde2c2b5	-0.11072294
188	0x3d91b77b	0.07115074
189	0x3d3ea387	0.04654267
190	0x3b739f72	0.0037173894
191	0x3cdeeefe	0.02721357
192	0xbc629ca8	-0.013831295
193	0x3d0f55ac	0.034993812
194	0x3cba01cd	0.022705937
195	0x3c95077a	0.018192042
196	0x3dbcdaeb	0.09221443
197	0xbc7374eb	-0.014859418
198	0x3ad38a36	0.0016139213
199	0x3d954e47	0.07290321
200	0x3de6209e	0.1123669
201	0xbcbbea87	-0.02293898
202	0xbd361c4e	-0.044460587
203	0x3c851faa	0.01625045
204	0xbddcb103	-0.1077595
205	0xbd7b63e4	-0.06137456
206	0xbd50283b	-0.050819617
207	0xbb1d864e	-0.002403635
208	0x3db1a356	0.08673732
209	0xbdbbc983	-0.09169295
210	0x3d4326bf	0.047644373
211	0xbb9afabd	-0.0047295974
212	0xbe0bf483	-0.13667493
213	0xbcc28d09	-0.023748891
214	0xbced825e	-0.028992828
215	0x3d0cdd38	0.03439066
216	0x3d25cbdc	0.04047762
217	0xbd2ee20c	-0.042696044
218	0x3d73946a	0.05946771
219	0x3d6daf70	0.05802864
220	0x3d653b91	0.05596501
221	0xbac06cbe	-0.0014680845
222	0xbd6b4b09	-0.057444606
223	0x3e05108c	0.12994593
224	0xbd3166d9	-0.043310974
225	0xbd444170	-0.04791397
226	0xbda9ea40	-0.08296633
227	0x3d9c5c2b	0.07634767
228	0xbccbce35	-0.0248786
229	0x3e0b4992	0.13602284
230	0x3cb02483	0.021501785
231	0x3d42a4f5	0.047520597
232	0x3d4fa967	0.050698664
233	0x3d45b839	0.04827139
234	0x3dcb3656	0.09922473
235	0xbbfa3fd4	-0.0076370034
236	0xbd0d8076	-0.034546338
237	0x3de03c56	0.10949008
238	0x3df4c27c	0.119511575
239	0xbd86a5b6	-0.065745756
240	0x3d09133e	0.033465616
241	0x3e052c04	0.13005072
242	0xbd7f58bc	-0.062340483
243	0xbd74d73a	-0.05977557
244	0xbd33e58f	-0.043920096
245	0x3ca3ee22	0.020011012
246	0xbd0e583d	-0.03475212
247	0x3cca271b	0.02467685
248	0xbd6b1aeb	-0.057398718
249	0x3d5b95ea	0.053609766
250	0xbdb6f57c	-0.08933541
251	0xbd093327	-0.03349605
252	0xbc3aa19d	-0.011391071
253	0xbd630cf6	-0.055432282
254	0x3d29ed4c	0.04148607
255	0xbd6de98e	-0.058084063

bias f4 [128]
0	0x3eb7cd18	0.35898662
1	0x3e5cf2c8	0.21576989
2	0x3ea00bd6	0.3125903
3	0x3d9a020b	0.07519921
4	0xbf04602c	-0.51709247
5	0x3e3a60dc	0.18201011
6	0x3e923f8e	0.28564113
7	0xbebc1523	-0.36734876
8	0x3f08ff7c	0.5351484
9	0x3ec75d1f	0.38938233
10	0x3de75c1a	0.11296864
11	0x3d080d9c	0.033216104
12	0x3e115b51	0.1419499
13	0xbedf33cb	-0.43594202
14	0x3f022ae0	0.5084667
15	0x3e6bd898	0.23031843
16	0x3f0e27a0	0.5552921
17	0x3dcc659b	0.09980317
18	0x3d31ba34	0.043390468
19	0x3ec98754	0.3936106
20	0x3cffa4a2	0.031206433
21	0x3f011505	0.504227
22	0x3edec627	0.43510553
23	0xbedc15d5	-0.42985407
24	0x3e2f710b	0.17132966
25	0x3e6a1130	0.22858119
26	0x3eac94bd	0.33707228
27	0xbea91010	-0.33020067
28	0x3ef39f6e	0.47582573
29	0x3e8ed721	0.27898505
30	0x3ddcc22c	0.10779223
31	0x3e32fdef	0.1747968
32	0x3ed59a2a	0.4171918
33	0x3ed245ed	0.41068974
34	0x3e1dc5b8	0.15407455
35	0x3e0ebba6	0.1393877
36	0x3edd3994	0.4320799
37	0xbeb0c9be	-0.34528917
38	0x3d208c08	0.039196044
39	0xbe2fcdbb	-0.17168324
40	0x3da42ac9	0.08015973
41	0x3e6e59ab	0.23276393
42	0x3e7c00c6	0.2460967
43	0xbebd32a4	-0.36952698
44	0xbee77764	-0.45208275
45	0x3ed35ead	0.4128317
46	0x3d2871c7	0.04112413
47	0x3db35ab8	0.087575376
48	0xbed6317d	-0.41834632
49	0x3ec5cc3c	0.3863238
50	0x3d8f66bf	0.07002019
51	0x3d9d5e1f	0.07683968
52	0xbd087b8f	-0.03332096
53	0x3d9194ab	0.07108434
54	0x3c31e1e2	0.010857077
55	0x3edf6434	0.43631136
56	0x3ebc6cf7	0.36801884
57	0x3cf5f170	0.030022353
58	0x3ee81ea6	0.45335883
59	0x3d0d6877	0.034523454
60	0x3ef18e72	0.4717899
61	0x3ec35717	0.38152382
62	0x3f0d0fd9	0.55102307
63	0x3d0cb4e0	0.034352183
64	0x3dc48173	0.09595003
65	0x3ee97bad	0.4560217
66	0x3ec4618b	0.3835567
67	0x3c9d1bb0	0.019178241
68	0xbe75841b	-0.23976175
69	0x3df2fdf1	0.11864842
70	0x3eb7f0ee	0.35926002
71	0x3f079040	0.52954483
72	0x3d59e309	0.053195033
73	0x3eeee4ab	0.46658835
74	0x3eb2d664	0.34929192
75	0x3be95d0a	0.007121687
76	0xbd614b2e	-0.055003338
77	0xbd554229	-0.05206505
78	0xbf0f9d38	-0.5609927
79	0x3ea2be5c	0.31785858
80	0xbea4b755	-0.3217112
81	0x3f02edad	0.51143914
82	0x3da6f492	0.08152117
83	0x3ea8d765	0.32976833
84	0x3d426cbc	0.04746698
85	0xbd57360e	-0.052541785
86	0x3e53a240	0.20667362
87	0x3e159c32	0.14610365
88	0x3dbecfc7	0.09316974
89	0xbedbbe43	-0.42918596
90	0x3e0ddc80	0.13853645
91	0x3e1f81c5	0.15576847
92	0x3e9f0541	0.31058696
93	0x3e9a4238	0.30128646
94	0xbe13b672	-0.14425066
95	0x3ee13f87	0.4399378
96	0x3efaf942	0.49018294
97	0xbdb9e0d1	-0.090760835
98	0xbdd413ea	-0.10355361
99	0xbcb5363c	-0.022120588
100	0x3f0169ed	0.50552255
101	0x3eb341bd	0.35011092
102	0xbf19a108	-0.6001134
103	0xbea2f526	-0.31827658
104	0xbd83e762	-0.06440617
105	0x3f1348d5	0.5753301
106	0x3ec3caf4	0.38240778
107	0x3dbdcb1e	0.09267257
108	0xbe969bd0	-0.2941575
109	0xbd373a42	-0.044733293
110	0xbe8dd531	-0.27701715
111	0x3d8a05e4	0.06739405
112	0xbf022066	-0.50830686
113	0x3ccf86a4	0.025332756
114	0xbe263dda	-0.16234532
115	0x3e18ccd2	0.14921883
116	0xbe490694	-0.19631416
117	0xbe075798	-0.13217008
118	0x3de25d89	0.11052997
119	0x3ea73437	0.32657024
120	0x3dd98521	0.106210954
121	0x3f004f6b	0.5012118
122	0xbf06081b	-0.5235612
123	0x3e15c3ed	0.14625521
124	0xbe8be589	-0.2732356
125	0xbe57ca66	-0.21073303
126	0x3dbe394d	0.09288273
127	0x3d9b4194	0.075808674

weight f4 [128, 128]
0	0xbbe4c7f3	-0.0069818436
1	0x3cff3aa6	0.031155895
2	0x3e29394d	0.16525765
3	0xbea1e500	-0.31620026
4	0xbd36c797	-0.044623937
5	0xbd8752e1	-0.06607605
6	0x3d4cddd6	0.050016247
7	0x3d9f2c88	0.077721655
8	0x3e39448d	0.18092556
9	0x3e5a0bab	0.21293513
10	0x3dce1647	0.10062843
11	0x3b2a2dd5	0.002596726
12	0xbd845f54	-0.06463495
13	0xbd1bb40c	-0.038013503
14	0x3db29b33	0.08721008
15	0x3e07a66c	0.13247079
16	0x3e0625e8	0.13100398
17	0x3d422bf8	0.047405213
18	0x3d7cd7db	0.061729293
19	0xbcc7b9ee	-0.02438065
20	0x3d0174f4	0.031605676
21	0x3d4b74b9	0.049671862
22	0x3e1eb4e1	0.15498687
23	0xbd75d63f	-0.060018774
24	0x3d4434fc	0.047902092
25	0x3cc4abdc	0.02400773
26	0x3eaea209	0.34107998
27	0x3dbc88ae	0.09205757
28	0x3db82e35	0.08993188
29	0xbce194d8	-0.027536795
30	0xbf3354ec	-0.70051455
31	0xbeee12bd	-0.4649867
32	0x3d6f3548	0.058400422
33	0x3e4d2bb9	0.2003621
34	0xbf2da31f	-0.6782703
35	0xbaac3ae2	-0.0013140107
36	0x3d9a5a65	0.07536773
37	0xbd759a9d	-0.059961904
38	0x3da39575	0.07987491
39	0xbe02fc27	-0.12791501
40	0x3dbb662d	0.09150348
41	0xbdc9655c	-0.09833786
42	0xbe070567	-0.13185655
43	0x3d2c354f	0.042043027
44	0xbd4d0ec3	-0.050062906
45	0x3daa7d42	0.08324672
46	0xbd65117d	-0.05592488
47	0x3f0918eb	0.53553647
48	0xbdb842f5	-0.08997146
49	0x3e3a11fd	0.18170924
50	0xbdab5b9b	-0.08367082
51	0xbe4c31b8	-0.19940841
52	0xbd9dd0de	-0.07705854
53	0xbe3ce954	-0.18448383
54	0xbe0ae1eb	-0.13562743
55	0x3c57b2bf	0.013165175
56	0x3e11e87c	0.14248842
57	0xbe2f3265	-0.17109068
58	0x3e2d2abd	0.16910835
59	0xbd255651	-0.04036552
60	0x3d5d5cb3	0.054043483
61	0x3dd25102	0.10269357
62	0x3e3cbc21	0.1843114
63	0xbec70c93	-0.3887678
64	0xbe8e83ac	-0.27834833
65	0x3eb95b13	0.36202297
66	0x3d7ae2d0	0.06125146
67	0xbd313ec4	-0.04327275
68	0x3d609c0f	0.05483633
69	0x3e1717bd	0.14755149
70	0x3e1d3cd5	0.15355237
71	0x3e4ff490	0.20308137
72	0xbb98ddb5	-0.0046651014
73	0x3e153783	0.14571957
74	0x3e08b848	0.13351548
75	0xbd713f1a	-0.05889807
76	0x3c5c3ab8	0.013441734
77	0x3e06e41b	0.13172953
78	0xbcbfde07	-0.0234213
79	0x3de5b0e1	0.112153776
80	0xbe62d0ff	-0.22150038
81	0x3d8a6435	0.06757394
82	0x3d819b18	0.0632841
83	0x3da9f5d4	0.08298841
84	0xbd46125d	-0.048357356
85	0xbf367a62	-0.7128049
86	0x3e3c12bf	0.18366526
87	0x3c000b18	0.007815145
88	0x3e98435b	0.29738888
89	0xbb3168c9	-0.0027070513
90	0x3e3531b8	0.17694747
91	0xbee36059	-0.44409445
92	0xbcf19c1b	-0.029493382
93	0x3d283e49	0.041075025
94	0xbf4d143e	-0.8010901
95	0x3e391521	0.18074466
96	0x3d1d79b7	0.038446154
97	0xbd291a25	-0.0412847
98	0x3d66b7ab	0.056327503
99	0x3c99537a	0.018716563
100	0x3e1c25f7	0.15248857
101	0x3df10a39	0.11769528
102	0xbe08142c	-0.13288945
103	0xbc812bd3	-0.015767967
104	0x3c9f1425	0.019418785
105	0x3e4cb680	0.19991493
106	0x3e0deac5	0.13859089
107	0xbd2cfda9	-0.042234097
108	0x3d3cbdd4	0.04607947
109	0x3d826fd1	0.063689835
110	0x3be75b47	0.0070604417
111	0xbe87d0a7	-0.26526377
112	0x3cc6cd4d	0.024267817
113	0x3c355672	0.011067973
114	0x3d83306b	0.06405719
115	0x3d9a229b	0.07526132
116	0xbbabae24	-0.005239265
117	0x3ea7e63b	0.3279284
118	0x3dfcbfd8	0.12341279
119	0x3b3fde5a	0.002927682
120	0x3e0c5108	0.13702786
121	0x3d84b90a	0.06480606
122	0xbc7b04de	-0.015320985
123	0xbd4080e5	-0.046997923
124	0xbd322676	-0.04349371
125	0x3d036b1d	0.032084573
126	0x3d3b51ff	0.045732494
127	0xbdcd0ba6	-0.100119874
128	0x3e06f854	0.13180667
129	0x3d0e2b34	0.03470917
130	0x3d8fba72	0.070179835
131	0xbe8f21c8	-0.2795546
132	0xbe37ca63	-0.17948298
133	0xbe302359	-0.17200984
134	0x3e510335	0.2041138
135	0xbd7ecf2e	-0.0622093
136	0x3e653107	0.22381984
137	0x3db655f1	0.08903111
138	0x3e01d655	0.12679417
139	0xbd333e6e	-0.04376071
140	0xbc878c6c	-0.01654645
141	0xbd229ffa	-0.039703347
142	0x3da7ad02	0.081872955
143	0x3d5f945c	0.054584846
144	0x3e11ece2	0.1425052
145	0x3d42fd30	0.04760474
146	0x3e13978b	0.14413278
147	0x3d251096	0.04029902
148	0x3ce7e4a3	0.028307265
149	0x3e306c56	0.17228827
150	0x3d69f51d	0.057118524
151	0xbe4c0958	-0.1992544
152	0x3df9aadc	0.12190792
153	0x3e3fe446	0.18739423
154	0x3e0dab75	0.13834937
155	0xbd23eafb	-0.040019017
156	0x3e5f5526	0.21809825
157	0x3e3b5c6f	0.1829698
158	0xbf4d465f	-0.801855
159	0xbee8aa8c	-0.45442617
160	0x3e101e5d	0.14074083
161	0x3e4a2c00	0.19743347
162	0xbf4805de	-0.7813395
163	0x3de02e20	0.10946298
164	0x3e296d84	0.16545683
165	0xbd053481	-0.032520775
166	0x3e121ace	0.14268038
167	0xbda5d2f6	-0.08096878
168	0x3e78b2e9	0.24286999
169	0xbda31a19	-0.07963962
170	0x3c1936ec	0.009351473
171	0x39fd5599	0.00048319696
172	0xbd5224cf	-0.051304635
173	0x3daa503c	0.08316085
174	0xbe280361	-0.16407539
175	0x3f25073a	0.6446415
176	0xbe0a9df7	-0.13536821
177	0x3e3833c0	0.17988491
178	0xbe840f49	-0.25792912
179	0xbe512771	-0.20425202
180	0xbe014ec2	-0.126277
181	0xbdc64bd2	-0.0968243
182	0xbcd5a930	-0.026081651
183	0x3da2db91	0.07952035
184	0x3e50a10f	0.20373939
185	0xbd69d46f	-0.057087358
186	0x3e3026c8	0.17202294
187	0xbe291839	-0.16513146
188	0x3e2b594d	0.16733284
189	0x3e6f7f42	0.23388389
190	0x3e427608	0.18990338
191	0xbed9aff9	-0.4251707
192	0xbe229caa	-0.15880075
193	0x3de1505e	0.11001657
194	0x3e507aff	0.2035942
195	0xbe72f1c4	-0.23725039
196	0xbd51aaab	-0.051188152
197	0x3e56d493	0.20979528
198	0x3e580ec1	0.21099378
199	0x3df75e1e	0.12078498
200	0xbdf09825	-0.11747769
201	0x3d9ba1e5	0.07599238
202	0x3d835b6a	0.0641392
203	0xbe3bd2be	-0.1834211
204	0xbd279d18	-0.0409213
205	0x3d1147db	0.035468917
206	0xbd9cd19c	-0.07657167
207	0x3d4802f0	0.048830926
208	0xbe8348bd	-0.25641432
209	0x3e46632a	0.19373766
210	0x3e197ec6	0.14989766
211	0x3e02095f	0.12698887
212	0xbe23c914	-0.15994674
213	0xbf279c84	-0.654732
214	0x3e7350a3	0.23761229
215	0xbd28e595	-0.04123457
216	0x3e9a3f19	0.30126265
217	0xbe36fd7e	-0.17870137
218	0x3e02c70a	0.1277124
219	0xbe9f04a1	-0.3105822
220	0x3e16ac83	0.14714245
221	0x3e10a143	0.14124016
222	0xbf5d5db7	-0.8647112
223	0x3d9e2387	0.0772162
224	0x3e1a1868	0.15048373
225	0x3aa7fd1e	0.0012816524
226	0x3c48c4f7	0.012253991
227	0x3d88efd5	0.06686369
228	0x3de06cec	0.10958275
229	0x3e0a1596	0.13484797
230	0xbd42a7e5	-0.047523398
231	0xbc9d8ac2	-0.019231204
232	0xbdc009cc	-0.093768686
233	0x3e0cbaa2	0.1374307
234	0x3d6b8e1e	0.05750858
235	0xbddbeca3	-0.10738494
236	0xbe3ae37d	-0.18250842
237	0xbce0368a	-0.027369756
238	0x3ca22798	0.01979427
239	0xbe532ce4	-0.20622593
240	0xb9aaa645	-0.00032548807
241	0xbd86a381	-0.06574155
242	0xbce5332a	-0.027978498
243	0x3e3ac641	0.1823969
244	0xbd888ad8	-0.06667107
245	0x3ec45607	0.38346884
246	0xbc954d61	-0.018225374
247	0x3df8b56d	0.12143979
248	0x3e31b622	0.17354634
249	0x3e10d42b	0.14143436
250	0xbe11af9c	-0.14227146
251	0xbdd28a80	-0.10280323
252	0x3dae4e59	0.085110374
253	0xbd0c57fb	-0.034263592
254	0x3dd254be	0.102700695
255	0xbe8a869f	-0.27055833
