models/autoencoder_barabasi_100k_mean_n.pt (torch, 758337 bytes, 12 tensors)

weight f4 [256, 2]
00000000: 60f4 b8be be6d 1c3f 6d45 84bf d3e2 34be
00000010: 5b96 fa3e 352e 813e 4b4e 35bf 43f7 463e
00000020: b6cf 133e 2792 76bf c56f ccbd 84d8 85bf
00000030: 7d68 00bf 3aa6 03be c43f 0c3e fd63 123e
00000040: 915a 6cbe 955d 83bf 48b2 80be 1378 4dbf
00000050: 7ba7 cbbd bf5c a0be e23d 073d 9b11 bb3e
00000060: 2859 8e3e e02c 16bf 555f 203e 73fb 4d3f
00000070: 3c22 5fbe 57e7 993e 5b51 243f 518f 403e
00000080: 5111 c1be 582c 08bf 89e6 44be 352a 15bf
00000090: 7a8a 753d 0e6c dc3d 692a 50bf 62ee a33e
000000a0: 0c02 75be 8c49 45bf 7a4a 1a3d 7d1e a9be
000000b0: bc71 dabd 66d5 b1bd 3b36 253f c386 dcbe
000000c0: 6ef0 82be fead 553d 06f5 a63c c069 4ebd
000000d0: 5aea fc3e 89e1 95be c7a3 653a 931a fe3b
000000e0: d728 5f3e c215 0d3d a522 3dbf 9a22 b2be
000000f0: 2ddb 743e d606 22bf f808 24be e5e7 7ebf
00000100: c3b0 c23e c26e 63be 0020 a43e 21a5 203d
00000110: 847e edbd 8906 fa3e b43a 5dbf 6278 09bf
00000120: 2669 1ebe e814 0b3e 060f 83be 03a8 9abf
00000130: e4eb 5fbf e5ca 9d3e 43cf a93e 0e82 86be
00000140: 9d9c 093b 7f22 193d 3686 44be ba6f 2c3f
00000150: 01d2 d53e 1e5c db3e ef80 8d3e 8a26 a2be
00000160: d206 99bd 58b7 0d3e f66b dd3e db5e d539
00000170: 5c91 66bf 3dcb 053f d13c 683e f6a3 0bbe
00000180: 9439 7cbe 2cb2 efbe 9a21 573f b5d2 d2be
00000190: a9d0 25be 062e 37bd d156 47be c4c8 203f
000001a0: 6fac 1abf 6bb4 233d 0f76 9cbe 649a 373e
000001b0: 293e 5abf db83 193f 95d8 9dbe 692b 003e
000001c0: ab83 de3d 423a 383f 4f20 b5bd a427 bdbe
000001d0: c663 d23c dd86 5d3d 72da c03e 7f64 b23e
000001e0: cddc ac3e 35da 253f ed4a 0c3f a5e4 e33e
000001f0: 9d78 a73d c3f4 fc3a 466f 9e3e 9b54 863e
00000200: c673 063f 02fa 263f 1abc b93e 947f 3b3d
00000210: b7a1 d93e b8a6 a9be 1b88 323d c7e0 b0be
00000220: e704 083b 89e6 993e 996d 47be 9441 e43e
00000230: 1ce6 cebe c921 84bf 9e96 373e 8ccb 2c3e
00000240: e36d bfbe 3d8c c43b aeed 533e 2bad bfbe
00000250: cba0 083f ad0c 12bf 13fc 843c c2ed 163e
00000260: f888 363f e428 dcbe 17f0 23bf 0e06 dfbd
00000270: cf81 363e 4c9a a6be e4d3 763e dda7 513f
00000280: 9a62 e93d c6db 223e a0b2 223e 1be7 0d3f
00000290: f1a2 84bd b729 d33d e7d3 68bf 3372 883e
000002a0: d58a 303e 7645 5ebe 2041 21bf 5ea4 103e
000002b0: 3240 2cbf a4b1 a93b 5c6c 0e3f 4c0f 313f
000002c0: 5d5f fb3d 7ecb b53e 2236 b73e a0a4 503f
000002d0: 617d 24bf 360f 143f b3a5 48bd 02c6 d13d
000002e0: 691d 20bf 781e 6fbe e9f5 82bd cf55 84bf
000002f0: 47fd fdbe 36e3 6c3d 5d7f 4cbf 1932 8dbe
00000300: f6a1 49be 7943 473d d0ea 25bf fdb7 ed3d
00000310: c4e5 183f d1cf d13e 7322 a73d 92fd f0bd
00000320: 3092 303f ca44 453f 7bc7 6dbf 4009 b4be
00000330: 43d1 af3e be35 9cbe 40cf b03e 6b24 11be
00000340: da97 46bd a2b2 0c3e f849 31be b833 3ebe
00000350: 860b 79bf 5927 963e a0bf efbd b02d 73bf
00000360: d12f 683e 8feb 1fbd 05ba 8d3d 22d3 a5be
00000370: 065b aebe 7892 543e 31da c1bd 7d36 ebbd
00000380: 7f4a f1be 2a1e 183c e4d4 3fbf 2d1b 46be
00000390: 06a5 74bf 3085 f0bd d832 d63e 1d42 a4be
000003a0: ba40 d7bd af9d 90bf 82d2 b13e a0cb 893e
000003b0: 2007 4d3f 9701 50be 8646 1b3d f73c 88be
000003c0: f397 173f e076 cbbe 5e46 063e 268c a23c
000003d0: a054 c23e 0115 f2bc 5bab 34be 2b37 d4be
000003e0: 8f04 ab3e 49e0 a8be bd9a e73e 9905 57bd
000003f0: 407d 1e3f b4d5 2a3f a141 a73e e2dd 533f
-0.36123943 0.61104953 -1.0333687 -0.17664652 0.48942837 0.25230566 -0.7082259 0.1943026
0.14434704 -0.9631676 -0.09982256 -1.04567 -0.50159436 -0.12856379 0.136962 0.14295955
-0.23081423 -1.0262934 -0.25136018 -0.80261344 -0.09944054 -0.3132076 0.033018 0.3653687
0.27802396 -0.58662224 0.15661366 0.80461806 -0.21790403 0.3005931 0.6418664 0.18804671
-0.37708524 -0.53192663 -0.19228567 -0.5826753 0.059946515 0.10762797 -0.8131471 0.3201781
-0.23926562 -0.7706535 0.037668683 -0.33031073 -0.10666224 -0.08683281 0.64535874 -0.43071565
-0.25574058 0.052167885 0.020380508 -0.05039382 0.49397546 -0.29273632 0.00087600615 0.0077546327
0.21792923 0.034444578 -0.7388099 -0.34792024 0.23911734 -0.6329168 -0.16019046 -0.9957259
0.38025483 -0.2221022 0.32055664 0.03921998 -0.115963966 0.4883311 -0.864177 -0.53699315
-0.15469798 0.13582194 -0.255974 -1.2082523 -0.87469316 0.3081886 0.3316594 -0.262711
0.002099789 0.037386414 -0.19191822 0.6735798 0.41761783 0.42843717 0.2763743 -0.31670028
-0.07472004 0.13839471 0.4324643 0.000406972 -0.9006555 0.5226324 0.2267945 -0.13636765
-0.2463134 -0.46815622 0.84035647 -0.41176382 -0.16192879 -0.044721626 -0.19466712 0.62806344
-0.6041936 0.03996698 -0.30558822 0.17929989 -0.852511 0.5996682 -0.308293 0.1251656
0.108649574 0.71963894 -0.08844053 -0.36944306 0.025682341 0.054083694 0.3766666 0.34842297
0.33762208 0.6478608 0.5480183 0.4451038 0.08177302 0.0019299019 0.3094427 0.26236424
0.52520406 0.6522523 0.36276323 0.045775965 0.4250619 -0.3313501 0.04358683 -0.34546492
0.0020754875 0.30058697 -0.19475402 0.44581282 -0.40409935 -1.032281 0.1792855 0.16874522
-0.37388524 0.005998163 0.20696136 -0.37436804 0.5337035 -0.5705059 0.01623348 0.14739135
0.7130275 -0.42999947 -0.64038223 -0.10889827 0.17822956 -0.32539594 0.24104267 0.81896764
0.1139576 0.1590415 0.15888453 0.55430764 -0.06476391 0.10310691 -0.9094834 0.26649627
0.1724046 -0.21706185 -0.6299 0.14125201 -0.67285454 0.005178647 0.55634093 0.69163966
0.122740485 0.35506815 0.35783488 0.815012 -0.64253813 0.5783571 -0.048986148 0.10242845
-0.62544876 -0.23351467 -0.0639456 -1.0338687 -0.49607298 0.057833873 -0.7988184 -0.27577284
-0.1969069 0.04864833 -0.6481142 0.116073586 0.59725595 0.40978864 0.081608675 -0.11767115
0.68973064 0.7705809 -0.9288251 -0.35163307 0.34339342 -0.30509752 0.3453312 -0.14174049
-0.04848466 0.13740018 -0.17313373 -0.18574417 -0.9728321 0.29326895 -0.117064714 -0.9499159
0.2267449 -0.039043006 0.06920246 -0.32387644 -0.3405382 0.20758998 -0.09465445 -0.11485002
-0.47127149 0.009284535 -0.7493422 -0.19346304 -0.95564306 -0.117441535 0.41835666 -0.3208169
-0.105103925 -1.1298121 0.34730917 0.26913166 0.80088997 -0.20313106 0.037909053 -0.26609012
0.5921623 -0.39739132 0.1311278 0.019842219 0.3795519 -0.029551031 -0.17643492 -0.4144834
0.33401915 -0.32983616 0.45235243 -0.052495573 0.61909866 0.66732335 0.32667258 0.8276044

bias f4 [256]
00000000: 960d 1fbe 83c5 933e ac42 2cbf 895a 4b3e
00000010: 270e 63bf 8ba5 1cbf c9f3 f93e 5223 0cbe
00000020: 352f 38bf ae62 36bf 24ca 75be c9b9 30bf
00000030: e7e6 8f3e 8488 b6be 579e 64be ca37 dfbe
00000040: 5577 dd3e 62ed 4b3f 23ec 613e 56e0 36be
00000050: 1af8 3ebf 1f54 763e 4287 113e 3bb4 83bd
00000060: 5130 c23e ed7f 043d e336 16be 6ed9 04bc
00000070: 4be8 f8bc 0b3e 253f 5963 c93e 82f8 43bf
00000080: 3f76 e0be 741b 58be 3148 dfbd eb16 2b3f
00000090: a297 e9bc 1585 e7be f3c1 3f3e 8a1e f3bd
000000a0: ae0a 19bd d5b4 0ebe 06a9 0ebe a9fe 94be
000000b0: 5be1 afbd 79b1 8c3e 33b2 28be 606f 1e3f
000000c0: 0d56 70bf fb67 b1be 6abd 0d3e 766d cd3c
000000d0: 2935 1f3f 39b8 2c3b 5cc9 53be feb6 b53e
000000e0: cff1 8ebe 94e4 183f 8cfb 85bd f230 66be
000000f0: b716 38bf c6ad 04bf 27df 61bd ed4e a1be
00000100: 87f2 123d 146c b2be 122a a639 109d 0dbf
00000110: ce0b 10bf f42f fbbd 4c42 04bf 10aa ee3c
00000120: cdc6 963e 8198 b4be 7076 c93d f9a2 eebe
00000130: dab2 253f 0b87 3f3f 8c32 0a3f b9a3 04bf
00000140: 7d77 45be 1bc8 233e d04b f93d 5ce9 bd3e
00000150: 3332 37bf ebcc 613e 2581 913d 55f1 91be
00000160: 3cbc 10be d085 29bf ca41 413c 0455 2dbf
00000170: ab64 823e e0f5 42bf 0efc 1f3f 0b4d a43e
00000180: 9492 f0be 00bb 133f f53a 00bf ee7a 533d
00000190: 5044 15bf f3c3 173f d2c3 cabe df71 b03e
000001a0: 69a2 fcbe df23 5e3e bf8e dbbd c6d9 50bf
000001b0: da77 d6bd 7800 e63e 4a58 0cbf 328b 3cbf
000001c0: 75e5 0e3f ac77 9b3e c38c 0c3f 8d95 033f
000001d0: d291 28bf 59ac 2c3e 7fd8 14bd 5eb7 953e
000001e0: 318b 50bd bde3 a43e 9140 d43b be73 1cbf
000001f0: d71e 9a3e 9d91 853e 73e3 c1be 342d 0bbf
00000200: ae69 47bf 6e3d e13e 3718 d23e 9a6e 98bd
00000210: 37ae ffbe ad8d 6e3e 6052 c03e 800d cb3e
00000220: b06d 0b3f 7c32 903d 7be6 07be 3755 ccbe
00000230: 6805 c3be b7c3 93bd eec3 7cbe bc85 cebd
00000240: b034 93be d3a9 29bf c798 8f3e 24d1 063d
00000250: a368 35bf 0e72 b4bd 64cc 2ebe fe44 35be
00000260: b8ba e4be c444 d03c 2611 28bf 2278 ef3d
00000270: 4b19 063e 1122 153f 69af 593e a417 0a3f
00000280: 4567 96be 510b 103f 8769 283f 07cd 873e
00000290: 2ed5 bebd 7ca7 113f dd98 fbbd dc6f 2ebe
000002a0: 1c28 2cbf 5c73 50be 509a b03e 9749 9abe
000002b0: 8608 b0bd 53a0 0f3f ab9a 24bf 5590 093f
000002c0: 8b66 ca3e 41a8 1cbd aedc 9c3c 5bda 97bd
000002d0: 5e4a 3fbf 52cd e6be 6eca 32bf 1d78 2a3e
000002e0: dde2 dcbd 251d 103d 28f5 2b3f a8ba 63bf
000002f0: c60a 1e3f d2b3 e6be ad2d 00bd 9316 0ebf
00000300: d79a 563e 81b4 4cbf 5a27 5ebd 7af0 10bc
00000310: f1f9 9b3d a645 09bf 5ee2 abbe 9c9f c83e
00000320: e07f 27bf f448 933d 5aec ea3c 9542 51bf
00000330: 1148 a8be 2873 be3e a578 983e b41b 67bf
00000340: 6676 c8bc 8cc7 0f3f cbff 2dbf 475d 2cbf
00000350: a9f0 82be dd01 84be ca37 14bf 89d3 2cbe
00000360: 57b6 60bd cf6a 133f ae4c ab3e 0855 15b7
00000370: 84a8 bd3e 1313 1abf fa9d 9abe d8a1 ebbe
00000380: 8ee8 8a3e b00b 493f 34d1 07bf 14b1 c43e
00000390: 93d3 3cbf a2c2 d23d 7cb0 793e 720c 39bf
000003a0: 88a7 c5bd 4b7a 993c 0488 a73e b5c6 743c
000003b0: 7b56 cdbd 3e1d 87b9 4c10 dfbe 7a1b f0be
000003c0: 1c76 19bf bf44 01bf 52f7 a3be be3c 8cbd
000003d0: a70b adbe dafa 083f f72c 82bc c1e6 42bd
000003e0: a44c cd3e 3d21 ffbe 2634 e23e 7e50 1bbf
000003f0: d849 053f b822 54bf 8ef1 19be 2a75 0b3f
-0.15532526 0.28861627 -0.67289233 0.19858755 -0.8869347 -0.611901 0.48818806 -0.13685349
-0.7194703 -0.71244323 -0.24002892 -0.69033486 0.28105852 -0.35651028 -0.22326027 -0.4359725
0.43255106 0.7965909 0.22062735 -0.17859015 -0.7459732 0.24055527 0.14211753 -0.064308606
0.37927487 0.032348562 -0.14669375 -0.00810848 -0.030384203 0.64547795 0.3933361 -0.7655107
-0.43840215 -0.21104223 -0.10902441 0.66831845 -0.028514687 -0.4521872 0.1872633 -0.11871059
-0.0373637 -0.1393617 -0.13931665 -0.2910054 -0.08587905 0.2747915 -0.16474228 0.61888695
-0.93881303 -0.34649643 0.13841787 0.02507661 0.6219049 0.0026354922 -0.20682281 0.35491174
-0.2791886 0.5972378 -0.065421194 -0.22479609 -0.7190966 -0.5182766 -0.055144455 -0.31505528
0.035875823 -0.34848082 0.00031693332 -0.55317783 -0.5626801 -0.12265006 -0.5166366 0.029133826
0.29448548 -0.352726 0.09837043 -0.46608713 0.6472603 0.74815434 0.5398338 -0.5181232
-0.19283862 0.15994303 0.12172663 0.37092102 -0.7156097 0.22050826 0.071047105 -0.28504434
-0.14134306 -0.66219807 0.0117954705 -0.6770785 0.2546743 -0.76156425 0.6249398 0.3209003
-0.4698683 0.57707214 -0.5008996 0.051630907 -0.5830736 0.5928337 -0.39602524 0.34461877
-0.4934266 0.21693371 -0.10720586 -0.81582296 -0.104720786 0.44922233 -0.5482222 -0.73649895
0.55818874 0.3036474 0.54902285 0.5140007 -0.65847504 0.1686262 -0.03633928 0.2924146
-0.050913993 0.32205 0.0064774235 -0.6111411 0.30101654 0.26087657 -0.37868842 -0.5436585
-0.7789563 0.4399218 0.410341 -0.074429706 -0.49937603 0.23296233 0.37562847 0.39658737
0.54464245 0.07040879 -0.13271515 -0.39908764 -0.38090062 -0.07215064 -0.24684116 -0.100841016
-0.28751135 -0.66274756 0.28046247 0.032914296 -0.7086279 -0.08810817 -0.17070156 -0.177021
-0.44673705 0.025423415 -0.65651166 0.116928354 0.13095586 0.58255106 0.2125832 0.5394232
-0.29375663 0.5626727 0.6578602 0.2652361 -0.093180045 0.56896186 -0.12285016 -0.17034858
-0.672487 -0.20356506 0.3449273 -0.3013427 -0.08595376 0.5610401 -0.64298505 0.5373586
0.3953136 -0.038246397 0.019148197 -0.07414695 -0.7472285 -0.45078522 -0.69840133 0.16647382
-0.10785458 0.035184044 0.67170954 -0.8895669 0.6173519 -0.45059067 -0.03129356 -0.55503196
0.20957504 -0.7996293 -0.054236747 -0.008846397 0.07616032 -0.536219 -0.33571142 0.39184272
-0.65429497 0.07191649 0.028677154 -0.8174222 -0.32867482 0.37197232 0.29779544 -0.90276647
-0.02447052 0.5616386 -0.67968434 -0.6732983 -0.25574234 -0.25782672 -0.5789763 -0.1687757
-0.054861393 0.5758485 0.3345694 -8.90089e-06 0.3704263 -0.60185355 -0.30198652 -0.46021914
0.2713055 0.7853346 -0.53053594 0.3841635 -0.73760337 0.102910295 0.2438373 -0.72284615
-0.09651095 0.018735072 0.3272096 0.014939954 -0.100262605 -0.00025770994 -0.4356712 -0.46895963
-0.59945846 -0.50495523 -0.32024628 -0.06847523 -0.33797953 0.5350777 -0.015890582 -0.047583345
0.40097535 -0.49830046 0.4418041 -0.60669696 0.520658 -0.82865477 -0.15033552 0.54475653

weight f4 [256, 256]
00000000: 78c2 a1bd ffa6 213d 34f7 90bd 636f e23d
00000010: cc53 0ebe 3bc3 b7bd 0689 673e d678 3d3d
00000020: ea79 4abd 80de 0dbe 96ac 15bd 6a82 c7bd
00000030: 4d45 cc3d fa7d f0bd 755f 99bd 6748 d0bd
00000040: fa72 14bc a081 ad3e 9f7a 923d cd17 a6bc
00000050: 5876 13be 5e1a 94bc 6a9d d0bc 2e9c 0ebc
00000060: 33e2 6d3d 4e9f 43bd 43cf b3bd 089b a8bc
00000070: a064 e7bc 1eed f93e 234c fc3d 8ef5 9abd
00000080: a2f2 90bc 99fd 6cbd fdb1 82bd f745 663e
00000090: 8625 f2bb 1bbb dabd 9f27 c63b 0488 04bd
000000a0: a5fc c93c ef57 afbd dd31 05bd f40e a5bd
000000b0: 41a9 19bc 2dd3 193d d715 fa3c d6b4 313d
000000c0: 240a 1dbe 54b2 043c c52d d1bc 2a20 bfbb
000000d0: dd64 083e 4eb1 6e3d 5f44 ebbd 7275 963d
000000e0: ba57 d2bd b0ec 5e3e 3f0d 7f3d 7b31 63bd
000000f0: e03c fbbe 699d 29be d399 3f3d 47c4 35be
00000100: 199e 58bd 7ff1 b5bd 38ac febc cbbe 5abd
00000110: ddac b7bd 5a2b 5ebd 803d 85bd 718c 513d
00000120: 8a38 cb3d 782c 8ebd eaf7 9c3c 1408 3dbd
00000130: 68c6 b03d fb9d 1d3e 9d3e ab3d b7c3 94be
00000140: f670 09bc dc80 afb9 6801 313c 515a 2c3b
00000150: e9a7 16be d6fa 283d da67 1fbd bea1 fdbd
00000160: 53ad 97bc 90ce 67be 552f 57bd 4e12 c4bd
00000170: 841f 973d 173d 92bd 6154 213d d9e3 823d
00000180: f3a7 00be b0f5 fc3d 8329 42be db46 063d
00000190: 7e05 4dbe 685e a43e ae09 13bd 9ffb 2f3c
000001a0: caf0 08be 3811 0e3d f6ab 993c 6da0 0cbe
000001b0: 072f 4d3d 4459 b83d 6b35 cdbd 0e30 53bd
000001c0: 1886 143d 5a7f af3d e7d9 c33e 2336 053e
000001d0: 1a71 b0bd 7c40 aabc df6d c23c 336a e93d
000001e0: 7f97 b1bd 9abb a23d b3ca 88bb 60d9 07be
000001f0: faed fc3d e32f de3c 8409 a6bd 5529 2fbe
00000200: 7486 dcbd 1822 df3d d4ca bb3b 54f7 69bd
00000210: 76ea 4dbe 0274 063e b10e bf3d 6976 3f3e
00000220: 0133 fc3d dad4 703d d892 88bd 9f70 e1bd
00000230: 7798 17be 3bd7 10bd eeda 05be ebac fbbc
00000240: 34cb cebd 8bf6 a4be 9587 2d3e 3f51 45bc
00000250: ce8c 0dbe 7af8 2cbd 0135 23be 935b c7bd
00000260: 93c0 eebd 4f72 29bd 6034 6cbe 964f e33c
00000270: 7ac5 c3bc 0af1 593e f987 dbbc 6957 503d
00000280: 5afb 36be fc77 25bc 03a5 143e cdc4 4c3d
00000290: 84ab 0dbe 1253 953d c3c6 6d3c 4f55 40bc
000002a0: 5b2f 82be fbdb 8ebc aa68 1d3e 202a 71bd
000002b0: 567c 253d 9432 023d 148f c8bd 1945 1c3e
000002c0: 0247 893d c960 05bd 91b5 a53d 3d7b 7bbd
000002d0: 59c7 11be ff1e c1bd dcaf 1bbe cbda f839
000002e0: 6be7 f5bc 1d0e d8bc 95fc 673e 141e 0dbe
000002f0: c94b 513e 8650 4abe ac9e 9abd c802 64be
00000300: e6a0 9e3c ef25 dbbd 00c8 b9bc 74b4 f03b
00000310: 99d7 733d b530 8dbd cd8b 52bc 4bba 223e
00000320: d0a5 bfbe af06 4f3d edc3 adbc 5959 acbd
00000330: ead7 d6bd 9d52 663e ffef 0a3d 464b 14be
00000340: e9a3 39bd f27f fa3d 7942 c4bd 0faf 9bbd
00000350: 3f6a 9cbd 51da 8abd c44e a5be 48b8 093c
00000360: fd91 3ebd 9201 303e 90b8 8a3d 3dab f03b
00000370: 8bd9 ac3d 0b2c 92bd fca1 14bd fd01 bdbd
00000380: 8a75 003d 0817 bb3e ed35 59bd b610 a73d
00000390: 658b 1cbe cb8a 0c3d 541e 313b a70a 08be
000003a0: f740 a3bd 8658 3bbd 05fa d53d 0958 2bbc
000003b0: 1547 783d 17ab b0bd c1f0 88bd 0ec0 fbbd
000003c0: 919f b1bc 7e96 07be ae8e adbd a496 1ebd
000003d0: ff0c d0bd 8a6f 233e 098c f23c 893f f83d
000003e0: 45f5 653d 2cc1 45be c7de 833d 0812 1fbf
000003f0: be9c ca3d f214 62bd 3c56 a1bd b1e5 043d
-0.0789842 0.0394659 -0.070784 0.110564016 -0.13899153 -0.08972784 0.22610864 0.046257816
-0.049432673 -0.13854408 -0.036541544 -0.097416714 0.099741556 -0.11742778 -0.0748891 -0.1017006
-0.009060616 0.3388796 0.07152294 -0.020275021 -0.14400613 -0.01807898 -0.025465686 -0.008704228
0.05807705 -0.047759347 -0.087797664 -0.020581737 -0.028246224 0.4881372 0.123192094 -0.07566367
-0.017693821 -0.057859037 -0.06381605 0.22487627 -0.007389727 -0.10680219 0.0060472037 -0.032356277
0.024656603 -0.08561694 -0.032518256 -0.08059493 -0.009378732 0.03755491 0.030527992 0.04338535
-0.153359 0.008099157 -0.02553452 -0.0058326917 0.13319726 0.05827456 -0.1148765 0.0734662
-0.10270639 0.21769977 0.06226849 -0.05546711 -0.4906988 -0.16563953 0.046777558 -0.17750655
-0.05288515 -0.08883952 -0.03108798 -0.05340461 -0.08968518 -0.054240562 -0.06505871 0.051159326
0.09922893 -0.069420755 0.019161183 -0.046150282 0.08631593 0.15392296 0.08361552 -0.2905557
-0.008388748 -0.0003347461 0.010803558 0.002629895 -0.1471249 0.04125484 -0.0389174 -0.123843655
-0.018515265 -0.22637391 -0.052535374 -0.09573804 0.07379058 -0.07140558 0.03938711 0.06391115
-0.12564068 0.12351549 -0.18961148 0.032782417 -0.20021626 0.32103276 -0.035897903 0.0107411435
-0.13373104 0.03468439 0.018758755 -0.13733073 0.050093677 0.09001401 -0.10019954 -0.0515595
0.036260694 0.08569212 0.38252184 0.13008933 -0.086153224 -0.020782702 0.023734031 0.11397209
-0.08671474 0.079459384 -0.0041745543 -0.13266516 0.12350078 0.027122444 -0.08107284 -0.1710561
-0.107678324 0.10895175 0.005730966 -0.057120636 -0.20108971 0.13130191 0.09328974 0.18697514
0.12314416 0.05879674 -0.06668633 -0.11007809 -0.14804254 -0.03536151 -0.13071796 -0.030722102
-0.10097352 -0.32219347 0.16946252 -0.012043296 -0.13823244 -0.042229153 -0.15938188 -0.09734263
-0.11657824 -0.04136878 -0.23066854 0.02774791 -0.023897875 0.21283355 -0.026798235 0.05086461
-0.1786932 -0.010099407 0.14516072 0.04999237 -0.1383496 0.07291235 0.0145127205 -0.011739089
-0.25426754 -0.01743888 0.15371957 -0.058878064 0.04040178 0.031786516 -0.09792915 0.15260734
0.06702997 -0.032563005 0.08091272 -0.061396826 -0.14236201 -0.0942974 -0.15203804 0.0004746526
-0.030017575 -0.026373917 0.22654946 -0.13781005 0.20439066 -0.1975728 -0.075497955 -0.22266686
0.019363832 -0.10700595 -0.022678375 0.0073457304 0.05953178 -0.06894056 -0.012850714 0.15891378
-0.37431192 0.050543483 -0.021211589 -0.08415479 -0.10490401 0.22492452 0.033920284 -0.1448184
-0.045322333 0.12231435 -0.09582991 -0.07601749 -0.07637452 -0.06779922 -0.32286656 0.0084057525
-0.046525944 0.17188099 0.06773484 0.007344632 0.084399305 -0.07137307 -0.036287293 -0.09228895
0.031362094 0.3654101 -0.053029943 0.08157484 -0.1528755 0.03431205 0.0027026134 -0.13285314
-0.079713754 -0.04573872 0.10448078 -0.010458001 0.060614664 -0.08626383 -0.06686545 -0.12292491
-0.021682533 -0.13241002 -0.084744796 -0.03871788 -0.10158729 0.15960518 0.02960779 0.12121493
0.05614211 -0.1931197 0.06438976 -0.6213689 0.098931774 -0.055195756 -0.07877776 0.032445613

bias f4 [256]
00000000: be61 1b3e 378b 98bd a4a2 033e efc1 18bd
00000010: 7fbd e9bd b9d6 943d 0650 1c3e bc39 5abc
00000020: b835 e43d 9c7e 7c3d e30e 97bd e0d5 91bd
00000030: e2e2 853d fcd9 0c3e b45d e73c a3e3 c93d
00000040: 0fe8 4bbc 686c b7bd 8347 6cbd 7fc8 bd3d
00000050: 67da a3bd d8e6 6ebc c993 41bd 26cc dd3c
00000060: 769b ca3d f748 2b3d 1829 92bd 9fd9 c03c
00000070: 443e 89bc dabe c53d dc37 713d bf37 523d
00000080: c2d8 9abc 65f1 67bb e459 b2bd d88a 303e
00000090: bad5 77bd 3d46 de3d d62a 43bd 4dc2 b7bd
000000a0: 5e81 993d cfd4 4c3d 5176 153e 824f 913d
000000b0: 56d0 a7bc e6c0 013e 8a19 b33d 91c0 913d
000000c0: 10f9 36bd 6266 253e f43f 9c3d cfa3 003e
000000d0: 2018 15bd 2ac3 3ebd ba85 843d 0ea4 b13d
000000e0: 7160 01be cbbe d73d 82ce 033e a92a 18bc
000000f0: 9bb7 e9bd fede a3bd 8a6d f73d fdd0 0a3e
00000100: 9c8b 883b 5deb b63d 1cc3 59bb e4b5 e63d
00000110: 2232 8f3c 7cdf 5e3d 8a90 d739 4a5b b33d
00000120: 1259 a63d 7ea3 403d 7ea7 73bd 4257 033e
00000130: 49d8 d1bc a113 0ebe 4db5 0e3d 5d5d 243d
00000140: e91e 113b 2a8e 623c 4121 a2bd ac34 3a3d
00000150: 9a29 b73d 74d8 743d 6936 2dbd b46b 183b
00000160: e649 95bd 57c6 13bd fbde 29bc 7f4b cd3d
00000170: f064 f63c 3dfe 0e3e 26ff f43c 8d86 4bbd
00000180: ac6c 93bd b941 e7bc 734a 20bd bde3 c23d
00000190: bedb a43d ba08 90bd 2dac 0e3e 7381 4a3d
000001a0: d8f4 ac3d 3df2 a63d 1e0c 083e 6913 bb3d
000001b0: 8b21 143d 047b 90bd 9e33 303d e6e9 1d3e
000001c0: c831 e43d f391 c13d 0e6a 733d a10c a13c
000001d0: 6ff3 933d 79c1 ac3d 89b8 2b3e 142d 4bbd
000001e0: bcc8 013d 8d51 123e 7b49 2ebc 3797 67bd
000001f0: d3bb 69bd 7f5f 97bd bcad c13c 11cc 91bd
00000200: e6fc b03d a885 c53d 86cd 9a3d 18c8 31bc
00000210: c747 14be 94b2 51bd 803f 5b3c 4c4d 353d
00000220: 4e1a 873d caac d4bd 9f8c da3c 1fad 063d
00000230: 097f 003e dbc6 b9bc 43b2 c53d e67f ff3d
00000240: 6593 743d 2a7e ed3d 6d11 7f3d bda8 08be
00000250: f30b 4f3b d2b2 b53c 4de4 303e c76f f73d
00000260: 13de 143e 64a9 d13c 9d41 fe3d 0a96 9e3d
00000270: f5b7 103e 3d7c d53d fc62 37bc cd1e 733d
00000280: e845 143e 5e1c cebb 679e 3f3c dd2f 8fba
00000290: 2eb4 f03d 68f8 883d 1aaf 4f3d 1fc1 0b3d
000002a0: 9c3e 3cbd 5b89 d0b9 46c6 b03d 6e2b d83d
000002b0: a480 fb3d 8bc7 023e 9d0a ef3d fb38 083e
000002c0: 11a6 b4bd 8234 973c 4ecf e73d dba5 263d
000002d0: 97b6 afbd a950 6bbd 4d71 15bb 2669 f03d
000002e0: bfef a83d 163f 323d d5d4 ee3d 091d f53d
000002f0: 0e55 8ebc e468 21bc dc05 e63d 19fe a33d
00000300: 6dd6 b43d a53a 9fbd fee3 c13d cfb2 b63d
00000310: 9877 ed3b 5dc8 16bd 51a2 6bbd 1968 f2bd
00000320: c7ee 92bd 41e5 9a3d 7317 94ba ca99 b4bd
00000330: 8fee 8f3c 6769 103c 303e 603d 5472 7e3d
00000340: 3ec0 9f3d d805 d73d 0fd9 09be 597b a8bd
00000350: cf96 ddbd 6ce9 303e 3445 d0bd 2513 0c3e
00000360: 228a 9e3d 89e0 b0bd 5f73 953d e07c 23bc
00000370: 4fc4 6ebd 8b9a bebd 1fbe cd3d 8214 313e
00000380: 06ba 783c 5e51 b3bd 2869 9b3d 9dc4 8e3c
00000390: 4b7d 033e 12ec 1e3e dcb3 943d f767 04bb
000003a0: f48b de3d a327 81bd 5268 9c3d 1c12 033e
000003b0: 6f2a a33d aa86 b83d 510b 733d 3ceb 023e
000003c0: 65b1 7abd 24dd 0c3e c6b9 0dbd a05e 583d
000003d0: 5df6 6abc c299 dbbd 580c fe3d 6911 4dbd
000003e0: d05f 08bc 4e2f f3bc aa6b 81bd 9e1b 833d
000003f0: be83 013d 9c58 953d 16ab 8dbd 7949 98bc
0.15174004 -0.07448428 0.12855011 -0.037294324 -0.11413097 0.072675176 0.15264902 -0.013319429
0.111430585 0.06164418 -0.07375886 -0.071208715 0.06537415 0.1375503 0.028242923 0.098578714
-0.012445464 -0.08956224 -0.057685386 0.09266757 -0.08000641 -0.014581405 -0.04726008 0.027074885
0.09892933 0.04181763 -0.07136744 0.02354127 -0.016753323 0.09655543 0.058891162 0.051322695
-0.018902186 -0.0035391685 -0.087085515 0.17240465 -0.06050656 0.10853241 -0.047648273 -0.08972607
0.07495378 0.050007638 0.14595915 0.07095243 -0.020485085 0.12671241 0.087451056 0.07116807
-0.04467112 0.16152337 0.076293856 0.12562488 -0.03639996 -0.04657284 0.06470819 0.08673869
-0.12634446 0.10534438 0.12871745 -0.009287515 -0.11411973 -0.08001517 0.1208144 0.13556285
0.0041670334 0.08931611 -0.0033227867 0.11265162 0.01747996 0.05441235 0.00041115686 0.087576464
0.081224576 0.04703092 -0.059485905 0.12826255 -0.025615828 -0.13874675 0.03484087 0.0401281
0.0022143668 0.01382784 -0.07916499 0.045460388 0.08943482 0.05977674 -0.042288218 0.0023257555
-0.07289486 -0.036077823 -0.010368104 0.10024165 0.030077428 0.13964172 0.02990682 -0.049688864
-0.07198462 -0.028229581 -0.0391335 0.09516094 0.08049725 -0.070329145 0.13932867 0.04943986
0.08445138 0.08151672 0.13285872 0.091345616 0.0361648 -0.07054713 0.043017976 0.15421256
0.111423075 0.09451666 0.059427314 0.019659342 0.07224166 0.084353395 0.16769613 -0.049603537
0.031685576 0.14288922 -0.010637636 -0.056540694 -0.05706389 -0.07391261 0.023642413 -0.07119001
0.086419865 0.096446335 0.07558732 -0.010850929 -0.14480506 -0.051195696 0.013381839 0.04426317
0.06596814 -0.103845194 0.026678381 0.032879945 0.1254846 -0.02267783 0.09653141 0.124755666
0.05971088 0.115963295 0.062272478 -0.13345619 0.0031592816 0.022179995 0.1727459 0.12081867
0.1453784 0.025593467 0.124148585 0.077434614 0.14132674 0.10424087 -0.011193033 0.059355546
0.14479792 -0.0062900027 0.011695481 -0.0010924299 0.117531165 0.06688005 0.0507041 0.03411972
-0.045958146 -0.0003977519 0.08631568 0.105551586 0.122803956 0.12771432 0.11671946 0.13302986
-0.08820737 0.018457655 0.11318837 0.040685516 -0.08579748 -0.05744997 -0.0022803128 0.117388055
0.08248853 0.043517195 0.11661688 0.11968429 -0.017374542 -0.009851668 0.11231586 0.0800745
0.08829961 -0.077748574 0.09467314 0.08920824 0.0072469227 -0.036812175 -0.057527844 -0.11836261
-0.071744494 0.07563258 -0.0011298492 -0.088183954 0.017569808 0.008814192 0.054746807 0.06212075
0.07800339 0.104991615 -0.13461708 -0.08226652 -0.1081978 0.17276543 -0.101694494 0.13679178
0.077411905 -0.08636577 0.07297396 -0.009978503 -0.058292683 -0.093068205 0.10046028 0.1729298
0.01518107 -0.08755754 0.07588416 0.017427737 0.12840764 0.15519741 0.07260868 -0.002020357
0.10866538 -0.06306388 0.07637085 0.12799877 0.07967078 0.0901006 0.059336964 0.12785047
-0.061204333 0.13756233 -0.034600995 0.052824616 -0.014340964 -0.10722686 0.12404698 -0.05006543
-0.008323625 -0.029685643 -0.063193634 0.06401752 0.03161978 0.072922915 -0.06917398 -0.018589722

weight f4 [32, 256]
00000000: 261d b5bd a67a a93b 8327 893e adb6 4c3d
00000010: 5f7c 7d3d be66 d0bb f07d 5dbe c073 dd3d
00000020: 692e 65bd 6d51 1a3e 5e5f 223e 92dd 8d3d
00000030: 0002 383e de06 92bd d144 ee3d 6fff 2f3e
00000040: 9347 bc3d d6c3 523e 3b31 1d3e 0ec8 04be
00000050: 778c 1f3e 550d 9d3e f4a8 eb3e 5e5f d93d
00000060: 6d0a 83be 7d8d d43d f279 1d3f 9c61 a23d
00000070: e910 673e f754 f63d 75e5 3fbe 3769 ffbc
00000080: c768 e63d ec1c f9bc 39ee 2f3f 7ec5 82be
00000090: 5f10 e53e 684a b3be b20b b83d fe0e 173e
000000a0: a961 ec3d f8f6 efbb cdd3 9bbd 071f 8a3c
000000b0: d0c2 9d3d b866 abbe 4667 1dbe d7eb 8cbe
000000c0: 5e6a 9d3d 3476 27be f62c 803e 8071 6cbe
000000d0: 81f9 b83d f4c2 f93d 39d6 b23e d04a 903d
000000e0: ba58 3e3e 78c9 86be 2fbe 0cbe a2c4 0c3e
000000f0: 5f2c 33bc 2bd8 a93e af0c a9be 658e 9cbe
00000100: 0614 d63d 795a 8bbe d5c8 803e 0a29 05be
00000110: 0e30 003e 4cac 1a3e a05e 6d3d 2c5a 6d3d
00000120: 1f0f 4e3e c3f2 e13d 176c 583b 3498 30be
00000130: d1d1 833d 7c1f e33e 0f75 013e ffca 993b
00000140: 69a1 0e3d 803d b53d ae28 1a3f 4a6a 993d
00000150: 76a7 b33d ddba 063d e44a 623d 7179 5a3e
00000160: a33e 103e 3f79 8b3d c549 a73d 4cc4 acbd
00000170: dfef 173d 5ec5 13be 85ad 073e 2ba2 983d
00000180: ec98 973e 7f77 963d 9f02 e73d 7b5c 42be
00000190: 5bae 85bd c6f3 3c3f 0ef7 0abe 59ae 87bd
000001a0: e955 39be fed1 11be b6b3 383e 4978 8ebe
000001b0: 78fd e33d 5080 db3d 482a 24bd daf4 4fbe
000001c0: 72ae 533e d503 99be b549 52be a056 ea3c
000001d0: 7b4d 783e eb54 483e 0bfd 64be 2182 973d
000001e0: c9e1 823d 418d 71be 2439 f23a 21cb 703e
000001f0: db7b 16bd 32a6 c73d 6dfa 503d 0db3 543f
00000200: cb0b 3fbe a226 303e 0bca 2d3d 4cd8 45bd
00000210: 2143 333f 598d 623f 3dbb 2e3e 6444 52be
00000220: 5c4b 463e c232 0e3e 2bdf c33d 76c8 303d
00000230: b67d 6ebd 0b48 d83d 447f 5c3d 7bb7 32bd
00000240: 1e16 9abe 3a60 f03d 5b20 f83d 98b2 273e
00000250: 511d a0bc 2675 0e3e 76dd 16be 40e4 03be
00000260: a1d2 eabd 6190 bbbd c081 913e 8cc0 7ebe
00000270: fa5e f23c 1f24 333d c789 e93d 1fa7 7f3e
00000280: a80f adbe 7642 ac3d a1f0 5b3b 51b3 f43b
00000290: 3ac0 8bbe 5c80 d7bc 662d a13c 6621 023d
000002a0: 21c1 ce3d ac0c b3bc 6a66 35be 5a20 a8bd
000002b0: a3e4 b1be 462b 5cbe fe44 b8be 2eae 4dbe
000002c0: 1e8d 723d 8fe8 9a3d 61e1 f63c 6f7b 0c3e
000002d0: c453 bf3d df59 7e3e 1112 803c e1f9 69be
000002e0: e2e5 6dbe 4d0b 873e de67 d63d b03d 0fbe
000002f0: f109 8a3d 08de 823d dace a9bd eff6 47be
00000300: b5ea d73d 80c7 e93e 0737 9d3d ad22 153e
00000310: 6f94 553e 39dd fb3d 4094 023d 3947 e43e
00000320: 5b1d 5c3e 7d35 393e ce52 1a3b 5af9 ab3d
00000330: bc44 bd3d fa5f 9b3d 5c85 a23d 7e24 44be
00000340: 3422 f33b 5712 d2bd 8a5a 893c 93a9 bc3d
00000350: c01e ed3d 5fac 90be ced5 d03d ed9f 2fbe
00000360: d746 aebd 09d7 083e b34e 7c3d 5b75 fb3e
00000370: a30e 653c 6ac8 0c3e bdba bfbe cab5 acbe
00000380: 49fb 2c3e 090d 423e 8cbf 993d 7e84 003e
00000390: 1ded 99be e696 6bbe e210 8b3e 393e 953d
000003a0: bc91 a7bb 659a 693c 29d6 863d e5f2 5e3d
000003b0: a554 ccba c6ba 95bc bd66 4cbb a7e6 90be
000003c0: 168c 0f3e ac97 503d 85af 0b3e 29ed 373e
000003d0: 7176 4a3d 4eb5 993e 085c 0b3e f489 e43c
000003e0: 7780 8a3d faed 083e 84d5 393f 962b 48be
000003f0: cde5 433e bf64 923e e1aa 833a 647c 9d3e
-0.0884345 0.0051720915 0.26787958 0.0499789 0.061886188 -0.006359904 -0.21630073 0.10813093
-0.055952463 0.15070124 0.15856692 0.06927027 0.17969513 -0.07130216 0.116342194 0.17187284
0.09193339 0.20582518 0.15350811 -0.1296694 0.15580927 0.30674234 0.46027339 0.10613893
-0.25593892 0.10378549 0.615142 0.07928774 0.22565044 0.120279245 -0.18739875 -0.0311781
0.112504534 -0.030409299 0.68722874 -0.255413 0.44739053 -0.35017705 0.08986606 0.14751813
0.11542065 -0.007323142 -0.07608757 0.016860498 0.07703173 -0.33476806 -0.15371427 -0.27523682
0.076863036 -0.16353685 0.25034302 -0.23090172 0.09031964 0.121953875 0.34929064 0.07045519
0.18588534 -0.26325583 -0.13744424 0.13746884 -0.010935872 0.33172736 -0.3301749 -0.30577388
0.10453038 -0.27217463 0.25153223 -0.13003936 0.12518331 0.15104789 0.05795157 0.057947323
0.20122956 0.11032631 0.003302341 -0.17245561 0.06436504 0.44359958 0.1264231 0.0046933885
0.0348219 0.08849621 0.6021832 0.07490976 0.08772175 0.03289305 0.055247203 0.21335389
0.14086394 0.06810235 0.08168367 -0.08435878 0.037093993 -0.14430758 0.13249786 0.07452806
0.29608858 0.07347011 0.11279797 -0.18980591 -0.06527396 0.7380947 -0.13570806 -0.06625051
-0.18099178 -0.14240262 0.18037304 -0.27826145 0.1113233 0.10717833 -0.040079385 -0.20308247
0.20672014 -0.29885736 -0.2053593 0.02860576 0.24248306 0.19563644 -0.22362153 0.07397867
0.06390721 -0.2358904 0.0018480164 0.23514988 -0.03673921 0.09748496 0.051020075 0.8308571
-0.18656842 0.17202237 0.04242901 -0.04830198 0.70024306 0.8849693 0.17063613 -0.20533901
0.19364685 0.1388655 0.0956405 0.043159924 -0.058225356 0.10560616 0.053832307 -0.04363201
-0.30095 0.11737104 0.12115546 0.16376722 -0.01954523 0.13911876 -0.14732918 -0.12880039
-0.114659555 -0.091583975 0.28419304 -0.24878138 0.029586304 0.04373562 0.11403232 0.24966095
-0.33801007 0.08411114 0.0033560174 0.0074676652 -0.27295095 -0.026306324 0.019674968 0.031770132
0.1009543 -0.021856628 -0.17714849 -0.082092956 -0.34744748 -0.21500883 -0.35990137 -0.20085976
0.05921661 0.07563888 0.030136766 0.13718961 0.09342149 0.2483897 0.015633615 -0.22849227
-0.23232225 0.2637581 0.1046903 -0.13988376 0.067401774 0.06390005 -0.08291407 -0.19527791
0.10542814 0.4566002 0.07676511 0.14564009 0.20857404 0.12298054 0.031879663 0.4458559
0.21495573 0.1808681 0.002354789 0.083971694 0.09241626 0.075866655 0.079355925 -0.19154546
0.007419849 -0.10257404 0.016766805 0.09212031 0.11578131 -0.2825651 0.1019703 -0.1715085
-0.085096054 0.1336328 0.06159849 0.49112973 0.01398054 0.13748327 -0.37447158 -0.33732444
0.16892733 0.18950285 0.07507238 0.12550542 -0.30063716 -0.23006782 0.27161318 0.07287259
-0.0051138084 0.014258002 0.065838166 0.05443086 -0.0015589191 -0.018277537 -0.0031189166 -0.28300974
0.14018282 0.050925896 0.13641174 0.17961563 0.04942936 0.30021137 0.13609326 0.027897812
0.06762784 0.13372031 0.72591424 -0.19547877 0.19130631 0.28592488 0.0010045433 0.30758965

bias f4 [32]
00000000: bc69 6cbd 467f 173e 1817 b63d 9fc5 f83d
00000010: 7b04 e9bd cb47 8dbd 0784 a73d ebbe e8bd
00000020: 5201 ef3d c6f6 51bd 97e5 3f3e 130c 28be
00000030: ddea 043e 85be db3d dda7 f03d 24fc cdbd
00000040: fbb9 9d3d 85a1 243e ccb6 e73d 9af9 2fbe
00000050: 555d 3b3e 1884 b13c 173d 5ebe f366 42be
00000060: 2548 fabd 7eff 7b3e ecbe 203e c36a 003e
00000070: b8e9 b83d 1317 87be c10d 74bd f4df b23c
-0.057718024 0.14794645 0.088911235 0.12147068 -0.11377808 -0.06898459 0.08179479 -0.1136454
0.11670174 -0.051260732 0.18739925 -0.16410856 0.12980218 0.10729698 0.117507674 -0.10057858
0.077014886 0.1607724 0.113141626 -0.17185059 0.18297322 0.021669433 -0.21702991 -0.18984585
-0.12220792 0.24609181 0.15697831 0.12540726 0.09028953 -0.26384792 -0.05958343 0.021835305

weight f4 [256, 32]
00000000: a7d9 883e 8932 253e b010 bc3c 813d 2b3e
00000010: 2f21 9a3d 87da 503e 1853 43be 29e7 3b3e
00000020: 820e efbd 9247 0a3e 9702 9bbc a463 413d
00000030: fe5a 8abc 3a02 a3be 16c4 0a3e e5fa 4abe
00000040: bea0 52bc 02b2 d9bd 89ec 123b dc33 043e
00000050: 6e83 93bd b497 863e 5590 f1bc 3635 053e
00000060: a283 b6bd fe4d 06be 06d2 febb 6dc4 cf3c
00000070: d937 b63d a14f 183e 7a11 333d d97b 3fbd
00000080: f1e3 6abe 63e6 71bd 3861 373c 9002 29be
00000090: c61b d13d 336c 9bbd 71d4 16be 86ae 4ebe
000000a0: 92cf ccbd f70a 503d 62b8 e23e a639 903d
000000b0: 8873 423e df64 1c3e 5840 aabd f1f5 01be
000000c0: 68e1 983d d247 703d 35ba cc3e 76a6 2abe
000000d0: 265d 9f3d b80a 13be 45b7 5abe 3b18 5cbe
000000e0: 923a 0a3e 4cf6 9d3e c96e 4e3e 977e 71bd
000000f0: 3fff 083e 9d3c f3bd 1e68 3bbe 87a5 333e
00000100: 50df 3b3b 881c 5abd 502c 0ebe 5bf0 873d
00000110: 35fa b23a b930 2ebc b8ef 1f3e 21cc ea3d
00000120: 9b77 35bb 6e72 5a3c ef8e 593d 5696 143e
00000130: 23e3 13be c6b3 0ebd 4235 b1bd 8fb2 82bd
00000140: 04b2 f9bd c475 9abc f6a0 63bd 601b 543e
00000150: f7ab fa3d a97b b03c 44d6 293e 8357 f63d
00000160: ec63 113e ddef 33bd 6b58 f0bd 7eb7 de3d
00000170: 28e4 363d b88d b33d 46ef 26bd b5e0 f8bd
00000180: 5ec6 31be a91d dbbb 2cc1 28bd 4ef1 02bd
00000190: b583 90bb 2057 143e cce3 7c3d f748 72be
000001a0: ba3a 0c3d 022e d43d 2fe6 723e 636f cebd
000001b0: f2dd e8bd 0c50 893d bf94 203e 8774 2bbe
000001c0: 9f43 973d 57a6 febd f569 eb3e 08e4 46be
000001d0: 113c 983d f8d9 823c fc53 cf3d 41fa 27be
000001e0: e6b5 0a3e eeb5 a13e e891 143e 674b 08be
000001f0: fbd6 b13e a346 27be 9d48 f5bd 7116 e93d
00000200: c6ab 0e3e 0b0e 303e 575e 2abe 19c5 643d
00000210: 586b 333d c5c9 73bd df5c e3bc a25d 65bd
00000220: 124b 063e cdb7 65be e2b6 fabc 3242 6abd
00000230: 7118 ed3d c5eb e43c b7ba 633e d341 55be
00000240: 30b1 583e 784e 4dbc 42bc af3d a73d 05be
00000250: 62ea 1c3e 4842 02bd d186 49bb 4098 8fbc
00000260: 48d3 a8bd 5b95 fdbb fc3d 34be 1b35 b7bd
00000270: 6919 81be d33b 093c 23bc 0d3e c396 11be
00000280: 1ccb f03e 4f64 393e a62c 69be d075 d9bd
00000290: c130 c33a 2ac4 4a3e dd29 52be 9919 913e
000002a0: 4017 053e 9b9d 07be 668d 8cbe 0e09 38be
000002b0: 7e0c 4e3d 85dd 97be 7bdf fd3d b96c 703d
000002c0: 2845 823e 3275 403d d51a 34be fa7a 4ebe
000002d0: 586b 083c a383 133e b7b5 b43d a3bc a3bb
000002e0: 7463 72bb a63d c5bd f09c 1dbe 0399 e1bd
000002f0: 60a2 61be 04a5 b0bd 38be b53d ab73 95bd
00000300: f670 af3e 2c69 303e 6e14 6abc 5dfe c7bc
00000310: 89f9 1dbe bbf1 003d e1ef eb3d 4c26 513e
00000320: e0fc 413e 8890 85bd fbd9 89bd 5955 85be
00000330: 3cf0 793e 2cfa 62be c820 0f3d 082e 11be
00000340: a74e b2bd 3873 6ebd 3fda 5dbe 4835 5a3d
00000350: 3bbb de3d 4e68 4a3e 3c19 6dbe f626 8a3c
00000360: 1771 a9bd 7475 a43d 0a06 7ebd 0e63 03bd
00000370: 7939 52be 4fbe 99bd 82ba 81bd 2ed6 1dbe
00000380: d899 b03d 5e15 393e bd8c bebc 6a61 f3bd
00000390: 5353 1cbe 3b50 673c 8f47 b13d a9f3 d13d
000003a0: 08c1 c8bb a375 93bd 14bd 35bd d5bc 46bd
000003b0: 8312 3e3e 65e1 43bd 5f3c ea3d 47e2 08be
000003c0: c89f 583e a2fc 103d 96ae 86be 0243 143c
000003d0: 1142 1d3e 54ab 403e 3b9f c43a f0e3 37be
000003e0: bd73 c13c 8db7 1c3d 9cf7 5cbe 2695 26bd
000003f0: 16fe 55bd 64ee 0dbe aaa3 f33c c752 bdbd
0.26728556 0.16132559 0.022957176 0.1672268 0.075258605 0.20395862 -0.19074667 0.183499
-0.11672689 0.13503864 -0.018922133 0.047214165 -0.016889092 -0.31837636 0.13551363 -0.19822271
-0.012855707 -0.106296554 0.0022418818 0.12910408 -0.072028026 0.26287615 -0.029487768 0.1300858
-0.08911826 -0.13115689 -0.0077765016 0.025362218 0.08897371 0.14874126 0.04371784 -0.04674897
-0.22938515 -0.059057605 0.011192612 -0.16504884 0.102103755 -0.07588997 -0.14729477 -0.20183763
-0.100005284 0.050791707 0.44281298 0.070422456 0.18989384 0.15272854 -0.08313054 -0.12691475
0.07464868 0.058662243 0.39985815 -0.16665062 0.077814385 -0.14359558 -0.21358974 -0.21493618
0.13498905 0.30851972 0.20159449 -0.058958616 0.13378619 -0.118767954 -0.18301436 0.17543612
0.002866704 -0.053249866 -0.13884091 0.06637641 0.001365489 -0.010631734 0.15618789 0.11464716
-0.0027689699 0.013332946 0.053114828 0.14510474 -0.14442115 -0.034839414 -0.08652736 -0.063817136
-0.12192157 -0.018854983 -0.055573426 0.20713568 0.12239831 0.02154334 0.16585642 0.1202841
0.14198273 -0.043929923 -0.117356144 0.10874842 0.04465118 0.08767265 -0.040755533 -0.121522345
-0.17360827 -0.0066868854 -0.041199848 -0.031968407 -0.004410232 0.1448636 0.06174068 -0.23660646
0.034235694 0.10360338 0.2372062 -0.10079839 -0.11370458 0.06704721 0.15681742 -0.1674367
0.073859446 -0.124340706 0.45979276 -0.19422925 0.07433332 0.015973076 0.101234406 -0.16404058
0.13545951 0.31584114 0.14508784 -0.13310014 0.3473433 -0.1633554 -0.119767405 0.113812335
0.13932714 0.17192857 -0.1663755 0.05585203 0.043803543 -0.059518594 -0.027754245 -0.0559975
0.13114575 -0.22433396 -0.030604783 -0.057192035 0.115769275 0.027944455 0.22239195 -0.20825891
0.21161342 -0.012530915 0.08580829 -0.130118 0.15323785 -0.031801492 -0.0030750523 -0.017528653
-0.08243424 -0.007738752 -0.1760177 -0.08945676 -0.252147 0.00837608 0.138413 -0.14217667
0.4702996 0.18104671 -0.22770938 -0.10618174 0.0014891849 0.19801393 -0.20523782 0.28339842
0.1299715 -0.13243715 -0.27451628 -0.17972204 0.050304882 -0.29661193 0.12396141 0.058697436
0.25443387 0.046986766 -0.1758836 -0.201641 0.008326374 0.14405684 0.08823722 -0.0049968525
-0.0036985548 -0.09630899 -0.15391898 -0.11015513 -0.22034597 -0.08625224 0.08874172 -0.072974525
0.3426587 0.1722762 -0.014287097 -0.024413282 -0.15427221 0.031480532 0.11520363 0.20424765
0.1894412 -0.06521708 -0.067310296 -0.26041678 0.24408048 -0.22165745 0.034943372 -0.14177716
-0.08706408 -0.05821535 -0.21665286 0.05327347 0.10875555 0.19766352 -0.23154157 0.016864281
-0.08273523 0.08030215 -0.062017478 -0.032076888 -0.20529737 -0.075070016 -0.06334402 -0.15413734
0.08623093 0.18074557 -0.023260469 -0.11883815 -0.1526616 0.0141182495 0.08656227 0.102515526
-0.0061265267 -0.07200172 -0.044369772 -0.048519928 0.18561749 -0.047822375 0.11437296 -0.13367568
0.21154702 0.03539718 -0.26305073 0.009049179 0.15357234 0.18815356 0.0015001068 -0.17958045
0.023614759 0.038260985 -0.2157883 -0.040669583 -0.05224427 -0.1386047 0.029741127 -0.09244304

bias f4 [256]
00000000: d4b9 c43b 5f2c f93e c3f7 37bc cd5e e13e
00000010: c5fa 103e 6894 e83d f4c2 1bbe 7030 553e
00000020: fb9f 08be 4227 883c 875f 633d 287a 743e
00000030: 55b0 4dbd f403 c23d 05c8 623e ca3e 9b3e
00000040: 8501 82be b045 b2bd 41ec 8c3e a893 6f3e
00000050: 665e 873e 3219 0b3f 3a91 a7bb f46e 0bbc
00000060: 102a 1cbe 3488 16bd af8e a5bd 2c23 803d
00000070: 14a3 80be ef3e c73e f03a 33bd 81b3 193f
00000080: a228 883e d567 d2be 1864 09be f124 943e
00000090: 7ecc 4f3a 083a 73bb 7712 2d3e cd6a 523e
000000a0: 915b d23e 12f0 4bbb 52c3 abbe 92ad 923e
000000b0: aa27 343d 9fe0 cd3d 31e6 983d c365 75be
000000c0: 1b6a 173e be1f b43c 3b0a d93e 8dbe 7fbd
000000d0: b3ac 8cbe fb68 763d 587e 9b3e 6451 9c3e
000000e0: 9337 cebe 2310 9b3e 69fc 6dba 7917 e53e
000000f0: 2b83 eabd 126e 41bc 72a2 e63d 2ae4 873e
00000100: 5f94 a0bd 3154 103f 3397 a03e d936 173d
00000110: 9f0b 613e eea2 493d b5e1 933e cb69 89bd
00000120: fcbf 273b 777f ea3d 0ea7 5dbe 8884 523e
00000130: 55b7 bcbd 2c03 993c 2228 ab3e b855 083d
00000140: 4d52 823e 6a3d 59bd 5521 ff3e 5af6 643e
00000150: 6186 9e3e 8ae6 b8be bb05 193e 0bd1 5b3e
00000160: a2f6 28be ad47 e8bd d6b2 503e e180 37bd
00000170: 524c 743e 4834 ab3e 113a 973e 4305 f83e
00000180: b850 033d 6176 b9bd 6f24 1cbd 5347 debe
00000190: 836d ffbd 9043 c13e 5ceb a23e 6db0 ecbd
000001a0: 50ad 95bc 5470 83bd 6653 3bbe e062 9b3e
000001b0: 6a61 9a3e 6368 5b3e 7f35 3ebd cec6 b9be
000001c0: 64e9 703c 5f64 193c 0e34 96be 6135 073e
000001d0: 46bc 89be 3af6 97be da88 8f3e 5570 90bd
000001e0: 95a6 c3bb 1a6a e43d f48c 56be 71aa 90be
000001f0: 97e0 933e 953d 913e 2b90 63bd 8343 b0bd
00000200: 29ca 643e 5bca 403e 7860 b43e 672f 05bd
00000210: 6523 433e 30e3 3d3e 0472 29bc 0ef9 e73d
00000220: 17d4 20bd 4314 94be 5217 223e d4de 31bd
00000230: 444b 013f a573 833c da7b 353d 7924 d53d
00000240: 01fe a2be 0091 cd3e ee44 a33e c76b 3a3d
00000250: 25b9 363e 8320 84bd 3b17 c9be ef5a 83be
00000260: d147 a43e fd20 42bd 1c30 043e 1e2d 3b3e
00000270: 46ad 7b3e 6a1b d5bd 301b a73e ff97 3abe
00000280: 2aa8 fdbb 1777 a7bd 1b3c fa3e 77e7 73be
00000290: d902 163e 39ff bebe d24e 833e efe6 7d3e
000002a0: 5fb0 49be c48e 1e3d c764 ab3d baf8 233e
000002b0: 0bbc 523e 4587 e03c 80aa 3b3e 6ee7 7b3e
000002c0: 8156 2b3e b31c 633d 45da 5fbe 4893 6d3d
000002d0: 2d36 133e 551c 9dbd 160b 5d3e 79b2 14bc
000002e0: 8e75 6e3e 29d1 5b3e 3c6c 093e 68ea e7be
000002f0: 361d 313c a6a5 6bbe 6044 84be 75df 983e
00000300: e8ce 3a3e 0d46 72be 87c7 19bd 7c02 aabe
00000310: 0e98 bd3d deae 8b3e 14ae 1a3e e57a f7bd
00000320: 7fe2 2e3e 49b5 fd3e 726e 32be 9aee 1b3e
00000330: 5bd2 323d 3489 6c3e 8f29 51be 31f1 a03e
00000340: 26a8 e33e 0601 963e 960c b23e f647 48bd
00000350: 78d9 2bbe 4a4c aebe 3064 1a3f 4474 c8bd
00000360: d775 7dbb 44cf 163e 9298 1f3d abb8 9c3e
00000370: 73ef dc3d e7a1 bb3e eede 6f3e 6d71 c93e
00000380: 8138 a9be e22e 933e fe4b 903e cac4 dcbe
00000390: 9962 623e 929f 47be 5c83 aebe c2dc 423e
000003a0: 6218 17bf 09f7 b43e 13fc a1bd 3fc9 c33e
000003b0: 3e5b d8bd 2846 ffbd 50b6 073e adb6 513e
000003c0: 4948 fabd 67a2 743e 2569 d0bd f414 b73b
000003d0: 46c8 2fbe 5ebf 84be 9b1c 7cbc 3895 6f3e
000003e0: a996 f33d a03e e73d f726 e73d 6f31 ddbd
000003f0: be08 dc3e 7ce7 c43d dc30 503e 459e 8bbd
0.0060035978 0.48666665 -0.011228505 0.4401764 0.14158161 0.11356431 -0.15211087 0.20819259
-0.13342278 0.016620282 0.055511024 0.23874724 -0.05021699 0.0947341 0.22146614 0.30321342
-0.25391784 -0.08704698 0.27523997 0.2339617 0.26439208 0.5433532 -0.005113748 -0.00851034
-0.1525042 -0.036750987 -0.08083855 0.062567085 -0.2512442 0.38915202 -0.04375738 0.60039526
0.265935 -0.41094843 -0.13417089 0.28934434 0.0007926895 -0.0037113447 0.16901575 0.20548554
0.41085485 -0.0031118435 -0.33547455 0.2864805 0.04398314 0.10052609 0.074657805 -0.239646
0.1478657 0.021987792 0.42390618 -0.062437583 -0.2747551 0.06015871 0.3036983 0.30530846
-0.40276775 0.3028575 -0.00090784446 0.4474447 -0.114507996 -0.011806028 0.11261453 0.26541263
-0.078407995 0.56378466 0.31365356 0.03691754 0.2197709 0.049227647 0.28883138 -0.067096315
0.002559661 0.11450093 -0.21645758 0.20558369 -0.09214655 0.01867827 0.33429056 0.033284873
0.25453416 -0.053037085 0.49830118 0.223596 0.30961898 -0.36113387 0.14943592 0.21466462
-0.16500333 -0.11341796 0.2038072 -0.044800643 0.23857239 0.33438325 0.2953649 0.48441514
0.0320594 -0.09055782 -0.038120683 -0.4341379 -0.124720596 0.3774686 0.3182019 -0.11557088
-0.018271118 -0.06417909 -0.18293533 0.30348873 0.30152446 0.21426539 -0.046437737 -0.36284488
0.014704082 0.009362309 -0.2933659 0.13203956 -0.26901454 -0.29680043 0.28034097 -0.07052676
-0.005970786 0.1115305 -0.20952207 -0.28255036 0.28882286 0.28367296 -0.05555741 -0.08606627
0.22342743 0.18827192 0.3522985 -0.03251591 0.1905647 0.18543696 -0.010342125 0.113268
-0.039264765 -0.28921708 0.15829208 -0.043425396 0.5050547 0.016046355 0.044307567 0.10407347
-0.31834415 0.4014969 0.31888527 0.04551294 0.17844065 -0.064515136 -0.39275536 -0.25655314
0.32086042 -0.04739474 0.12908977 0.1827893 0.24577817 -0.104056194 0.3263793 -0.18222044
-0.007740994 -0.081770115 0.48873982 -0.23818766 0.14649524 -0.37304094 0.25646073 0.24795125
-0.19696186 0.03871037 0.08368831 0.1601285 0.20579545 0.027408252 0.1832676 0.24600002
0.16732217 0.05544729 -0.21860607 0.058001786 0.14376135 -0.076714195 0.2158626 -0.009075754
0.23287031 0.21466507 0.13420194 -0.45296025 0.010810187 -0.23012409 -0.25833416 0.29857984
0.18242991 -0.23659535 -0.0375438 -0.3320502 0.09257518 0.2728185 0.15105468 -0.12083987
0.17078589 0.49552372 -0.17424944 0.15227738 0.04365764 0.23099214 -0.2042601 0.31434014
0.44464225 0.29297656 0.34775227 -0.048896752 -0.16782176 -0.3404258 0.60309124 -0.09787801
-0.0038674974 0.14727503 0.03896386 0.3060964 0.10787859 0.3664696 0.23424885 0.3934435
-0.33050922 0.28746706 0.28182977 -0.43118888 0.22107925 -0.19494465 -0.34084594 0.19029525
-0.5902158 0.35344723 -0.079094075 0.38239476 -0.10564278 -0.12464553 0.1325314 0.20479842
-0.122208185 0.23890077 -0.10176305 0.0055872146 -0.17166242 -0.25927252 -0.015387679 0.23396766
0.118939705 0.11291242 0.11286729 -0.10800444 0.4297542 0.09614465 0.20331138 -0.06817297
