models/autoencoder_barabasi_100k_n.pt (torch, 758247 bytes, 12 tensors)

weight f4 [256, 2]
000000 c9 ff 0f 3f 7d 14 4d be 53 c8 07 3f 15 f2 ae 3e
       0.5624967 -0.20027347 0.53040045 0.3416907
000010 98 ff ee 3e af 4b 1d bd 7b f8 11 3e 55 f8 28 3f
       0.46679378 -0.038402256 0.14254944 0.66003925
000020 cd 1a f4 3c 7b 00 87 be 11 aa ba be 6f c8 fe 3e
       0.029797936 -0.26367554 -0.36457875 0.49762294
000030 03 a9 25 3e 4d 82 36 3f d8 5f e0 3e 2a 81 3e 3f
       0.16177754 0.71292573 0.43823123 0.7441584
000040 11 2a 0d bf 6b c0 16 bf c2 ec 17 3f 98 11 a1 3d
       -0.55142313 -0.58887357 0.5934564 0.07864684
000050 c6 2a 06 3f 30 67 1f bd 66 73 d1 bd 1a 14 ae 3e
       0.5240902 -0.038916767 -0.10227089 0.3399971
000060 f1 14 62 bf 48 5f 87 3e 15 3e d6 ba 2c 5b 81 bf
       -0.88313204 0.2643988 -0.0016345406 -1.0105948
000070 e6 f6 1c be d1 bb 80 bf d4 78 32 3f 52 03 39 3f
       -0.1532856 -1.0057317 0.6971562 0.7227069
000080 03 56 1a 3f b5 7a 4c 3f 60 61 de be d3 50 76 3e
       0.60287493 0.79874736 -0.43433666 0.2405427
000090 ab 83 3f bf 2a fd db bb 97 3e 70 bd 93 8d 1a 3e
       -0.74810284 -0.006713529 -0.05865344 0.15093069
0000a0 98 da 12 bf ff 97 8a be b3 e2 ca 3e 6e e0 b8 be
       -0.573648 -0.2706909 0.39626083 -0.36108726
0000b0 c3 71 24 3e 23 9f 0f bf 6f 42 7b 3e fc 9d a9 be
       0.16059022 -0.561022 0.24537061 -0.33128345
0000c0 43 43 8c bf 98 9f ac bd a2 e4 31 3e 26 22 d9 3e
       -1.0958027 -0.084288776 0.17372373 0.42408866
0000d0 bb fe e2 3e 85 67 31 3f 98 49 42 bf 63 49 64 3e
       0.4433497 0.69298583 -0.75893545 0.2229362
0000e0 99 75 27 3e 07 03 8a be 15 cb 75 be c1 39 6a bd
       0.16353454 -0.26955435 -0.24003251 -0.057183985
0000f0 1c a6 aa 3e 04 d2 21 3f 79 fa f2 3e 68 bb 0d bf
       0.33329856 0.63211083 0.4745672 -0.55364084
000100 32 36 20 3f 1a 90 4d 3c d9 b9 bb 3e 9b ea 90 3c
       0.62582695 0.0125465635 0.36665228 0.017689994
000110 c2 7e e1 be 05 f2 35 be c7 de 5c be bf b7 f7 be
       -0.4404202 -0.17768104 -0.21569358 -0.48382375
000120 3f 8b a2 be 31 1c ae 3e e4 4e 55 be ab 9a 74 bf
       -0.3174686 0.34005883 -0.20830876 -0.95548505
000130 8a 50 51 bf 8d 50 8c 3d dc 1e d3 3b 10 ed 08 bf
       -0.8176352 0.06851301 0.0064428877 -0.5348673
000140 8f a3 6d 3e ee d3 ea 3e fd c3 10 be 7f cf 21 3f
       0.23206924 0.45864815 -0.14137264 0.6320724
000150 b6 68 c9 bc 69 07 f1 3e 8c 9a 86 3d 8e bd 06 bf
       -0.024586063 0.47075966 0.06572446 -0.5263299
000160 a7 76 a5 be 15 6a 77 bf 94 6c 1c bf ca cc 35 3e
       -0.32317087 -0.96646243 -0.6110318 0.17753902
000170 92 ad 9f 3e db 89 34 be 7f 75 93 be 35 8e 0a be
       0.3118711 -0.17630713 -0.2880058 -0.1353081
000180 8d 6b 39 3e c6 aa c2 3e 2a 75 e3 be 3e 5e 27 3f
       0.18107434 0.38020915 -0.44425327 0.6537818
000190 30 ed 81 be 83 82 4f be 44 aa a2 be 7e 5b 75 bf
       -0.25376272 -0.2026463 -0.31770527 -0.9584273
0001a0 5a 46 e8 be a6 af 32 3f 34 e9 79 3e 29 fc b6 3e
       -0.45366174 0.6979927 0.24405366 0.35739258
0001b0 25 96 64 bf b2 9f bb be 91 6a f2 3c 4c 05 06 3c
       -0.892916 -0.36645275 0.02959183 0.008179974
0001c0 4e e0 53 3d 2f de 16 bf b7 c4 09 3f 0c c3 de 3e
       0.051727585 -0.58932775 0.5381579 0.43508184
0001d0 e1 93 bc be c4 42 08 3f 1b b6 b9 3d ce b7 5a 3e
       -0.36831573 0.53226876 0.09067937 0.21359178
0001e0 e3 56 29 3f 39 70 7b be 65 6e 35 bf b6 85 e0 3e
       0.66148204 -0.24554528 -0.70871574 0.43852013
0001f0 5f d3 ce be df a0 39 3f 22 b8 13 3f c3 ac b7 3e
       -0.40395638 0.72511095 0.5770284 0.35873994
000200 86 7f 1b 3f 60 72 02 3f 38 51 86 3e 1c 07 01 bf
       0.6074146 0.5095577 0.2623384 -0.50401473
000210 25 7a bd be 15 94 eb 3e 65 26 eb be bb ad 3d 3f
       -0.3700725 0.46011415 -0.4592773 0.74093217
000220 55 dd a4 3e 61 a4 8a be f8 20 3d 3e 84 86 3e 3f
       0.32200113 -0.27078536 0.18469608 0.74424005
000230 f0 79 69 3f 4a 8a 9f be a7 f9 4e 3f 90 f3 aa be
       0.91201687 -0.31160194 0.8084969 -0.33388948
000240 6c bb 37 3f 3f 90 42 3f 5a a4 2a 3f c3 12 0e 3e
       0.7177036 0.7600135 0.6665703 0.13874345
000250 bb 5c ed be 86 d5 a1 bd e1 03 1d bc e2 48 37 3f
       -0.4635981 -0.079020545 -0.009583444 0.71595585
000260 25 7c 0f bf 27 41 47 3f eb ba 89 3e 93 4e 3f 3f
       -0.56048805 0.7783379 0.2690042 0.7472927
000270 11 8c 8d bd 1c 2e af 3d 1e bd ca 3e 28 9d 4b 3e
       -0.06911481 0.085537165 0.3959741 0.19884169
000280 c4 98 06 3e f1 13 76 3e 27 cd be 3e 7f a9 b1 be
       0.13144213 0.24031045 0.37265894 -0.34699628
000290 e5 ba bc 3e ce 7b 7b be 28 09 20 3e f8 76 c2 3e
       0.3686134 -0.24558946 0.15628493 0.3798139
0002a0 05 ec b2 3e 60 2e 0b 3f 72 95 b1 bd b9 11 14 bf
       0.34945694 0.5436764 -0.086710826 -0.5783954
0002b0 1a ab 47 be 8a 6c 32 bf 72 39 4e 3f 20 05 50 bd
       -0.19498864 -0.6969687 0.80556405 -0.050786138
0002c0 9c cf ca 3e c3 13 16 be fc 7a 80 be 11 68 03 3e
       0.39611518 -0.14655976 -0.2509383 0.12832667
0002d0 7d ef ad 3e d3 ae aa be fb 8b a8 3e cb 24 e7 3e
       0.33971778 -0.33336505 0.32919297 0.45145258
0002e0 39 9c ad be 46 d6 85 bf 26 28 d3 3d f1 14 0f 3f
       -0.3390825 -1.0456016 0.10310392 0.5589133
0002f0 a9 74 8f 3e c8 d0 93 3d c8 1a 7c bf 60 e1 32 be
       0.28018692 0.07217556 -0.98478365 -0.17468786
000300 3f 07 70 bf 2c 99 50 be fe 99 de be 8b fd 97 3e
       -0.93761057 -0.2037093 -0.43476862 0.29685625
000310 71 a8 54 3f 14 48 7e be 6b 88 9e be 2f 17 8d bc
       0.8306952 -0.24832183 -0.30963454 -0.017222969
000320 e4 99 4b 3f 3b 0a 02 bf 3b 36 53 bf cd 46 79 3e
       0.79531693 -0.5079686 -0.82504624 0.24343415
000330 23 2b 32 3c fb 09 a4 3e a9 50 90 3e 17 18 1b 3f
       0.010874542 0.32038864 0.2818654 0.60583633
000340 a6 87 30 bd b1 4e 37 bf bd cb 0d 3e 8c 62 9b be
       -0.043098114 -0.7160445 0.13847251 -0.30348623
000350 d5 b6 9b 3e 2c ad f7 3e 37 3c ed be fa b8 6a be
       0.30412927 0.48374307 -0.46335003 -0.22922125
000360 29 25 30 3f 6c cb c9 bd 9e 3f 91 3e b3 82 91 3e
       0.688067 -0.09853253 0.2836885 0.28420028
000370 84 ad 1b 3d 62 c8 95 bf 2f f1 9b 3e 07 50 25 bd
       0.038007274 -1.1701777 0.30457446 -0.040359523
000380 8a e3 dd 3e 12 59 56 3f f4 44 2c be 8c af 8c bf
       0.4333766 0.8372966 -0.16823179 -1.0991073
000390 31 db 43 3e 7a f4 9e be 18 de 72 bf 31 0d ed 3e
       0.19126584 -0.31045896 -0.9487014 0.46299127
0003a0 f7 5f 92 3e b5 cb f4 be 85 19 71 bf cf 00 dd bd
       0.2858884 -0.47811666 -0.94179565 -0.1079117
0003b0 ca 37 f2 3e 15 d7 e0 bd f3 a0 33 3f 05 41 84 be
       0.4730819 -0.10978524 0.70167464 -0.25830856
0003c0 fa 6d 11 3f 23 6b 45 3f 37 d4 69 bd 30 f0 24 3f
       0.56808436 0.771166 -0.05708715 0.64429
0003d0 67 d7 05 bf 01 2f ff 3e 13 d1 b8 3d 7b ad 44 3b
       -0.522818 0.4984055 0.09024253 0.003001063
0003e0 48 71 3e bf 89 55 65 3e 77 00 c0 3e cb 3e 94 be
       -0.74391603 0.2239591 0.37500355 -0.28954157
0003f0 c0 9b fe 3c da 4a 39 3e c4 ce 1c be e1 2a e8 3e
       0.031080127 0.1809496 -0.1531325 0.45345214

bias f4 [256]
000000 de 45 6c 3d c6 03 e1 be f2 f3 dd bd 5c 38 35 bf
       0.057683818 -0.4394819 -0.108375445 -0.7078912
000010 fb c8 29 3f 13 ad 2f bf 45 12 16 be a4 07 0a bf
       0.66322297 -0.68623465 -0.14655407 -0.5391791
000020 6a 44 2e 3f 9b f9 10 bf 8b 51 28 bf ac 5f 93 3e
       0.6807314 -0.5663087 -0.65749425 0.2878393
000030 09 86 bd 3e ba 19 3c bf 50 8f 34 bf c7 6c 04 bf
       0.37016323 -0.73476756 -0.7053118 -0.5172848
000040 ca b4 e4 be e3 76 07 3f eb bc 35 3e 41 da 3b bf
       -0.4466918 0.5291578 0.17747848 -0.73379904
000050 a6 15 66 3e 41 31 77 3e 6e c6 8a 3e b8 f5 3a 3f
       0.22469196 0.24139883 0.27104515 0.7303119
000060 f8 02 8a 3d cb a6 17 bf 44 2b 12 bf 84 b9 f4 3e
       0.067388475 -0.5923888 -0.5709727 0.47797787
000070 08 3a 78 3e be 02 b7 3e bb c6 6c be c6 97 e9 3d
       0.24240887 0.3574428 -0.23122685 0.114059016
000080 da 2f 20 be a7 86 17 bf 93 14 22 3f a3 37 dc bd
       -0.15643254 -0.5918984 0.63312644 -0.10752799
000090 1f 27 2e 3d 56 a2 e9 be b0 dc 16 3f f5 30 a2 3e
       0.042517778 -0.45631665 0.5893049 0.31677976
0000a0 04 a7 31 bf 58 50 0b bf 6d 58 13 be 56 1e 17 3f
       -0.6939547 -0.5441947 -0.143892 0.59030664
0000b0 52 15 d4 be 27 37 a7 3e b4 bc 99 be a4 d4 6d 3e
       -0.41422516 0.32659265 -0.30026782 0.23225647
0000c0 1e c9 55 3d 2a 27 d5 be fd d4 01 bf a3 e7 31 bf
       0.052193753 -0.41631442 -0.5071562 -0.69494075
0000d0 5b b0 18 bf 7a 3c e2 bd c8 b9 40 3f c1 91 28 3f
       -0.596441 -0.11046691 0.7528348 0.658474
0000e0 98 0e 00 3f 95 cd ec be b7 c8 f8 3d 21 12 75 3e
       0.5002227 -0.46250597 0.12147658 0.23932697
0000f0 7e dd 4e 3e 40 d4 93 be a4 22 1c bf 5b cb 88 be
       0.2020168 -0.2887287 -0.6099036 -0.26717648
000100 ad 92 b5 bd a0 60 2d bf 15 da 64 3d bc 03 29 bf
       -0.08865867 -0.67725563 0.05587204 -0.66021323
000110 f7 83 0e 3d 7e 71 29 3e d2 eb c6 be 2b 24 40 3e
       0.03479382 0.165472 -0.38851792 0.18763797
000120 9c 3c f1 be 53 cd ac be 59 ab 17 3f 3b 96 2b 3e
       -0.47116554 -0.337504 0.5924583 0.16756527
000130 3c 2c a5 bd 36 45 b3 be 47 67 d1 be a4 7f ad 3e
       -0.08065078 -0.3501374 -0.40899107 0.33886445
000140 95 b7 68 be b0 f8 0a 3f ce e4 cb be 83 c7 04 3e
       -0.22726281 0.54285717 -0.39823002 0.12966733
000150 76 c5 d0 be f2 a8 7c bf 34 00 76 be dc d7 83 be
       -0.4077565 -0.9869529 -0.24023515 -0.25750625
000160 9c f6 10 3f 7b d7 df 3c d2 68 50 3d 6e 20 d6 be
       0.56626296 0.027324429 0.050881214 -0.41821617
000170 f9 39 1a bf 59 c0 fa 3e ca 5b af 3e a7 ca 95 3e
       -0.6024471 0.48974875 0.34249717 0.29256174
000180 2e cd 8e 3e 89 9b 5b 3e 86 b5 41 bd ef ff 32 3f
       0.27890915 0.2144605 -0.047292255 0.69921774
000190 89 69 33 3e d0 99 27 3f bc 5a c3 be 0b cb e5 3e
       0.17520727 0.65469074 -0.38155162 0.44881472
0001a0 7a 22 60 bf 9d 94 1e bf 86 de 88 be 13 64 45 3f
       -0.8755261 -0.61945516 -0.26732272 0.77105826
0001b0 cd d8 55 3e 99 ca 24 be e3 06 1c bf f3 7c 0b bf
       0.20883484 -0.1609291 -0.6094801 -0.5448753
0001c0 45 7e 0b bf 1b c4 1f bf c4 49 03 3f 01 08 de 3e
       -0.54489547 -0.6240861 0.5128443 0.43365481
0001d0 94 d0 45 3e df 7f 17 3e d9 0e 5d 3e 93 ac 78 3e
       0.19317847 0.14794873 0.21587695 0.24284582
0001e0 7c 58 7a be 2a 75 20 3e 73 f3 2a 3e 24 24 85 3e
       -0.24447817 0.15669695 0.16694431 0.26004136
0001f0 63 af 08 3f c2 eb 59 3e 36 3e 2a bd 98 ed c5 3e
       0.5339262 0.2128134 -0.041563235 0.38657832
000200 66 b1 9f 3d 0b d1 a4 be 37 e1 0e 3d 51 0b d9 3e
       0.07797508 -0.32190737 0.03488275 0.42391446
000210 7c dd ee 3e 71 ce 2b 3e ef d6 b4 be 27 bd a5 3e
       0.46653354 0.1677797 -0.3532023 0.32370874
000220 7c b2 30 be 13 eb ab be 22 07 2c 3f 94 fe 45 bf
       -0.17255586 -0.33577785 0.67198384 -0.7734158
000230 5e 5f e0 bd 04 1c c1 be f3 72 94 bd b6 ab c5 3e
       -0.1095569 -0.37716687 -0.07248487 0.38607568
000240 6a 03 6c 3e 8e b8 4b 3f a7 11 bc 3e f9 05 7b be
       0.23048177 0.79578483 0.36732218 -0.24513997
000250 28 6d 53 be a1 aa 42 3e a5 3f 92 be 5a 14 13 bf
       -0.20647109 0.19010402 -0.28564182 -0.5745293
000260 2e c7 cd be d9 90 b5 be 16 7b 32 3f 0a be 53 3e
       -0.40191025 -0.35462072 0.69719064 0.20677963
000270 96 12 00 be 43 98 98 3e f4 d3 21 be e6 db 08 3f
       -0.1250709 0.29803666 -0.1580351 0.5346054
000280 98 a4 21 bf 3a 51 38 be 60 05 22 bd ed a3 46 be
       -0.63141775 -0.17999735 -0.039555907 -0.1939847
000290 f0 20 05 3f 91 30 9a be 1f 25 fe 3d 63 92 52 be
       0.52003384 -0.30115178 0.12409424 -0.20563655
0002a0 54 d4 cd bc 81 33 bf 3e 39 04 aa be 36 a5 c7 be
       -0.02512566 0.37343982 -0.33206347 -0.38993233
0002b0 64 f5 6c 3e 06 5d 0b bf ea d6 cb bd 61 bc 36 be
       0.23140484 -0.5443882 -0.09953101 -0.17845298
0002c0 70 6b d0 be 09 16 19 3f 2a 9a 10 3f 40 0f 36 bf
       -0.40706968 0.5979925 0.56485236 -0.7111702
0002d0 94 78 ea 3d 71 1f 25 bf 4f 59 ea 3e 00 de ac 3e
       0.1144878 -0.645011 0.45771262 0.33763123
0002e0 0b 79 b3 be b7 61 60 bc 9d 5c f7 3e bd 39 7c 3e
       -0.35053286 -0.013695172 0.48312846 0.246314
0002f0 1d 44 af bd 14 a1 bf 3e e3 4a 3d bf 70 57 f3 bd
       -0.085579135 0.3742758 -0.73942393 -0.11881912
000300 26 72 e0 be 61 99 47 bf b0 be 5c be 15 e9 ce be
       -0.43837088 -0.7796841 -0.21557117 -0.40412202
000310 f8 5f c1 be 13 64 73 3e d7 84 1a bf a1 52 59 3d
       -0.3776853 0.23768644 -0.6035895 0.053057317
000320 92 1e 21 3f 24 5c 2d bf 84 78 13 3f ff 02 81 3e
       0.6293727 -0.6771872 0.5760577 0.25197598
000330 99 2e fa 3e be 88 ff 3e 4a 6e b4 3e ef 48 a1 3c
       0.48863676 0.49909014 0.35240394 0.019688098
000340 8f 77 a2 3e b5 d4 b5 3e 18 14 0d 3f bb e0 4c bf
       0.3173184 0.35513845 0.55108786 -0.8003041
000350 5c 3e e0 be dc 07 35 3f 5a b8 82 3e 66 10 20 bd
       -0.43797576 0.7071512 0.25531274 -0.03907814
000360 63 c8 b0 be fb 06 ef bd 47 46 ce be 1f f1 1b 3f
       -0.34527883 -0.11671253 -0.40287992 0.60914797
000370 b4 6a 3a 3f 17 11 84 3e 18 9d a2 be 14 7d be 3e
       0.72819066 0.2579429 -0.31760478 0.37204802
000380 9c f4 ad bd cc 67 19 3e 25 99 42 bf 6d 01 30 bf
       -0.08493921 0.14981002 -0.7601493 -0.68752176
000390 ef e1 6c 3e 14 a0 28 bf 6d 2f 05 3e e4 a6 a8 3e
       0.23133062 -0.6586926 0.13006373 0.32939827
0003a0 d7 8a dd 3e 1c 52 d3 3e 37 70 04 3f 3f 34 9f be
       0.4326999 0.41273582 0.51733726 -0.31094548
0003b0 d2 40 87 3e a7 73 2d 3f 46 68 7a 3e 8f 20 c0 3e
       0.2641664 0.67754596 0.2445384 0.3752484
0003c0 dc 0b d8 3e 68 1d 0c 3f 61 e2 03 3f 77 5a e9 be
       0.42196548 0.5473237 0.515173 -0.45576832
0003d0 6c da 23 bf 4e e2 d2 3d 16 31 03 3f 78 ab 98 3d
       -0.6400516 0.102970704 0.51246774 0.0745458
0003e0 92 01 96 3d 49 01 3d 3f 0a 24 d7 bd 8f 87 46 3e
       0.07324518 0.73830086 -0.10504921 0.19387649
0003f0 f7 f1 cb be 63 75 1b be 7c 9f 75 bd 98 dd 19 bf
       -0.39833042 -0.15181498 -0.05996655 -0.6010375

weight f4 [256, 256]
000000 bf c1 6c 3d ef 11 11 be 22 f0 71 bd c8 3e ef be
       0.05780196 -0.14166997 -0.0590669 -0.46727586
000010 0e e5 30 3e a6 2d 0a be 87 e3 11 bd d3 74 73 be
       0.17274877 -0.13493976 -0.035617378 -0.23775034
000020 18 c1 95 3e 98 17 b3 bd 56 6e 4c bd ca 91 aa 3c
       0.2924888 -0.087447345 -0.049909912 0.02082147
000030 70 a2 e2 3d 9e f3 c6 bd 89 03 ff bd 38 d7 e7 bd
       0.11066139 -0.09714435 -0.12451846 -0.113203466
000040 65 ed 35 be 04 66 be 3d a2 3d 22 3e 8e 2e 13 be
       -0.1776634 0.09296802 0.15843824 -0.14373228
000050 c4 93 32 bb 86 6e a9 3d 61 9e 60 3d 7e 18 9e 3d
       -0.002724872 0.08273034 0.054838542 0.07719515
000060 a8 6b 58 3d 3d fd 72 be 56 b4 87 be 53 34 c9 3d
       0.052837044 -0.23729415 -0.26504773 0.09824433
000070 ca 0f b7 3d 9f 68 00 3e 70 ed a3 bd b0 49 da 3c
       0.089385584 0.1253991 -0.08004272 0.026646465
000080 f2 30 3d bd 26 98 77 bd 28 96 2c 3e 73 de 84 bd
       -0.046189256 -0.060447834 0.16854155 -0.06487741
000090 75 14 ea 3c 9c db ba bc 6c 2d 2b 3e 1f c7 f3 3d
       0.028574208 -0.022809796 0.16716546 0.11903214
0000a0 48 c9 15 be b5 9c 8b be cf 49 db bd 51 5b 2b 3e
       -0.14627564 -0.27267995 -0.10707437 0.16734053
0000b0 74 2f 0c bd 31 c7 11 3e dc ed c0 bc 34 9a 86 3e
       -0.034224942 0.14236142 -0.02355092 0.26289523
0000c0 5b 8e 48 3d 5c 66 ae bd 77 0f 14 bd fb a5 0e be
       0.048963886 -0.08515617 -0.03614756 -0.13930504
0000d0 9c a6 17 be 68 50 f8 bc 66 d0 13 3f 42 96 f0 3d
       -0.1480965 -0.030311778 0.57739866 0.117474094
0000e0 1d 93 8f 3e 03 ed 2e be be 01 62 bd fe f9 d1 bb
       0.28041926 -0.170826 -0.055177443 -0.006407975
0000f0 ac 00 f5 3c 32 b9 72 3b 62 08 11 be e4 ec 7b bd
       0.029907547 0.0037036655 -0.14163354 -0.061505213
000100 85 7b 46 bc 29 80 ad bd ad 35 ac bc 97 b6 1f be
       -0.01211441 -0.0847171 -0.021021688 -0.15596996
000110 d9 21 39 bd 27 a2 60 bb 98 e5 0f bd c7 3a 1a 3d
       -0.045198295 -0.0034276338 -0.035131067 0.03765371
000120 5a 7c 24 be 7d 3d 51 bd c2 46 3f 3e 82 80 2c bd
       -0.16063061 -0.05108403 0.18679336 -0.042114742
000130 88 b1 cb bd ec 87 53 be 45 93 50 bd 99 c7 06 bd
       -0.09945971 -0.20657319 -0.050921697 -0.032905195
000140 2f 35 3f be 53 66 b0 3d 0a a6 fd bc 35 a5 2a 3d
       -0.18672632 0.08613267 -0.030962963 0.04166146
000150 12 a5 72 be 8c 57 12 be 3e 22 ef bd d3 f8 7c bd
       -0.23695782 -0.14291209 -0.11676453 -0.061760735
000160 aa d7 96 3d 15 ab 3b 3d 4a ff 50 bd 30 77 32 be
       0.073653534 0.045817453 -0.051024713 -0.17428279
000170 8e 9a 77 bd de aa 77 3b 4b dc f5 bc 15 ca c6 3d
       -0.06045013 0.0037791054 -0.03001227 0.09706513
000180 50 ac 35 3d 99 bf 5d bc 7f 67 1f 3d a9 fa b8 3d
       0.044353783 -0.01353445 0.03891706 0.09032185
000190 77 2c 18 3e 78 ba 0d 3e ac f9 5a be 11 ae ad 3c
       0.14860712 0.13840663 -0.21384305 0.021201165
0001a0 45 aa 1a be 13 27 a9 bc 1a 51 03 be 13 c6 5e 3e
       -0.15104015 -0.020648515 -0.12823907 0.21755247
0001b0 ce 7f d0 3c 69 64 9a bc 93 d7 89 bd 19 52 87 bd
       0.025451567 -0.018846707 -0.06730571 -0.06607456
0001c0 87 21 54 be e3 7f b8 bd c6 d4 06 3e ac 04 8c 3d
       -0.20715915 -0.090087675 0.13167104 0.068368286
0001d0 84 bc dc 3d 04 9d b1 3d 74 a5 c7 bc 10 fb b9 3c
       0.10778144 0.086725265 -0.024370886 0.022702724
0001e0 7c ee 0e bd 92 eb 22 3d 91 db fa 3c c1 c3 97 bc
       -0.034895405 0.03977544 0.030622276 -0.01852596
0001f0 de 2f 89 3d c3 93 06 3e 31 c4 21 bd 01 ea d5 3c
       0.06698583 0.13142304 -0.039493743 0.026112558
000200 c9 1f 9d 3c 44 bc 19 bd 74 b1 46 bd 09 ad a8 3e
       0.019180195 -0.03753306 -0.048509076 0.32944515
000210 cb 26 17 3d 12 54 3f 3d 30 e4 5a bd 93 02 bf bc
       0.03690223 0.046711035 -0.053440273 -0.023316657
000220 90 ce b8 bd 42 26 94 bd f1 7f 36 3d ea ba b8 bd
       -0.09023774 -0.072338596 0.04455561 -0.09020026
000230 26 9a 0f 3d 87 31 85 be e1 2f 2b bd 95 ff 25 3d
       0.035059117 -0.2601435 -0.041793708 0.040526945
000240 36 29 c4 3d aa 9c 9c 3e 18 c4 29 3d 6c 05 1a be
       0.09578173 0.30588275 0.041446775 -0.15041131
000250 5e 7e 06 be 90 f8 7c 3d 6d a5 f4 bd b8 49 cf bd
       -0.13134143 0.061760485 -0.11945615 -0.101214826
000260 11 98 fe bc 5e 88 0d be 02 eb c6 3e f6 d1 5b bc
       -0.03107837 -0.13821551 0.38851172 -0.013416758
000270 a0 cf 3c 3d 8b 20 11 bb 56 90 20 bd 86 cd ae 3d
       0.046096444 -0.0022144641 -0.03920015 0.08535294
000280 80 f0 5a bd a2 c5 a3 bd 21 15 c9 3c c6 c2 aa bb
       -0.053452015 -0.0799668 0.024546208 -0.005211207
000290 22 34 df 3d ce dc cb bc e3 b4 e1 3d bb 60 55 bd
       0.108986154 -0.024885561 0.110208295 -0.052094202
0002a0 6e ef 97 3c 53 91 b6 3d d2 01 62 bc f0 3c 39 be
       0.018546786 0.08914437 -0.013794379 -0.18089652
0002b0 25 ce 4f 3d bf b1 bf bc ab 91 a8 bd c7 ba af bd
       0.050733704 -0.023400186 -0.08230909 -0.08580547
0002c0 5c e1 56 be 4f 99 58 3d 4a 78 f3 3d b5 ab d5 bd
       -0.20984405 0.05288058 0.11888178 -0.10433141
0002d0 b5 2d 2c bd 15 1e 06 be cf d5 43 3d 90 b0 9a 3d
       -0.042035777 -0.13097413 0.047811326 0.07553208
0002e0 7a 79 40 bd b8 09 2f 3d 1b 3d 08 3e 34 4e 59 bd
       -0.04699085 0.042733878 0.1330456 -0.053053096
0002f0 a5 51 19 3d 12 19 88 3d 5b 4d b1 be 2c e8 c9 bd
       0.037431378 0.06645407 -0.3462933 -0.098587364
000300 69 e0 28 be c1 b6 4a bd b5 c7 a9 bd b8 1f 79 be
       -0.16491856 -0.049490694 -0.08290044 -0.24328506
000310 a2 d5 f4 bd 25 4f 97 bc 99 e5 30 bd 6d d3 f4 bc
       -0.1195481 -0.018470356 -0.04318771 -0.029885972
000320 96 c3 48 3d 20 79 a9 be b6 da 9f 3d 10 2f bc 3d
       0.04901465 -0.33100224 0.07805388 0.09188664
000330 51 08 14 3d d8 2f bd 3c f8 1e 68 3d ea 37 8f bc
       0.036140744 0.023094103 0.05667016 -0.017482717
000340 e0 24 59 3c 61 5d 39 3e c3 79 c1 3d 25 1b f4 bd
       0.013253421 0.18102027 0.09447052 -0.1191924
000350 a2 b9 6a be 7e c3 b6 3e 0a 54 2f 3d 53 f2 9e 3c
       -0.22922376 0.35696024 0.042804755 0.019402659
000360 d2 35 82 bd 97 13 cf bb de c3 bd bd b2 7d af 3d
       -0.06357922 -0.006319474 -0.09265874 0.08568896
000370 b0 1d 7e 3d 37 a3 db 3c 7b c1 90 bd 58 6b be 3c
       0.06204003 0.026811225 -0.070681535 0.023244545
000380 1c 72 0f bb ff 7a 34 bd a7 64 e2 bd 7f 1b 25 be
       -0.0021888083 -0.04406261 -0.11054354 -0.1612377
000390 e5 f5 36 3e 8b d1 aa bd 35 35 94 bc f9 f8 8c 3c
       0.17867239 -0.083407484 -0.018091777 0.017208563
0003a0 1b 97 cb 3d 40 39 2c bd 25 48 12 3e 05 95 4d be
       0.099409305 -0.042046785 0.14285333 -0.20076378
0003b0 9f a4 1e 3d a7 0e 81 3d c5 64 2a bc fb 6d ff 3b
       0.038731214 0.06301623 -0.010400002 0.007795093
0003c0 db 01 33 3e 6d 0f 25 3e 3a f4 1c 3e 1c 90 23 bd
       0.17481177 0.16119166 0.1532754 -0.039932355
0003d0 f9 ec 66 be 34 3e 87 bd be 47 20 3e 2f 58 04 3d
       -0.22551335 -0.06603661 0.15652367 0.03231066
0003e0 aa 28 84 3d 02 59 14 3e 09 a6 f8 bc 6e b2 83 bd
       0.064530686 0.14487079 -0.03035261 -0.06430517
0003f0 ea cc 42 bd e7 b2 f6 3c 1c 92 9a bd 5e a8 2b be
       -0.047558703 0.030114604 -0.075473994 -0.16763446

bias f4 [256]
000000 87 5c cb 3d 54 eb fa 3d f2 7a 6c bd 3b 1f e7 3d
       0.099297576 0.122519165 -0.057734437 0.112852536
000010 50 32 23 3d 4f ed c2 3d a2 42 95 bd 2b a5 26 bd
       0.039842904 0.09517919 -0.072881 -0.04068486
000020 77 7e 15 3e 35 1f 20 bd 5d b9 c7 bd a5 46 4c bb
       0.14599024 -0.03909226 -0.09752152 -0.0031170037
000030 d9 d0 22 3e e4 66 c2 bd 7f d9 86 3d dc f4 63 3d
       0.15899982 -0.09492281 0.06584453 0.055653438
000040 60 fa 9c bc 60 2f ef 3c c7 7c a8 3d f5 e0 8c bc
       -0.019162357 0.029197395 0.082269244 -0.017197112
000050 70 43 90 bd d2 b7 73 3d 65 06 12 bd 23 b4 6f bc
       -0.07044113 0.059501477 -0.03565063 -0.01463035
000060 ed 16 14 3d 4c 96 52 3c 85 44 97 3d 0a 60 cc 3d
       0.036154676 0.012853216 0.07386116 0.099792555
000070 bd ec 36 3d 03 89 69 3d df 44 77 bd d0 96 99 bd
       0.044659365 0.05701543 -0.060368415 -0.07499468
000080 57 95 93 bc d7 cd 17 3e 3e 89 92 3d 60 03 0b 3e
       -0.018015547 0.14824615 0.07155083 0.13575506
000090 31 7e 44 3d 38 f5 81 3d b7 ef e5 3d 5d 69 85 3d
       0.047971908 0.063456 0.112273626 0.06514237
0000a0 66 b7 e6 3d fb c3 cb bc fe 32 f1 3d 4a 3d 9b 3d
       0.11265449 -0.024873724 0.11777304 0.07580049
0000b0 46 f0 e9 3d a4 30 9a bc 57 34 07 3e 92 fc 40 bc
       0.11422782 -0.018822022 0.1320356 -0.011778967
0000c0 38 0f 2e 3d 8b 0d 29 3d be bf fc 3d a8 4a af 3d
       0.042494982 0.04127268 0.123412594 0.085591614
0000d0 b5 be 22 3c 3f ca 31 3d 12 93 ec 3d f1 11 13 3d
       0.009933163 0.043405768 0.11551489 0.035905782
0000e0 45 ea 3d 3d ed ef 1c 3d 99 b0 03 3d 75 f0 10 bc
       0.046365995 0.03831475 0.03215084 -0.008846392
0000f0 c2 21 ac 3d ea aa 16 3d b0 73 ba 3d cd 92 f0 bb
       0.08404876 0.03678409 0.09104097 -0.0073417188
000100 4f 5f 5c 3d e0 1e e0 3c 9c 6b fd 3d f2 8e d8 3c
       0.05380183 0.027358472 0.123740405 0.02643535
000110 a6 18 9b 3c 37 27 56 ba 88 34 c1 3d ee 75 10 3d
       0.018932652 -0.00081692956 0.09433848 0.035268717
000120 93 08 2e 3d 09 5f f0 3c fb f5 77 3c 1c ff 64 3d
       0.042488646 0.029342191 0.01513433 0.055907354
000130 f2 29 46 3d 03 a1 12 bd cc fb 21 3d 42 b6 93 bc
       0.048379846 -0.035798084 0.039546773 -0.018031243
000140 d0 9d 02 3d 8c 5d 0a 3e f3 f6 71 3d 9a fb b6 bd
       0.031888783 0.13512248 0.0590734 -0.08934708
000150 6e c6 e3 3d 2f a4 26 bd b4 b6 22 3d c6 39 c9 3d
       0.11121832 -0.04068392 0.03972502 0.098254725
000160 16 08 93 3c f4 50 2a 3d ec 70 b6 3d cc 5c 97 3d
       0.017948192 0.04158111 0.08908257 0.073907465
000170 4f 06 b5 bd 95 1c a6 3d cd 87 b2 bd bd 21 cf 3d
       -0.08839094 0.0811092 -0.08717308 0.10113857
000180 ea db 6c 3c 9b b8 0c 3e 05 ee eb 3d 0d b1 eb bc
       0.0144567285 0.13742296 0.11520008 -0.028770948
000190 ce 29 78 3d f7 d3 33 bd 35 97 39 3d e4 d6 95 bd
       0.060586743 -0.043903317 0.045310218 -0.07316378
0001a0 12 bf 50 3d 43 fd 2c 3d 7e 90 f1 bb bf 1f b8 3d
       0.05096347 0.042233717 -0.007371961 0.0899043
0001b0 75 a6 3e 3d 10 1a 00 3e ae b5 d6 3d a0 c1 0f 3e
       0.046545465 0.12509942 0.104838714 0.14038706
0001c0 00 04 02 3e 08 b5 99 bd c4 d1 0a 3e f9 f9 07 3d
       0.12696838 -0.07505232 0.13556582 0.033197377
0001d0 1b 1c b1 3d 03 8c b4 3d 25 de 0e 3e d4 c4 95 bc
       0.08647939 0.088157676 0.13951929 -0.018282332
0001e0 1e 74 d6 bc fc fb fa 3d ae 46 c6 3d 13 a0 5e 3c
       -0.026178416 0.122550935 0.0968145 0.013587969
0001f0 9f 0e 99 3b c7 7c b7 bd 50 eb da 3d e3 b3 1c 3d
       0.0046709324 -0.08959346 0.106894135 0.03825749
000200 da c3 89 3d 29 5e 2a 3d 61 00 a0 bc de c0 bd 3d
       0.06726809 0.041593704 -0.01953143 0.09265302
000210 82 19 6e 3a ad 20 06 bd cb 23 9b bd a8 36 d7 3d
       0.00090827805 -0.032746006 -0.07575186 0.10508472
000220 8a 5a aa 3d 31 09 d9 3d 27 97 b5 3c ae 77 10 bd
       0.0831805 0.10597456 0.022166802 -0.035270385
000230 61 97 8e 3d 8a f1 1c bd 6c 57 fc bc 06 43 5b 3c
       0.06962467 -0.038316287 -0.030803405 0.013382679
000240 38 01 c9 bc 37 91 b1 bd 34 18 c0 3d 0a c7 b6 bc
       -0.024536714 -0.08670276 0.093796164 -0.022311706
000250 6e 8e ea 3d 4d 84 93 3d 25 9e 48 3d 83 20 25 3d
       0.114529476 0.07202969 0.048978943 0.04031421
000260 d3 f0 4a bc 64 b6 f9 bc c7 c8 d1 3d 9f 70 c5 bc
       -0.0123865185 -0.030482478 0.10243373 -0.024101553
000270 72 79 84 bd b8 b9 7f ba 3a 88 be 3d d3 ca c0 3d
       -0.06468476 -0.0009755152 0.09303327 0.09413686
000280 a4 02 17 3c ae 26 b2 3d d7 35 06 3e 1a be bd 3d
       0.009216938 0.08698784 0.13106476 0.092647746
000290 04 77 51 bd 2b f1 50 bc 21 eb 60 3b 60 bf 04 3e
       -0.051138893 -0.012752811 0.0034319835 0.12963629
0002a0 95 dd d3 3c 7c b5 81 3d 33 30 84 bd b9 51 8e bd
       0.025862494 0.063334435 -0.06454506 -0.06949181
0002b0 8f 4b 49 bd 4a 22 94 3c 67 a7 c0 3c 0f fc 57 3d
       -0.049144324 0.018082757 0.023517324 0.052730616
0002c0 09 18 53 3d 63 4f fe 3d 19 ac a4 bd 2d 5b 4e 3d
       0.051536594 0.124174856 -0.080406375 0.05037992
0002d0 9c b3 cb bc 7d c6 94 bd 2f 4d 80 bd 67 b9 2d bc
       -0.024865918 -0.07264421 -0.062647216 -0.010603285
0002e0 54 6e 31 3d 3d 53 45 3d c7 b0 b0 3d d4 dd 5d 3d
       0.043318108 0.048175085 0.086274676 0.05416663
0002f0 1c 81 b5 bd 70 8c 4d bd 69 db 08 3e 5a 94 ae 3b
       -0.08862516 -0.05018276 0.13364948 0.0053277435
000300 1e 5b bb bd d2 fa 81 3d 5a ee 8a 3d 04 99 9b bd
       -0.091482386 0.06346668 0.06783743 -0.07597545
000310 44 59 93 bb b1 ee ad 3d 2f 0f 89 bd 4d 86 03 3e
       -0.0044967253 0.084927924 -0.06692349 0.128442
000320 ba 01 0f ba 72 ed c3 3b f3 d2 a4 3d 16 1b 87 bc
       -0.00054552744 0.0059792334 0.08048048 -0.016492408
000330 ed 1c 8f 3c 90 19 85 3d 9a 73 bc bd 64 3f 13 3d
       0.017469848 0.06499016 -0.09201737 0.035949126
000340 e3 26 40 bd 12 8c 99 bc 00 4b cd bd 31 65 ca 3d
       -0.046912085 -0.018743549 -0.10024071 0.09882582
000350 d5 43 cf 3d 0f b4 84 bd 4b e3 2c bd d0 c5 19 3e
       0.1012036 -0.06479656 -0.04220895 0.15016866
000360 2a 4b d8 3d 38 97 3b 3d fc f8 11 3d 32 3a 66 bd
       0.105612114 0.04579851 0.03563784 -0.056207843
000370 6d 64 0c 3d b3 47 b5 bd a0 77 9c 3c 92 bd c0 3d
       0.03427546 -0.08851566 0.01910001 0.09411158
000380 78 9e ec 3d 4f cf 4a 3c 97 2f 81 3d d2 4b e6 3d
       0.11553663 0.012378528 0.06307905 0.1124493
000390 90 79 e0 bc 9e 59 a7 3d c2 8c 33 3d 57 9c 84 3d
       -0.027401716 0.0817139 0.04383541 0.06475132
0003a0 5d b2 f0 3d 40 58 62 3c 0a 23 8d 3d 76 8c 39 3c
       0.1175277 0.013814986 0.06891449 0.011324992
0003b0 97 b8 c3 3c f2 e8 bc 3d 4e 59 23 3d 6f ae cf bd
       0.02389173 0.09224118 0.03988009 -0.101406924
0003c0 68 f9 10 3e 09 6a f4 3d db 06 32 3d 48 4e 08 3d
       0.14157641 0.11934287 0.04346357 0.03327778
0003d0 9e f3 e9 ba 48 08 29 bc 01 8c 0a 3b 33 7a 88 3d
       -0.0017849093 -0.010316916 0.0021140578 0.06663933
0003e0 d0 74 99 3d 9a a5 ba bc 9a 97 0d bd 13 e0 77 bb
       0.07492983 -0.022784043 -0.034568407 -0.0037822768
0003f0 26 9b 56 3d 41 8e 84 3d 14 7b ef 3b 75 b0 bf 3d
       0.052394055 0.06472445 0.007308373 0.093598284

weight f4 [32, 256]
000000 ed d4 54 3e ca 6f 0d 3e 5b 74 4a bd 7d a1 90 3e
       0.2078435 0.13812175 -0.04942737 0.28248206
000010 f0 85 68 3e bf 3f 3c 3e cd eb a2 bd ba f0 9a bd
       0.22707343 0.18383692 -0.07955132 -0.07565446
000020 11 22 ec 3d 8d fc 52 bd f8 40 20 be ac aa fc bd
       0.11529935 -0.051510382 -0.15649784 -0.123372406
000030 df c8 7e 3e db 17 ef bd 43 e0 48 3e b8 9d 49 3e
       0.24881314 -0.11674472 0.19616799 0.19689071
000040 10 c9 40 bc f8 83 66 3e 4b 64 4c 3e 6d ce 41 3a
       -0.011766687 0.2251128 0.19960134 0.00073931256
000050 83 a5 b6 bd 35 90 4a 3e 2e d5 54 bd ea ea 04 be
       -0.089182876 0.19781573 -0.051961116 -0.12980238
000060 96 fa e4 3d a7 3b b7 ba ca a1 d8 3d b6 6f 4d 3e
       0.11180608 -0.001397957 0.10577734 0.20062146
000070 b7 15 68 bc 17 cd 84 bb 5b 67 bf bd 03 14 b0 bd
       -0.0141653335 -0.004052769 -0.09345885 -0.08597567
000080 08 f5 c1 bc f3 bd 4a 3e 9e 1a 58 3e 45 72 33 3e
       -0.02367641 0.19799022 0.21103904 0.17524059
000090 5f 3a 73 3e 00 26 52 bd cd fd 72 3e d4 92 27 3e
       0.23752736 -0.05130577 0.2372963 0.16364604
0000a0 b1 4a 5b 3e 7d 27 5a bd c7 a5 6b 3e f5 a4 1b 3e
       0.21415211 -0.053260315 0.23012458 0.15199645
0000b0 07 5d 5f 3e 70 70 7c bd f4 53 59 3e 6d 56 7a be
       0.21812831 -0.061630666 0.21223432 -0.24447031
0000c0 5b 47 16 3e bf 46 82 bd 82 0b 27 3e 3a 2d 48 3e
       0.14675657 -0.0636115 0.16312984 0.19548503
0000d0 10 11 97 bd 39 8b 56 bd d1 4c 0c 3e 0f 2e 87 bb
       -0.07376301 -0.052378867 0.13701178 -0.0041253637
0000e0 26 0f 6c 3e 95 89 01 3e 7c 8f 34 bd 11 58 5a be
       0.23052654 0.1265014 -0.04408215 -0.21322657
0000f0 66 52 22 3e 34 57 4b bd f9 00 30 3e 57 d0 a7 be
       0.15851745 -0.04964371 0.17187871 -0.32776138
000100 95 1b d0 bc 6f 8f 0e bd 45 52 5d 3e bc 98 2f bd
       -0.025403777 -0.034804758 0.21613415 -0.04287027
000110 05 50 2f bd 59 61 99 bd 44 40 39 3e 57 58 29 3e
       -0.042800922 -0.07489271 0.18090922 0.16537605
000120 d7 c5 1f bd 90 8b d6 bc 4c 45 ed bc 2e 63 1c 3e
       -0.039007034 -0.026189595 -0.028963707 0.15272209
000130 6c 7e 51 3e 40 35 a1 bd f3 68 30 3e ee 3e b0 bd
       0.20458382 -0.07871485 0.17227535 -0.08605753
000140 4f 44 0a 3e 3e 2d 52 3e ae fd 11 3e 34 fd 00 39
       0.1350262 0.20525071 0.14256927 0.00012301357
000150 e3 d2 40 3e 4c 0c 58 bc 42 26 c2 3d f6 89 74 3e
       0.18830447 -0.013186526 0.09479953 0.23880753
000160 50 f0 d4 bd 61 58 b1 bc 4f 8b 15 3e 22 18 66 3e
       -0.103973985 -0.021648588 0.14603923 0.22470143
000170 12 a6 b4 bd 8c 85 5a 3e 4c 2f c4 bc b7 cc 18 3e
       -0.08820738 0.21340007 -0.023948334 0.14921843
000180 3b a8 ac 3e f8 90 55 3e 57 09 66 3e 81 f9 97 bd
       0.337221 0.20856082 0.224645 -0.07420636
000190 cb e5 5e 3e 89 cd a3 bc 69 6a 6e 3e fb d3 17 bd
       0.21767347 -0.019995468 0.2328278 -0.037067395
0001a0 76 ec 55 3e d6 5d 5f 3e e7 0c 96 3c 4e 53 93 3e
       0.20890984 0.2181314 0.0183167 0.28774494
0001b0 ee e5 57 3e 35 b7 45 3e 7d 36 3e 3e 90 7e 69 3e
       0.21083805 0.19308169 0.18575473 0.22802186
0001c0 48 6f 3d 3e c6 88 5f bd 01 0e 0c 3e 48 3f dd bd
       0.18499482 -0.054573797 0.13677217 -0.108030856
0001d0 69 57 7a 3e 67 4b 34 3e f3 4c 21 3e 44 f9 01 bd
       0.24447407 0.17606889 0.1575201 -0.03173186
0001e0 95 7d ba bd 7a 44 0a 3e b0 7c dd 3d f6 a0 3a bd
       -0.09105984 0.13502684 0.10814798 -0.04556366
0001f0 5b 5a 95 bd 5e 6e 36 be f7 7c fb 3d b2 3d 35 bd
       -0.072926246 -0.17815539 0.122796945 -0.04424829
000200 e4 03 82 3e 30 c2 41 3e ec 84 7f bd 58 e3 33 3e
       0.25393593 0.18921733 -0.062382624 0.17567194
000210 15 db aa bd e3 8c 45 bd cb 04 8e be 06 1a 85 3e
       -0.08342568 -0.048230063 -0.27738032 0.25996417
000220 23 8a 5d 3e d8 89 44 3e bb ee 77 3b 33 33 68 be
       0.21634726 0.19193208 0.0037831503 -0.22675781
000230 27 e1 5f 3e 4a 50 89 bd 56 87 00 be 6d 22 20 bd
       0.21863233 -0.06704767 -0.12551627 -0.03909533
000240 fc 10 36 be f2 ba 0d be 2f 2c 50 3e 2f 3d 30 3b
       -0.17779917 -0.13840845 0.20329355 0.0026891937
000250 61 b3 db 3d 94 4a d4 3d 4a e8 45 3e fb 9e 14 3e
       0.10727573 0.10365787 0.19326892 0.14513771
000260 7b 9d d4 bd bd 5f 45 3c 50 32 e0 3d b0 4b 83 bd
       -0.103815995 0.012046752 0.10947096 -0.064109206
000270 88 03 32 bd 1b d7 a5 bc 21 49 4f 3e 1c ef 1b 3e
       -0.0434604 -0.020244172 0.2024274 0.15227932
000280 e5 c2 37 3e 8f 20 69 3e 93 39 8e 3e 52 de 53 3e
       0.1794544 0.22766326 0.277783 0.20690277
000290 2f 19 c5 bd d3 cd 9f bd 69 b5 86 bc 4d ad 37 3e
       -0.09623944 -0.0780293 -0.016443925 0.17937203
0002a0 da 9d 59 bd 0c 1b 19 3e db 4e 60 bc c4 54 1c bd
       -0.053129055 0.14951724 -0.013690676 -0.038166776
0002b0 08 b5 22 be 5b a0 a6 3c 91 2e de bd aa b6 dd bc
       -0.1588937 0.020340135 -0.108487256 -0.02706464
0002c0 6d 6f 43 bd ad 05 7b 3e 13 7b 2d be 36 03 58 3e
       -0.047713686 0.24513884 -0.1694148 0.21094975
0002d0 ba 4e 66 3e 57 02 af bd 5e 01 c8 bd ef 3b d6 bd
       0.2249097 -0.08545368 -0.09765886 -0.1046065
0002e0 66 cd 39 3e a2 ef f4 bc c7 75 27 3e 74 d3 80 bc
       0.1814476 -0.029899422 0.16353522 -0.015725829
0002f0 7c a3 e1 bd c3 4b 22 bd 29 e7 28 3e aa c2 09 bc
       -0.1101751 -0.039623033 0.1649443 -0.008408228
000300 10 d3 8b be e8 95 4b bd a5 06 6f 3e bb fd 33 be
       -0.27309465 -0.04970351 0.23342378 -0.17577259
000310 4d 8f bd bc be a9 88 3e 3b 23 89 bc c9 c7 26 3e
       -0.02313962 0.26692003 -0.016740432 0.1628715
000320 41 20 d2 bc d9 67 9f 3e c3 b0 0d 3c f2 cd a2 bb
       -0.025650145 0.31133917 0.0086481 -0.0049683983
000330 73 43 1c 3e b2 91 8a 3e f3 64 96 be 29 da 22 3e
       0.15260105 0.27064282 -0.29373893 0.15903534
000340 62 0a 18 bd d9 83 fe bd 8c e5 05 bd b3 eb 84 3e
       -0.037119277 -0.12427492 -0.032689616 0.25961074
000350 4a 98 3a 3e 23 08 7c bc e5 af 4a bd 63 14 3f 3e
       0.18222156 -0.015382799 -0.049484152 0.1866012
000360 c8 76 1f 3e 16 cb 04 3e d9 ee 25 3e 86 2e b8 bd
       0.15572655 0.12968096 0.16204394 -0.08993249
000370 d6 ab 57 bd 4a 58 48 3a 64 ab ca bd da d1 71 3e
       -0.05265411 0.00076425506 -0.098959714 0.23615208
000380 f7 be 6f 3e 52 84 c9 bd 46 4c 45 3e 33 82 d8 3d
       0.23412691 -0.09839691 0.19267377 0.105717085
000390 60 6b 16 3c ec 7e 5c 3e d4 4f b0 3b c0 84 66 3e
       0.009180874 0.21532792 0.00538061 0.22511578
0003a0 f7 ef 5e 3e d2 46 a8 bd 9f ce 88 3e 47 51 00 bd
       0.21771227 -0.08216633 0.2672014 -0.031327512
0003b0 e9 bc 3e 3c 4c e1 84 3e d7 dc 68 3c d1 01 aa bd
       0.011641719 0.25953138 0.014212809 -0.08301128
0003c0 97 57 99 3d 86 e5 0b 3e ee 42 36 bd 23 9b 6c 3e
       0.074874096 0.13661775 -0.044497423 0.23106055
0003d0 2e 93 27 b9 46 c5 5a bd 11 0c fe bd 9b fd 68 3e
       -0.0001598119 -0.05341079 -0.12404645 0.22752993
0003e0 ce 0c 24 3e 56 31 c7 bd 6f 18 c9 bc c2 73 f4 bb
       0.1602051 -0.09726207 -0.024547784 -0.0074600885
0003f0 16 46 60 3e 60 15 81 bd 6f 4c 6e bd 72 4a 4b 3e
       0.21901736 -0.06302905 -0.05817836 0.19852617

bias f4 [32]
000000 26 b7 0d 3e 1a 55 62 3d 8d 67 2f bb 9f 0f ac 3d
       0.13839397 0.05525694 -0.0026764602 0.08401417
000010 83 16 f2 3d dd 13 18 3e a7 31 3d 3e 16 f6 46 3d
       0.118207 0.14851327 0.18475972 0.04857453
000020 19 66 43 be 04 63 c6 bd d3 48 ed 3d 5d 91 d8 bc
       -0.19081916 -0.096868545 0.11586156 -0.026436502
000030 78 c2 91 3d 7c 00 3b bd 1a 14 79 bd a4 73 14 3e
       0.0711717 -0.04565476 -0.060810186 0.14497238
000040 e4 03 8c 3d c3 a4 1f be b8 4b ef 3d ea 83 15 be
       0.068366796 -0.15590195 0.11684364 -0.14601102
000050 2a 76 cc bd 63 1f 2b 3e a4 4e 0c 3e e0 74 51 3d
       -0.099834755 0.16711192 0.13701874 0.05113685
000060 c9 5f 1b bd 66 2a 13 be 73 5f ee 3d f7 94 80 3b
       -0.037933145 -0.14371642 0.11639299 0.003924008
000070 0a de 0d 3e d7 67 9c 3d 7d d4 ef 3c 6f 27 06 be
       0.13854232 0.076369934 0.029276127 -0.1310098

weight f4 [256, 32]
000000 0d 66 06 be 2c e7 89 3e a1 0c f8 3d 36 11 ea 3d
       -0.13124867 0.26934183 0.12111784 0.11429064
000010 48 91 38 3d ee 47 8c 3e 59 23 04 3d 36 c7 04 3e
       0.045060426 0.27398628 0.032260273 0.12966618
000020 9c 45 59 be 72 0a ef 3d cb 75 f7 bb 5d 16 00 be
       -0.2121796 0.11671914 -0.007551884 -0.12508531
000030 35 fa 64 bd 14 8c 41 3d a1 73 5a bc df d1 9e bd
       -0.05590268 0.04725273 -0.013333232 -0.077548735
000040 b9 84 9d 3d 87 56 4c 3e 49 31 03 3e 7f de 90 be
       0.076913305 0.19954883 0.1281177 -0.2829475
000050 71 4b 45 3e 51 f4 55 3e 16 a8 f1 bd 4e 23 65 3c
       0.1926706 0.2089398 -0.11799638 0.013985468
000060 0e 32 61 3e 61 a1 58 be 24 4d 89 be 4f 2d 98 3d
       0.2199175 -0.21155311 -0.26816666 0.07430517
000070 e5 49 6b bd d5 97 85 bd 56 1c 3f bd c8 d4 0f bd
       -0.05744352 -0.065231 -0.046657883 -0.035115033
000080 02 4f 3b be 31 26 42 3e ac de d9 3d 6d 10 1a 3e
       -0.18291858 0.18959881 0.106381744 0.15045328
000090 e8 9d da bd 1b af aa 3d 7d 80 52 3d c4 d4 0d 3e
       -0.106746495 0.0833418 0.051392067 0.13850695
0000a0 25 4e 64 be af a1 61 be 43 0c 54 bd 72 2a 62 3c
       -0.22295435 -0.22034334 -0.051769506 0.013804065
0000b0 cf 40 46 3d c0 68 e3 3c f1 e7 2e bd 6e 81 6b 3c
       0.04840165 0.02775991 -0.042701665 0.01437412
0000c0 3f c2 df 3d cf d9 62 3e 78 f6 c3 3a c9 4f 64 be
       0.109257214 0.221534 0.0014950773 -0.2229606
0000d0 3d 31 3e 3e f9 07 53 3e 0c 34 f7 bc 68 a7 ef 3d
       0.1857347 0.2060851 -0.030176185 0.11701852
0000e0 43 76 8e 3d 3f 8c 83 be 27 3f 54 be fe 6c be 3d
       0.069561504 -0.25692937 -0.20727216 0.09298132
0000f0 5e 84 e7 3d 33 0c 66 3e 06 79 ad bc dd 09 87 be
       0.11304544 0.22465591 -0.021175873 -0.26374713
000100 78 0e b6 3b b5 f4 0e bd 1a 44 3d 3e f3 dc 96 bd
       0.005555924 -0.03490134 0.1848301 -0.073663615
000110 ce 62 f7 3b 08 f7 aa 3d 81 6a 18 3e 84 79 c0 be
       0.0075496202 0.08347899 0.14884378 -0.3759271
000120 04 b5 00 be a0 1d be 3d 5c 2e 5b be e4 1c a9 3d
       -0.12569052 0.09282994 -0.21404403 0.082574636
000130 71 39 07 3e ce eb dd 3d 2d 05 12 3e 87 ee 06 be
       0.13205506 0.10835992 0.14259787 -0.13176928
000140 3e 82 28 be e8 6a 99 38 e1 2d dd bd 6c 25 da 3d
       -0.16455933 7.315521e-05 -0.10799766 0.10651669
000150 98 da 99 bd 7e 12 0a 3e e4 38 23 be a7 09 8a bd
       -0.075123966 0.13483617 -0.15939671 -0.06740122
000160 77 78 04 3e d3 f2 53 3e dc 93 01 3d 89 b5 94 3d
       0.12936579 0.20698099 0.03163515 0.072611876
000170 63 17 12 bd 9f ea 40 3e 8c 9e df 3d 1a 5d a1 bd
       -0.035666835 0.18839501 0.10918912 -0.07879086
000180 24 c7 7b 3c 98 b5 91 bd 92 3d 43 bd 27 d3 a8 bd
       0.015367303 -0.071147144 -0.04766614 -0.08243399
000190 57 11 81 3c bf e8 3f be 45 94 2b be 22 79 14 3e
       0.015755339 -0.1874113 -0.16755779 0.14499334
0001a0 3b 21 10 3e 58 36 46 bd 6a 07 da bd 8a 4f 06 3d
       0.14075176 -0.04839167 -0.10645945 0.032790698
0001b0 2e 9e d5 3d c2 38 7b bc 20 de 37 3e 5b 3b 72 be
       0.10430561 -0.015333356 0.17955828 -0.23655455
0001c0 90 c7 e9 3d 0a 64 dd bc 86 5c 01 bd 86 04 c3 3d
       0.11415017 -0.027025241 -0.031582378 0.09522347
0001d0 59 1b 8f 3c c5 f0 a2 3d a7 35 ad bd cd 4a b4 3c
       0.017469095 0.079560794 -0.08457499 0.022008324
0001e0 ab 2b bc 3c 02 50 91 bd a1 7d 73 bb fa 8d 1d 3e
       0.022970041 -0.070953384 -0.0037153738 0.15386191
0001f0 10 6d 92 bd ec 08 98 3c 31 bd 5b 3a 88 7d 05 3d
       -0.07149708 0.018558942 0.0008382379 0.03259042
000200 6c 1b 5b bd 4f b9 9c 3d ae 5a 4b bd 5a 0a 5b be
       -0.05349295 0.07652532 -0.049647026 -0.21390668
000210 8c c1 93 3d 99 4a 43 3e b1 9e 6f be f4 b5 48 be
       0.072146505 0.19071425 -0.2340038 -0.1960066
000220 5b a7 12 3e 79 8c cc 3e cc 87 3c be 49 b4 6e bc
       0.14321654 0.39950922 -0.18411177 -0.0145693505
000230 ac f6 38 be 0f 69 8f 3e 5a 4a 30 3e 2a 20 d0 bc
       -0.18062848 0.2800984 0.17215863 -0.025405962
000240 b3 f7 1b be a8 da 42 be 1d a6 84 be 6a af 49 3e
       -0.15231209 -0.19028723 -0.25907984 0.19695821
000250 ed 0a 78 bd d3 50 aa be 33 ef ae bd b3 e2 ac 3d
       -0.060557295 -0.3326479 -0.085417174 0.08441677
000260 b6 e9 67 be 64 19 ac 3e 5e 00 8f bd 73 8f c7 bd
       -0.22647747 0.33613122 -0.06982492 -0.09744158
000270 97 60 38 3d 26 dc 22 be 32 9e a8 bd a2 9d 4b 3e
       0.04501399 -0.15904292 -0.08233298 0.19884351
000280 9c f3 26 3e 85 f7 3a be dc 9a ab 3c ea 4f 4b 3c
       0.16303867 -0.18258484 0.020947866 0.01240919
000290 0d 4e 18 bd 08 cf dc bd 14 c5 27 be 13 53 52 bd
       -0.03718381 -0.107816756 -0.16383773 -0.051348757
0002a0 e6 29 1c 3e 3b 0d 8e 3e cc a9 ce be a7 3d 29 3d
       0.15250358 0.2774447 -0.4036392 0.041318562
0002b0 b8 b0 7f be 6e ef 4f 3e 8d ca a5 3d 40 cf 71 3e
       -0.24969757 0.20306179 0.08095274 0.23614216
0002c0 7a 95 ac bd 2a b5 a3 bd fb 21 14 be da 2f eb bd
       -0.08426948 -0.07993539 -0.14466088 -0.11483736
0002d0 a0 70 0e be e3 bd 69 be 41 f1 95 39 72 37 83 3d
       -0.1391015 -0.22826342 0.00028599243 0.0640706
0002e0 6d 9c 4c 3c 93 fc 57 3e d2 50 82 bd 19 d3 7a be
       0.012488467 0.21092443 -0.063630715 -0.2449459
0002f0 4f cf 74 bd ab 41 47 bd ce 35 3f be 3d 19 a5 3d
       -0.059768017 -0.04864661 -0.18672869 0.080614544
000300 d7 cd d0 3e 37 6b 02 3e 9b 00 f1 bd 52 c7 fa bd
       0.40782043 0.12736212 -0.117676936 -0.122450486
000310 aa 4a bf 3e 93 52 8a 3e 1b 6c 00 3e 9b ed 23 be
       0.37361652 0.27016124 0.12541239 -0.16008608
000320 35 67 37 be 96 14 7e 3d 85 6a fe 3d c3 9f 4d 3d
       -0.17910464 0.06203135 0.12422661 0.05020119
000330 b7 d2 1d bd 90 f8 81 bc 3f 05 2c be ee 4a 86 3e
       -0.03853103 -0.015865594 -0.16798876 0.26229042
000340 71 a2 b7 bc 74 4b e7 be 08 45 7f bd 77 4d 22 be
       -0.022416325 -0.45174754 -0.062321693 -0.15849863
000350 99 c6 bc be d5 32 d5 bb 76 a0 94 3e 9c 1f bf bd
       -0.36870268 -0.006506304 0.29028672 -0.09332201
000360 cd 0d 96 be 8b 6c 20 be 10 fe de 3e a0 52 65 be
       -0.29307404 -0.15666406 0.4355321 -0.223948
000370 db 6c 11 be 5a 55 1d bc 80 d5 83 bc 06 ff 0c be
       -0.14201681 -0.009602869 -0.016093016 -0.13769159
000380 a5 89 b4 3d 56 2b 61 3d a9 09 30 3e 55 f8 65 be
       0.08815316 0.05497297 0.17191185 -0.22458012
000390 a9 c9 3f 3d 89 ed ad bd 15 fb 49 be 54 42 32 be
       0.046823177 -0.08492572 -0.19724686 -0.17408115
0003a0 da 4a b9 3d e9 ba b9 3e aa aa dc be c0 e2 f6 3d
       0.0904748 0.36275414 -0.43098956 0.12054968
0003b0 36 9b b3 be aa 85 8b 3e b8 5b 47 3e 71 14 c8 bd
       -0.35079354 0.27250415 0.19468582 -0.09769524
0003c0 31 61 af be ad 95 4a 3d 7d 3d 36 bd 74 5b a2 3d
       -0.3425384 0.04945915 -0.044492234 0.079275995
0003d0 e9 82 d8 3d 00 ed 48 be 6a 0e 04 3e 46 63 fa bc
       0.10571844 -0.19621658 0.12896124 -0.030564915
0003e0 85 51 7c 3d 7d bf 9b 3e 63 09 6b be fd 35 43 be
       0.06160118 0.3041953 -0.229528 -0.19063564
0003f0 b9 49 a3 be 01 a9 81 3d 36 b7 88 be dc 72 81 3e
       -0.31892183 0.06331063 -0.2670228 0.25282943

bias f4 [256]
000000 ff 9a 15 3e 5d ba 70 3e cd 76 16 be f9 cf 94 bc
       0.14609908 0.23508592 -0.14693756 -0.018165575
000010 a9 a1 89 be f6 e1 37 be 37 06 66 3e 47 29 c6 be
       -0.2688115 -0.17957291 0.22463308 -0.38703367
000020 33 c0 40 3e 31 20 91 3e f4 b0 41 3e e8 12 52 3e
       0.18823318 0.28344873 0.18915159 0.20515025
000030 4e 66 0a 3f 02 86 04 3d 51 52 a1 be 97 2c 2d 3e
       0.54062355 0.032354362 -0.31508115 0.16911541
000040 5c c8 03 3e 5b b3 de 3e 21 11 93 be 36 f5 90 be
       0.128694 0.43496212 -0.28724006 -0.2831208
000050 6f 83 0f 3d f9 99 57 be b4 3d 90 3e bb d6 9b 3d
       0.035037454 -0.2105483 0.28172076 0.07609316
000060 a3 14 9e be f4 d0 b3 bd 64 04 06 3d bf 83 26 bd
       -0.3087512 -0.08780089 0.03271903 -0.040652987
000070 f5 22 d7 3e 4f e9 d7 3c 26 af 9d be 94 c6 30 3e
       0.42018858 0.026356367 -0.3079769 0.17263252
000080 ad 30 64 3d ad 12 7e be 4a aa 34 3e 91 bf a0 3e
       0.055710483 -0.24811812 0.17643085 0.31396154
000090 af e3 89 bd 2d f3 d9 bd 27 0b 28 3e 7e a8 6e 3e
       -0.0673288 -0.10642085 0.16410504 0.23306462
0000a0 b2 90 19 be 2e ed cb 3d 8a 0d 80 3e 85 45 29 3d
       -0.14996603 0.09957348 0.2501033 0.041326065
0000b0 9c 3b 47 3e 05 68 82 3e 4a 66 78 be de 40 98 3d
       0.19456333 0.25469986 -0.2425777 0.074342474
0000c0 bf 2f 4d be 48 57 ac be 31 39 1f 3d cd cb 30 3d
       -0.20037745 -0.3366034 0.0388729 0.04316311
0000d0 e6 3e f5 3d 7e d5 dd 3d 42 90 cd 3d bd e6 2a be
       0.119748875 0.10831736 0.100372806 -0.16689582
0000e0 92 e7 98 3e 41 a9 4b 3e f8 40 05 3d 91 31 c4 3b
       0.29864174 0.19888784 0.032532662 0.005987354
0000f0 97 32 08 3f aa 49 8f 3d 1a 1f 31 be 2b 02 25 3e
       0.53202194 0.06996472 -0.1729702 0.16114108
000100 63 c7 40 3e d9 48 cd be f3 31 e0 3c 6b 67 af be
       0.1882606 -0.4009464 0.027367568 -0.3425859
000110 58 6c da be 15 9b 3e be 3d 05 ec 3c c5 b9 51 3e
       -0.42660785 -0.18613847 0.028811092 0.20481022
000120 07 27 f0 bd cd c5 29 3e 77 80 d8 3b eb fa 8c bd
       -0.11726194 0.16579361 0.006607111 -0.06883796
000130 25 af 5b 3e ab 25 8b 3e 85 79 f0 3d 9a 02 b5 3c
       0.21453531 0.27177176 0.11741928 0.022095967
000140 07 72 95 be 9a 5f 95 3d 4e a4 ff 3c 68 f3 ce bb
       -0.29188558 0.07293625 0.031206276 -0.0063156374
000150 91 7c 26 3e ed 61 ed bd 93 f8 4c 3e 4d 07 8a 3e
       0.16258456 -0.115909435 0.20016699 0.26958695
000160 44 b1 1b 3d ac 15 20 be f4 76 a8 3d 23 59 a8 3e
       0.03801085 -0.15633267 0.082258135 0.32880506
000170 64 7d e3 3e c3 9f 9b 3e fc a5 f1 3d 3e b1 d4 bb
       0.44431603 0.30395326 0.11799237 -0.0064908555
000180 78 b7 46 3e 3a 5a 83 be 9b f1 69 be dd c4 7a be
       0.19405925 -0.25654775 -0.22846071 -0.2448916
000190 58 fd 8d 3d d5 fb 10 3d 0b 78 47 3e 4d bb 8d be
       0.06933087 0.035396416 0.19479387 -0.27681962
0001a0 fd b3 58 3e 84 a8 bc 3c 42 d5 b7 3c 95 82 df bd
       0.2116241 0.023029573 0.022440556 -0.109135784
0001b0 ca 03 b6 be fa 00 c7 3d ac 9e 97 bd e0 9d 75 3d
       -0.35549766 0.09716983 -0.07403311 0.059965014
0001c0 a9 0e 91 3e 00 61 80 be d6 fb 2b 3d 1b 00 59 3e
       0.28331497 -0.25074005 0.041988216 0.21191446
0001d0 e0 20 cd bd ba 44 a8 bb 26 9d 9f bb f9 b5 f7 3d
       -0.10016036 -0.005135146 -0.0048710285 0.120952554
0001e0 b2 20 a0 3e 64 7b e5 be ba 11 ab be 64 7d a6 bb
       0.31274945 -0.44820702 -0.33411962 -0.0050808657
0001f0 46 3a 1f 3e 3a a2 97 3e bf a9 33 3e db d5 01 3e
       0.15549573 0.29615957 0.17545222 0.12679236
000200 e3 88 66 3e e9 a8 fd bd b3 4e c1 3d 60 70 3f be
       0.22513156 -0.12385733 0.09438839 -0.18695211
000210 63 98 ae 3e 6a 8d b0 3d 88 a5 9e be 13 bb 1b 3d
       0.34100637 0.086207226 -0.30985665 0.038020205
000220 af 30 9b bc 0d 64 36 be bc 07 72 3d c7 4b 84 be
       -0.018944113 -0.17811604 0.059089407 -0.25839064
000230 cd cf d1 bc ae 6a b8 3e 1c b6 51 3e 38 6e ff bd
       -0.025611782 0.3601889 0.20479625 -0.124721944
000240 90 9d 17 bd 2b d3 8c bd 25 72 8d 3e d5 5d 13 be
       -0.037015498 -0.068762146 0.27626148 -0.14391263
000250 8d 98 f3 3d 1f d0 8a 3e b4 56 96 be c5 72 67 3e
       0.11894331 0.2711191 -0.29363024 0.22602375
000260 44 52 8f be 49 45 b2 3e f5 96 a8 3d c1 c2 76 3e
       -0.2799245 0.34818485 0.08231918 0.2409773
000270 82 f2 54 3e 21 d8 43 3c d5 0c f1 3e 8c 03 81 3e
       0.20795634 0.011953385 0.47080103 0.2519802
000280 f9 ff 0e 3e 9b 98 3e be 65 73 66 3e 2b 71 41 be
       0.13964833 -0.18612902 0.22504957 -0.18890826
000290 3b 54 33 3e d7 45 e8 bd aa c5 dc 3d 28 5b ad 3e
       0.175126 -0.11341446 0.10779889 0.3385861
0002a0 2e 5f 4b 3d 2a 5c 8c 3e a8 ce 8a bd 35 54 68 be
       0.049651317 0.27414066 -0.06777698 -0.22688372
0002b0 a8 34 95 3e bf 0d da be ed 9c 96 3d f4 7c d4 3d
       0.29141736 -0.42588612 0.0735415 0.103753954
0002c0 82 a5 09 bd 1b eb 8c 3e 54 b2 4d be cd cc 34 be
       -0.033605106 0.2752312 -0.20087558 -0.1765625
0002d0 29 48 c4 3e 83 81 8c be 80 fd a2 3d b2 46 a6 bc
       0.38336304 -0.2744256 0.079585075 -0.020297382
0002e0 2c eb 90 be 5e 08 5a be 01 57 e4 be 32 63 7b 3e
       -0.28304422 -0.21292254 -0.4459763 0.24549559
0002f0 7d 86 76 3e 60 cd 84 3e 1b 22 ee bd 4a 5a 69 be
       0.2407474 0.2593794 -0.11627599 -0.22788349
000300 78 83 84 bd 42 92 a7 3e 0d 04 19 be 76 3f 03 3d
       -0.06470388 0.32728773 -0.14942952 0.032042943
000310 88 31 8b 3e 08 94 bd bd 68 fe c0 3e fc e4 16 3e
       0.27186227 -0.0925675 0.37694097 0.14735788
000320 07 29 14 be 59 53 99 3e 60 67 e8 3d d0 69 8e be
       -0.14468776 0.29946402 0.11347842 -0.27815104
000330 df 8b 2d bd 07 b8 29 3d 72 38 1a 3e ca 79 57 3e
       -0.04236972 0.041435268 0.15060595 0.21042553
000340 ee 0e 2e be 8b 51 01 3d 87 3b a0 be 3c 41 91 bd
       -0.16997883 0.031571906 -0.31295416 -0.070925206
000350 16 d1 6e 3d fb 99 a1 3d 2b ac b6 3d 73 7b 44 3e
       0.05830487 0.078906976 0.08919557 0.19187717
000360 c9 bc 12 be 39 37 c1 3d ca ec 83 be 3c 90 68 3e
       -0.14329828 0.09434361 -0.25766593 0.22711271
000370 49 ad 0d 3e 12 8c c4 3e f1 4b 22 be e3 82 c7 3e
       0.13835634 0.38388115 -0.15849282 0.38967046
000380 c2 d8 25 3e 03 52 09 3e 7f 5e 77 be 2f d5 a0 bd
       0.16195968 0.13410191 -0.24157141 -0.078531615
000390 2a bc 6f 3e 93 ef 74 be 23 6e 3f 3e 4f a5 87 3d
       0.23411623 -0.23919515 0.18694358 0.06623327
0003a0 b5 80 a0 3e dd 52 83 be f5 3d 9e 3d bf 87 10 bd
       0.31348196 -0.25649157 0.07726661 -0.035285708
0003b0 25 ba e0 3d c7 1f 95 3e 25 16 c0 bb 77 b6 2f bc
       0.10973004 0.29125807 -0.005862015 -0.010724655
0003c0 be 2c 16 3e 06 23 c0 be b9 a8 83 3e e0 43 f7 bd
       0.14665505 -0.3752672 0.25714663 -0.12073493
0003d0 15 8b dc 3d aa 6f 4f 3d 1c 75 ab bd ee ee 17 3f
       0.10768715 0.0506436 -0.08371946 0.5934895
0003e0 4c 7a 32 be 9e d5 07 3e 6f 7c 87 3e 0b f7 9e bc
       -0.17429465 0.13265082 0.26462123 -0.019404909
0003f0 05 0f dc 3d 6b 0a 24 bb 00 3a ae 3e 38 81 dc 3d
       0.10745052 -0.0025030624 0.34028625 0.10766834
